{"config": {"name": "inception_v3", "input_layers": [["input_4", 0, 0]], "output_layers": [["predictions", 0, 0]], "layers": [{"name": "input_4", "config": {"name": "input_4", "sparse": false, "batch_input_shape": [null, null, null, 3], "dtype": "float32"}, "class_name": "InputLayer", "inbound_nodes": []}, {"name": "conv2d", "config": {"bias_regularizer": null, "padding": "valid", "strides": [2, 2], "kernel_size": [3, 3], "kernel_initializer": {"config": {"seed": null, "dtype": "float32"}, "class_name": "GlorotUniform"}, "dilation_rate": [1, 1], "dtype": "float32", "activation": "linear", "name": "conv2d", "bias_constraint": null, "trainable": true, "kernel_constraint": null, "use_bias": false, "kernel_regularizer": null, "bias_initializer": {"config": {"dtype": "float32"}, "class_name": "Zeros"}, "activity_regularizer": null, "data_format": "channels_last", "filters": 32}, "class_name": "Conv2D", "inbound_nodes": [[["input_4", 0, 0, {}]]]}, {"name": "batch_normalization", "config": {"gamma_regularizer": null, "gamma_initializer": {"config": {"dtype": "float32"}, "class_name": "Ones"}, "momentum": 0.99, "center": true, "axis": [3], "beta_regularizer": null, "dtype": "float32", "scale": false, "name": "batch_normalization", "trainable": true, "gamma_constraint": null, "beta_constraint": null, "beta_initializer": {"config": {"dtype": "float32"}, "class_name": "Zeros"}, "moving_variance_initializer": {"config": {"dtype": "float32"}, "class_name": "Ones"}, "epsilon": 0.001, "moving_mean_initializer": {"config": {"dtype": "float32"}, "class_name": "Zeros"}}, "class_name": "BatchNormalization", "inbound_nodes": [[["conv2d", 0, 0, {}]]]}, {"name": "activation_49", "config": {"name": "activation_49", "activation": "relu", "trainable": true, "dtype": "float32"}, "class_name": "Activation", "inbound_nodes": [[["batch_normalization", 0, 0, {}]]]}, {"name": "conv2d_1", "config": {"bias_regularizer": null, "padding": "valid", "strides": [1, 1], "kernel_size": [3, 3], "kernel_initializer": {"config": {"seed": null, "dtype": "float32"}, "class_name": "GlorotUniform"}, "dilation_rate": [1, 1], "dtype": "float32", "activation": "linear", "name": "conv2d_1", "bias_constraint": null, "trainable": true, "kernel_constraint": null, "use_bias": false, "kernel_regularizer": null, "bias_initializer": {"config": {"dtype": "float32"}, "class_name": "Zeros"}, "activity_regularizer": null, "data_format": "channels_last", "filters": 32}, "class_name": "Conv2D", "inbound_nodes": [[["activation_49", 0, 0, {}]]]}, {"name": "batch_normalization_1", "config": {"gamma_regularizer": null, "gamma_initializer": {"config": {"dtype": "float32"}, "class_name": "Ones"}, "momentum": 0.99, "center": true, "axis": [3], "beta_regularizer": null, "dtype": "float32", "scale": false, "name": "batch_normalization_1", "trainable": true, "gamma_constraint": null, "beta_constraint": null, "beta_initializer": {"config": {"dtype": "float32"}, "class_name": "Zeros"}, "moving_variance_initializer": {"config": {"dtype": "float32"}, "class_name": "Ones"}, "epsilon": 0.001, "moving_mean_initializer": {"config": {"dtype": "float32"}, "class_name": "Zeros"}}, "class_name": "BatchNormalization", "inbound_nodes": [[["conv2d_1", 0, 0, {}]]]}, {"name": "activation_50", "config": {"name": "activation_50", "activation": "relu", "trainable": true, "dtype": "float32"}, "class_name": "Activation", "inbound_nodes": [[["batch_normalization_1", 0, 0, {}]]]}, {"name": "conv2d_2", "config": {"bias_regularizer": null, "padding": "same", "strides": [1, 1], "kernel_size": [3, 3], "kernel_initializer": {"config": {"seed": null, "dtype": "float32"}, "class_name": "GlorotUniform"}, "dilation_rate": [1, 1], "dtype": "float32", "activation": "linear", "name": "conv2d_2", "bias_constraint": null, "trainable": true, "kernel_constraint": null, "use_bias": false, "kernel_regularizer": null, "bias_initializer": {"config": {"dtype": "float32"}, "class_name": "Zeros"}, "activity_regularizer": null, "data_format": "channels_last", "filters": 64}, "class_name": "Conv2D", "inbound_nodes": [[["activation_50", 0, 0, {}]]]}, {"name": "batch_normalization_2", "config": {"gamma_regularizer": null, "gamma_initializer": {"config": {"dtype": "float32"}, "class_name": "Ones"}, "momentum": 0.99, "center": true, "axis": [3], "beta_regularizer": null, "dtype": "float32", "scale": false, "name": "batch_normalization_2", "trainable": true, "gamma_constraint": null, "beta_constraint": null, "beta_initializer": {"config": {"dtype": "float32"}, "class_name": "Zeros"}, "moving_variance_initializer": {"config": {"dtype": "float32"}, "class_name": "Ones"}, "epsilon": 0.001, "moving_mean_initializer": {"config": {"dtype": "float32"}, "class_name": "Zeros"}}, "class_name": "BatchNormalization", "inbound_nodes": [[["conv2d_2", 0, 0, {}]]]}, {"name": "activation_51", "config": {"name": "activation_51", "activation": "relu", "trainable": true, "dtype": "float32"}, "class_name": "Activation", "inbound_nodes": [[["batch_normalization_2", 0, 0, {}]]]}, {"name": "max_pooling2d_1", "config": {"trainable": true, "padding": "valid", "name": "max_pooling2d_1", "strides": [2, 2], "data_format": "channels_last", "pool_size": [3, 3], "dtype": "float32"}, "class_name": "MaxPooling2D", "inbound_nodes": [[["activation_51", 0, 0, {}]]]}, {"name": "conv2d_3", "config": {"bias_regularizer": null, "padding": "valid", "strides": [1, 1], "kernel_size": [1, 1], "kernel_initializer": {"config": {"seed": null, "dtype": "float32"}, "class_name": "GlorotUniform"}, "dilation_rate": [1, 1], "dtype": "float32", "activation": "linear", "name": "conv2d_3", "bias_constraint": null, "trainable": true, "kernel_constraint": null, "use_bias": false, "kernel_regularizer": null, "bias_initializer": {"config": {"dtype": "float32"}, "class_name": "Zeros"}, "activity_regularizer": null, "data_format": "channels_last", "filters": 80}, "class_name": "Conv2D", "inbound_nodes": [[["max_pooling2d_1", 0, 0, {}]]]}, {"name": "batch_normalization_3", "config": {"gamma_regularizer": null, "gamma_initializer": {"config": {"dtype": "float32"}, "class_name": "Ones"}, "momentum": 0.99, "center": true, "axis": [3], "beta_regularizer": null, "dtype": "float32", "scale": false, "name": "batch_normalization_3", "trainable": true, "gamma_constraint": null, "beta_constraint": null, "beta_initializer": {"config": {"dtype": "float32"}, "class_name": "Zeros"}, "moving_variance_initializer": {"config": {"dtype": "float32"}, "class_name": "Ones"}, "epsilon": 0.001, "moving_mean_initializer": {"config": {"dtype": "float32"}, "class_name": "Zeros"}}, "class_name": "BatchNormalization", "inbound_nodes": [[["conv2d_3", 0, 0, {}]]]}, {"name": "activation_52", "config": {"name": "activation_52", "activation": "relu", "trainable": true, "dtype": "float32"}, "class_name": "Activation", "inbound_nodes": [[["batch_normalization_3", 0, 0, {}]]]}, {"name": "conv2d_4", "config": {"bias_regularizer": null, "padding": "valid", "strides": [1, 1], "kernel_size": [3, 3], "kernel_initializer": {"config": {"seed": null, "dtype": "float32"}, "class_name": "GlorotUniform"}, "dilation_rate": [1, 1], "dtype": "float32", "activation": "linear", "name": "conv2d_4", "bias_constraint": null, "trainable": true, "kernel_constraint": null, "use_bias": false, "kernel_regularizer": null, "bias_initializer": {"config": {"dtype": "float32"}, "class_name": "Zeros"}, "activity_regularizer": null, "data_format": "channels_last", "filters": 192}, "class_name": "Conv2D", "inbound_nodes": [[["activation_52", 0, 0, {}]]]}, {"name": "batch_normalization_4", "config": {"gamma_regularizer": null, "gamma_initializer": {"config": {"dtype": "float32"}, "class_name": "Ones"}, "momentum": 0.99, "center": true, "axis": [3], "beta_regularizer": null, "dtype": "float32", "scale": false, "name": "batch_normalization_4", "trainable": true, "gamma_constraint": null, "beta_constraint": null, "beta_initializer": {"config": {"dtype": "float32"}, "class_name": "Zeros"}, "moving_variance_initializer": {"config": {"dtype": "float32"}, "class_name": "Ones"}, "epsilon": 0.001, "moving_mean_initializer": {"config": {"dtype": "float32"}, "class_name": "Zeros"}}, "class_name": "BatchNormalization", "inbound_nodes": [[["conv2d_4", 0, 0, {}]]]}, {"name": "activation_53", "config": {"name": "activation_53", "activation": "relu", "trainable": true, "dtype": "float32"}, "class_name": "Activation", "inbound_nodes": [[["batch_normalization_4", 0, 0, {}]]]}, {"name": "max_pooling2d_2", "config": {"trainable": true, "padding": "valid", "name": "max_pooling2d_2", "strides": [2, 2], "data_format": "channels_last", "pool_size": [3, 3], "dtype": "float32"}, "class_name": "MaxPooling2D", "inbound_nodes": [[["activation_53", 0, 0, {}]]]}, {"name": "conv2d_8", "config": {"bias_regularizer": null, "padding": "same", "strides": [1, 1], "kernel_size": [1, 1], "kernel_initializer": {"config": {"seed": null, "dtype": "float32"}, "class_name": "GlorotUniform"}, "dilation_rate": [1, 1], "dtype": "float32", "activation": "linear", "name": "conv2d_8", "bias_constraint": null, "trainable": true, "kernel_constraint": null, "use_bias": false, "kernel_regularizer": null, "bias_initializer": {"config": {"dtype": "float32"}, "class_name": "Zeros"}, "activity_regularizer": null, "data_format": "channels_last", "filters": 64}, "class_name": "Conv2D", "inbound_nodes": [[["max_pooling2d_2", 0, 0, {}]]]}, {"name": "batch_normalization_8", "config": {"gamma_regularizer": null, "gamma_initializer": {"config": {"dtype": "float32"}, "class_name": "Ones"}, "momentum": 0.99, "center": true, "axis": [3], "beta_regularizer": null, "dtype": "float32", "scale": false, "name": "batch_normalization_8", "trainable": true, "gamma_constraint": null, "beta_constraint": null, "beta_initializer": {"config": {"dtype": "float32"}, "class_name": "Zeros"}, "moving_variance_initializer": {"config": {"dtype": "float32"}, "class_name": "Ones"}, "epsilon": 0.001, "moving_mean_initializer": {"config": {"dtype": "float32"}, "class_name": "Zeros"}}, "class_name": "BatchNormalization", "inbound_nodes": [[["conv2d_8", 0, 0, {}]]]}, {"name": "activation_57", "config": {"name": "activation_57", "activation": "relu", "trainable": true, "dtype": "float32"}, "class_name": "Activation", "inbound_nodes": [[["batch_normalization_8", 0, 0, {}]]]}, {"name": "conv2d_6", "config": {"bias_regularizer": null, "padding": "same", "strides": [1, 1], "kernel_size": [1, 1], "kernel_initializer": {"config": {"seed": null, "dtype": "float32"}, "class_name": "GlorotUniform"}, "dilation_rate": [1, 1], "dtype": "float32", "activation": "linear", "name": "conv2d_6", "bias_constraint": null, "trainable": true, "kernel_constraint": null, "use_bias": false, "kernel_regularizer": null, "bias_initializer": {"config": {"dtype": "float32"}, "class_name": "Zeros"}, "activity_regularizer": null, "data_format": "channels_last", "filters": 48}, "class_name": "Conv2D", "inbound_nodes": [[["max_pooling2d_2", 0, 0, {}]]]}, {"name": "conv2d_9", "config": {"bias_regularizer": null, "padding": "same", "strides": [1, 1], "kernel_size": [3, 3], "kernel_initializer": {"config": {"seed": null, "dtype": "float32"}, "class_name": "GlorotUniform"}, "dilation_rate": [1, 1], "dtype": "float32", "activation": "linear", "name": "conv2d_9", "bias_constraint": null, "trainable": true, "kernel_constraint": null, "use_bias": false, "kernel_regularizer": null, "bias_initializer": {"config": {"dtype": "float32"}, "class_name": "Zeros"}, "activity_regularizer": null, "data_format": "channels_last", "filters": 96}, "class_name": "Conv2D", "inbound_nodes": [[["activation_57", 0, 0, {}]]]}, {"name": "batch_normalization_6", "config": {"gamma_regularizer": null, "gamma_initializer": {"config": {"dtype": "float32"}, "class_name": "Ones"}, "momentum": 0.99, "center": true, "axis": [3], "beta_regularizer": null, "dtype": "float32", "scale": false, "name": "batch_normalization_6", "trainable": true, "gamma_constraint": null, "beta_constraint": null, "beta_initializer": {"config": {"dtype": "float32"}, "class_name": "Zeros"}, "moving_variance_initializer": {"config": {"dtype": "float32"}, "class_name": "Ones"}, "epsilon": 0.001, "moving_mean_initializer": {"config": {"dtype": "float32"}, "class_name": "Zeros"}}, "class_name": "BatchNormalization", "inbound_nodes": [[["conv2d_6", 0, 0, {}]]]}, {"name": "batch_normalization_9", "config": {"gamma_regularizer": null, "gamma_initializer": {"config": {"dtype": "float32"}, "class_name": "Ones"}, "momentum": 0.99, "center": true, "axis": [3], "beta_regularizer": null, "dtype": "float32", "scale": false, "name": "batch_normalization_9", "trainable": true, "gamma_constraint": null, "beta_constraint": null, "beta_initializer": {"config": {"dtype": "float32"}, "class_name": "Zeros"}, "moving_variance_initializer": {"config": {"dtype": "float32"}, "class_name": "Ones"}, "epsilon": 0.001, "moving_mean_initializer": {"config": {"dtype": "float32"}, "class_name": "Zeros"}}, "class_name": "BatchNormalization", "inbound_nodes": [[["conv2d_9", 0, 0, {}]]]}, {"name": "activation_55", "config": {"name": "activation_55", "activation": "relu", "trainable": true, "dtype": "float32"}, "class_name": "Activation", "inbound_nodes": [[["batch_normalization_6", 0, 0, {}]]]}, {"name": "activation_58", "config": {"name": "activation_58", "activation": "relu", "trainable": true, "dtype": "float32"}, "class_name": "Activation", "inbound_nodes": [[["batch_normalization_9", 0, 0, {}]]]}, {"name": "average_pooling2d", "config": {"trainable": true, "padding": "same", "name": "average_pooling2d", "strides": [1, 1], "data_format": "channels_last", "pool_size": [3, 3], "dtype": "float32"}, "class_name": "AveragePooling2D", "inbound_nodes": [[["max_pooling2d_2", 0, 0, {}]]]}, {"name": "conv2d_5", "config": {"bias_regularizer": null, "padding": "same", "strides": [1, 1], "kernel_size": [1, 1], "kernel_initializer": {"config": {"seed": null, "dtype": "float32"}, "class_name": "GlorotUniform"}, "dilation_rate": [1, 1], "dtype": "float32", "activation": "linear", "name": "conv2d_5", "bias_constraint": null, "trainable": true, "kernel_constraint": null, "use_bias": false, "kernel_regularizer": null, "bias_initializer": {"config": {"dtype": "float32"}, "class_name": "Zeros"}, "activity_regularizer": null, "data_format": "channels_last", "filters": 64}, "class_name": "Conv2D", "inbound_nodes": [[["max_pooling2d_2", 0, 0, {}]]]}, {"name": "conv2d_7", "config": {"bias_regularizer": null, "padding": "same", "strides": [1, 1], "kernel_size": [5, 5], "kernel_initializer": {"config": {"seed": null, "dtype": "float32"}, "class_name": "GlorotUniform"}, "dilation_rate": [1, 1], "dtype": "float32", "activation": "linear", "name": "conv2d_7", "bias_constraint": null, "trainable": true, "kernel_constraint": null, "use_bias": false, "kernel_regularizer": null, "bias_initializer": {"config": {"dtype": "float32"}, "class_name": "Zeros"}, "activity_regularizer": null, "data_format": "channels_last", "filters": 64}, "class_name": "Conv2D", "inbound_nodes": [[["activation_55", 0, 0, {}]]]}, {"name": "conv2d_10", "config": {"bias_regularizer": null, "padding": "same", "strides": [1, 1], "kernel_size": [3, 3], "kernel_initializer": {"config": {"seed": null, "dtype": "float32"}, "class_name": "GlorotUniform"}, "dilation_rate": [1, 1], "dtype": "float32", "activation": "linear", "name": "conv2d_10", "bias_constraint": null, "trainable": true, "kernel_constraint": null, "use_bias": false, "kernel_regularizer": null, "bias_initializer": {"config": {"dtype": "float32"}, "class_name": "Zeros"}, "activity_regularizer": null, "data_format": "channels_last", "filters": 96}, "class_name": "Conv2D", "inbound_nodes": [[["activation_58", 0, 0, {}]]]}, {"name": "conv2d_11", "config": {"bias_regularizer": null, "padding": "same", "strides": [1, 1], "kernel_size": [1, 1], "kernel_initializer": {"config": {"seed": null, "dtype": "float32"}, "class_name": "GlorotUniform"}, "dilation_rate": [1, 1], "dtype": "float32", "activation": "linear", "name": "conv2d_11", "bias_constraint": null, "trainable": true, "kernel_constraint": null, "use_bias": false, "kernel_regularizer": null, "bias_initializer": {"config": {"dtype": "float32"}, "class_name": "Zeros"}, "activity_regularizer": null, "data_format": "channels_last", "filters": 32}, "class_name": "Conv2D", "inbound_nodes": [[["average_pooling2d", 0, 0, {}]]]}, {"name": "batch_normalization_5", "config": {"gamma_regularizer": null, "gamma_initializer": {"config": {"dtype": "float32"}, "class_name": "Ones"}, "momentum": 0.99, "center": true, "axis": [3], "beta_regularizer": null, "dtype": "float32", "scale": false, "name": "batch_normalization_5", "trainable": true, "gamma_constraint": null, "beta_constraint": null, "beta_initializer": {"config": {"dtype": "float32"}, "class_name": "Zeros"}, "moving_variance_initializer": {"config": {"dtype": "float32"}, "class_name": "Ones"}, "epsilon": 0.001, "moving_mean_initializer": {"config": {"dtype": "float32"}, "class_name": "Zeros"}}, "class_name": "BatchNormalization", "inbound_nodes": [[["conv2d_5", 0, 0, {}]]]}, {"name": "batch_normalization_7", "config": {"gamma_regularizer": null, "gamma_initializer": {"config": {"dtype": "float32"}, "class_name": "Ones"}, "momentum": 0.99, "center": true, "axis": [3], "beta_regularizer": null, "dtype": "float32", "scale": false, "name": "batch_normalization_7", "trainable": true, "gamma_constraint": null, "beta_constraint": null, "beta_initializer": {"config": {"dtype": "float32"}, "class_name": "Zeros"}, "moving_variance_initializer": {"config": {"dtype": "float32"}, "class_name": "Ones"}, "epsilon": 0.001, "moving_mean_initializer": {"config": {"dtype": "float32"}, "class_name": "Zeros"}}, "class_name": "BatchNormalization", "inbound_nodes": [[["conv2d_7", 0, 0, {}]]]}, {"name": "batch_normalization_10", "config": {"gamma_regularizer": null, "gamma_initializer": {"config": {"dtype": "float32"}, "class_name": "Ones"}, "momentum": 0.99, "center": true, "axis": [3], "beta_regularizer": null, "dtype": "float32", "scale": false, "name": "batch_normalization_10", "trainable": true, "gamma_constraint": null, "beta_constraint": null, "beta_initializer": {"config": {"dtype": "float32"}, "class_name": "Zeros"}, "moving_variance_initializer": {"config": {"dtype": "float32"}, "class_name": "Ones"}, "epsilon": 0.001, "moving_mean_initializer": {"config": {"dtype": "float32"}, "class_name": "Zeros"}}, "class_name": "BatchNormalization", "inbound_nodes": [[["conv2d_10", 0, 0, {}]]]}, {"name": "batch_normalization_11", "config": {"gamma_regularizer": null, "gamma_initializer": {"config": {"dtype": "float32"}, "class_name": "Ones"}, "momentum": 0.99, "center": true, "axis": [3], "beta_regularizer": null, "dtype": "float32", "scale": false, "name": "batch_normalization_11", "trainable": true, "gamma_constraint": null, "beta_constraint": null, "beta_initializer": {"config": {"dtype": "float32"}, "class_name": "Zeros"}, "moving_variance_initializer": {"config": {"dtype": "float32"}, "class_name": "Ones"}, "epsilon": 0.001, "moving_mean_initializer": {"config": {"dtype": "float32"}, "class_name": "Zeros"}}, "class_name": "BatchNormalization", "inbound_nodes": [[["conv2d_11", 0, 0, {}]]]}, {"name": "activation_54", "config": {"name": "activation_54", "activation": "relu", "trainable": true, "dtype": "float32"}, "class_name": "Activation", "inbound_nodes": [[["batch_normalization_5", 0, 0, {}]]]}, {"name": "activation_56", "config": {"name": "activation_56", "activation": "relu", "trainable": true, "dtype": "float32"}, "class_name": "Activation", "inbound_nodes": [[["batch_normalization_7", 0, 0, {}]]]}, {"name": "activation_59", "config": {"name": "activation_59", "activation": "relu", "trainable": true, "dtype": "float32"}, "class_name": "Activation", "inbound_nodes": [[["batch_normalization_10", 0, 0, {}]]]}, {"name": "activation_60", "config": {"name": "activation_60", "activation": "relu", "trainable": true, "dtype": "float32"}, "class_name": "Activation", "inbound_nodes": [[["batch_normalization_11", 0, 0, {}]]]}, {"name": "mixed0", "config": {"name": "mixed0", "axis": 3, "trainable": true, "dtype": "float32"}, "class_name": "Concatenate", "inbound_nodes": [[["activation_54", 0, 0, {}], ["activation_56", 0, 0, {}], ["activation_59", 0, 0, {}], ["activation_60", 0, 0, {}]]]}, {"name": "conv2d_15", "config": {"bias_regularizer": null, "padding": "same", "strides": [1, 1], "kernel_size": [1, 1], "kernel_initializer": {"config": {"seed": null, "dtype": "float32"}, "class_name": "GlorotUniform"}, "dilation_rate": [1, 1], "dtype": "float32", "activation": "linear", "name": "conv2d_15", "bias_constraint": null, "trainable": true, "kernel_constraint": null, "use_bias": false, "kernel_regularizer": null, "bias_initializer": {"config": {"dtype": "float32"}, "class_name": "Zeros"}, "activity_regularizer": null, "data_format": "channels_last", "filters": 64}, "class_name": "Conv2D", "inbound_nodes": [[["mixed0", 0, 0, {}]]]}, {"name": "batch_normalization_15", "config": {"gamma_regularizer": null, "gamma_initializer": {"config": {"dtype": "float32"}, "class_name": "Ones"}, "momentum": 0.99, "center": true, "axis": [3], "beta_regularizer": null, "dtype": "float32", "scale": false, "name": "batch_normalization_15", "trainable": true, "gamma_constraint": null, "beta_constraint": null, "beta_initializer": {"config": {"dtype": "float32"}, "class_name": "Zeros"}, "moving_variance_initializer": {"config": {"dtype": "float32"}, "class_name": "Ones"}, "epsilon": 0.001, "moving_mean_initializer": {"config": {"dtype": "float32"}, "class_name": "Zeros"}}, "class_name": "BatchNormalization", "inbound_nodes": [[["conv2d_15", 0, 0, {}]]]}, {"name": "activation_64", "config": {"name": "activation_64", "activation": "relu", "trainable": true, "dtype": "float32"}, "class_name": "Activation", "inbound_nodes": [[["batch_normalization_15", 0, 0, {}]]]}, {"name": "conv2d_13", "config": {"bias_regularizer": null, "padding": "same", "strides": [1, 1], "kernel_size": [1, 1], "kernel_initializer": {"config": {"seed": null, "dtype": "float32"}, "class_name": "GlorotUniform"}, "dilation_rate": [1, 1], "dtype": "float32", "activation": "linear", "name": "conv2d_13", "bias_constraint": null, "trainable": true, "kernel_constraint": null, "use_bias": false, "kernel_regularizer": null, "bias_initializer": {"config": {"dtype": "float32"}, "class_name": "Zeros"}, "activity_regularizer": null, "data_format": "channels_last", "filters": 48}, "class_name": "Conv2D", "inbound_nodes": [[["mixed0", 0, 0, {}]]]}, {"name": "conv2d_16", "config": {"bias_regularizer": null, "padding": "same", "strides": [1, 1], "kernel_size": [3, 3], "kernel_initializer": {"config": {"seed": null, "dtype": "float32"}, "class_name": "GlorotUniform"}, "dilation_rate": [1, 1], "dtype": "float32", "activation": "linear", "name": "conv2d_16", "bias_constraint": null, "trainable": true, "kernel_constraint": null, "use_bias": false, "kernel_regularizer": null, "bias_initializer": {"config": {"dtype": "float32"}, "class_name": "Zeros"}, "activity_regularizer": null, "data_format": "channels_last", "filters": 96}, "class_name": "Conv2D", "inbound_nodes": [[["activation_64", 0, 0, {}]]]}, {"name": "batch_normalization_13", "config": {"gamma_regularizer": null, "gamma_initializer": {"config": {"dtype": "float32"}, "class_name": "Ones"}, "momentum": 0.99, "center": true, "axis": [3], "beta_regularizer": null, "dtype": "float32", "scale": false, "name": "batch_normalization_13", "trainable": true, "gamma_constraint": null, "beta_constraint": null, "beta_initializer": {"config": {"dtype": "float32"}, "class_name": "Zeros"}, "moving_variance_initializer": {"config": {"dtype": "float32"}, "class_name": "Ones"}, "epsilon": 0.001, "moving_mean_initializer": {"config": {"dtype": "float32"}, "class_name": "Zeros"}}, "class_name": "BatchNormalization", "inbound_nodes": [[["conv2d_13", 0, 0, {}]]]}, {"name": "batch_normalization_16", "config": {"gamma_regularizer": null, "gamma_initializer": {"config": {"dtype": "float32"}, "class_name": "Ones"}, "momentum": 0.99, "center": true, "axis": [3], "beta_regularizer": null, "dtype": "float32", "scale": false, "name": "batch_normalization_16", "trainable": true, "gamma_constraint": null, "beta_constraint": null, "beta_initializer": {"config": {"dtype": "float32"}, "class_name": "Zeros"}, "moving_variance_initializer": {"config": {"dtype": "float32"}, "class_name": "Ones"}, "epsilon": 0.001, "moving_mean_initializer": {"config": {"dtype": "float32"}, "class_name": "Zeros"}}, "class_name": "BatchNormalization", "inbound_nodes": [[["conv2d_16", 0, 0, {}]]]}, {"name": "activation_62", "config": {"name": "activation_62", "activation": "relu", "trainable": true, "dtype": "float32"}, "class_name": "Activation", "inbound_nodes": [[["batch_normalization_13", 0, 0, {}]]]}, {"name": "activation_65", "config": {"name": "activation_65", "activation": "relu", "trainable": true, "dtype": "float32"}, "class_name": "Activation", "inbound_nodes": [[["batch_normalization_16", 0, 0, {}]]]}, {"name": "average_pooling2d_1", "config": {"trainable": true, "padding": "same", "name": "average_pooling2d_1", "strides": [1, 1], "data_format": "channels_last", "pool_size": [3, 3], "dtype": "float32"}, "class_name": "AveragePooling2D", "inbound_nodes": [[["mixed0", 0, 0, {}]]]}, {"name": "conv2d_12", "config": {"bias_regularizer": null, "padding": "same", "strides": [1, 1], "kernel_size": [1, 1], "kernel_initializer": {"config": {"seed": null, "dtype": "float32"}, "class_name": "GlorotUniform"}, "dilation_rate": [1, 1], "dtype": "float32", "activation": "linear", "name": "conv2d_12", "bias_constraint": null, "trainable": true, "kernel_constraint": null, "use_bias": false, "kernel_regularizer": null, "bias_initializer": {"config": {"dtype": "float32"}, "class_name": "Zeros"}, "activity_regularizer": null, "data_format": "channels_last", "filters": 64}, "class_name": "Conv2D", "inbound_nodes": [[["mixed0", 0, 0, {}]]]}, {"name": "conv2d_14", "config": {"bias_regularizer": null, "padding": "same", "strides": [1, 1], "kernel_size": [5, 5], "kernel_initializer": {"config": {"seed": null, "dtype": "float32"}, "class_name": "GlorotUniform"}, "dilation_rate": [1, 1], "dtype": "float32", "activation": "linear", "name": "conv2d_14", "bias_constraint": null, "trainable": true, "kernel_constraint": null, "use_bias": false, "kernel_regularizer": null, "bias_initializer": {"config": {"dtype": "float32"}, "class_name": "Zeros"}, "activity_regularizer": null, "data_format": "channels_last", "filters": 64}, "class_name": "Conv2D", "inbound_nodes": [[["activation_62", 0, 0, {}]]]}, {"name": "conv2d_17", "config": {"bias_regularizer": null, "padding": "same", "strides": [1, 1], "kernel_size": [3, 3], "kernel_initializer": {"config": {"seed": null, "dtype": "float32"}, "class_name": "GlorotUniform"}, "dilation_rate": [1, 1], "dtype": "float32", "activation": "linear", "name": "conv2d_17", "bias_constraint": null, "trainable": true, "kernel_constraint": null, "use_bias": false, "kernel_regularizer": null, "bias_initializer": {"config": {"dtype": "float32"}, "class_name": "Zeros"}, "activity_regularizer": null, "data_format": "channels_last", "filters": 96}, "class_name": "Conv2D", "inbound_nodes": [[["activation_65", 0, 0, {}]]]}, {"name": "conv2d_18", "config": {"bias_regularizer": null, "padding": "same", "strides": [1, 1], "kernel_size": [1, 1], "kernel_initializer": {"config": {"seed": null, "dtype": "float32"}, "class_name": "GlorotUniform"}, "dilation_rate": [1, 1], "dtype": "float32", "activation": "linear", "name": "conv2d_18", "bias_constraint": null, "trainable": true, "kernel_constraint": null, "use_bias": false, "kernel_regularizer": null, "bias_initializer": {"config": {"dtype": "float32"}, "class_name": "Zeros"}, "activity_regularizer": null, "data_format": "channels_last", "filters": 64}, "class_name": "Conv2D", "inbound_nodes": [[["average_pooling2d_1", 0, 0, {}]]]}, {"name": "batch_normalization_12", "config": {"gamma_regularizer": null, "gamma_initializer": {"config": {"dtype": "float32"}, "class_name": "Ones"}, "momentum": 0.99, "center": true, "axis": [3], "beta_regularizer": null, "dtype": "float32", "scale": false, "name": "batch_normalization_12", "trainable": true, "gamma_constraint": null, "beta_constraint": null, "beta_initializer": {"config": {"dtype": "float32"}, "class_name": "Zeros"}, "moving_variance_initializer": {"config": {"dtype": "float32"}, "class_name": "Ones"}, "epsilon": 0.001, "moving_mean_initializer": {"config": {"dtype": "float32"}, "class_name": "Zeros"}}, "class_name": "BatchNormalization", "inbound_nodes": [[["conv2d_12", 0, 0, {}]]]}, {"name": "batch_normalization_14", "config": {"gamma_regularizer": null, "gamma_initializer": {"config": {"dtype": "float32"}, "class_name": "Ones"}, "momentum": 0.99, "center": true, "axis": [3], "beta_regularizer": null, "dtype": "float32", "scale": false, "name": "batch_normalization_14", "trainable": true, "gamma_constraint": null, "beta_constraint": null, "beta_initializer": {"config": {"dtype": "float32"}, "class_name": "Zeros"}, "moving_variance_initializer": {"config": {"dtype": "float32"}, "class_name": "Ones"}, "epsilon": 0.001, "moving_mean_initializer": {"config": {"dtype": "float32"}, "class_name": "Zeros"}}, "class_name": "BatchNormalization", "inbound_nodes": [[["conv2d_14", 0, 0, {}]]]}, {"name": "batch_normalization_17", "config": {"gamma_regularizer": null, "gamma_initializer": {"config": {"dtype": "float32"}, "class_name": "Ones"}, "momentum": 0.99, "center": true, "axis": [3], "beta_regularizer": null, "dtype": "float32", "scale": false, "name": "batch_normalization_17", "trainable": true, "gamma_constraint": null, "beta_constraint": null, "beta_initializer": {"config": {"dtype": "float32"}, "class_name": "Zeros"}, "moving_variance_initializer": {"config": {"dtype": "float32"}, "class_name": "Ones"}, "epsilon": 0.001, "moving_mean_initializer": {"config": {"dtype": "float32"}, "class_name": "Zeros"}}, "class_name": "BatchNormalization", "inbound_nodes": [[["conv2d_17", 0, 0, {}]]]}, {"name": "batch_normalization_18", "config": {"gamma_regularizer": null, "gamma_initializer": {"config": {"dtype": "float32"}, "class_name": "Ones"}, "momentum": 0.99, "center": true, "axis": [3], "beta_regularizer": null, "dtype": "float32", "scale": false, "name": "batch_normalization_18", "trainable": true, "gamma_constraint": null, "beta_constraint": null, "beta_initializer": {"config": {"dtype": "float32"}, "class_name": "Zeros"}, "moving_variance_initializer": {"config": {"dtype": "float32"}, "class_name": "Ones"}, "epsilon": 0.001, "moving_mean_initializer": {"config": {"dtype": "float32"}, "class_name": "Zeros"}}, "class_name": "BatchNormalization", "inbound_nodes": [[["conv2d_18", 0, 0, {}]]]}, {"name": "activation_61", "config": {"name": "activation_61", "activation": "relu", "trainable": true, "dtype": "float32"}, "class_name": "Activation", "inbound_nodes": [[["batch_normalization_12", 0, 0, {}]]]}, {"name": "activation_63", "config": {"name": "activation_63", "activation": "relu", "trainable": true, "dtype": "float32"}, "class_name": "Activation", "inbound_nodes": [[["batch_normalization_14", 0, 0, {}]]]}, {"name": "activation_66", "config": {"name": "activation_66", "activation": "relu", "trainable": true, "dtype": "float32"}, "class_name": "Activation", "inbound_nodes": [[["batch_normalization_17", 0, 0, {}]]]}, {"name": "activation_67", "config": {"name": "activation_67", "activation": "relu", "trainable": true, "dtype": "float32"}, "class_name": "Activation", "inbound_nodes": [[["batch_normalization_18", 0, 0, {}]]]}, {"name": "mixed1", "config": {"name": "mixed1", "axis": 3, "trainable": true, "dtype": "float32"}, "class_name": "Concatenate", "inbound_nodes": [[["activation_61", 0, 0, {}], ["activation_63", 0, 0, {}], ["activation_66", 0, 0, {}], ["activation_67", 0, 0, {}]]]}, {"name": "conv2d_22", "config": {"bias_regularizer": null, "padding": "same", "strides": [1, 1], "kernel_size": [1, 1], "kernel_initializer": {"config": {"seed": null, "dtype": "float32"}, "class_name": "GlorotUniform"}, "dilation_rate": [1, 1], "dtype": "float32", "activation": "linear", "name": "conv2d_22", "bias_constraint": null, "trainable": true, "kernel_constraint": null, "use_bias": false, "kernel_regularizer": null, "bias_initializer": {"config": {"dtype": "float32"}, "class_name": "Zeros"}, "activity_regularizer": null, "data_format": "channels_last", "filters": 64}, "class_name": "Conv2D", "inbound_nodes": [[["mixed1", 0, 0, {}]]]}, {"name": "batch_normalization_22", "config": {"gamma_regularizer": null, "gamma_initializer": {"config": {"dtype": "float32"}, "class_name": "Ones"}, "momentum": 0.99, "center": true, "axis": [3], "beta_regularizer": null, "dtype": "float32", "scale": false, "name": "batch_normalization_22", "trainable": true, "gamma_constraint": null, "beta_constraint": null, "beta_initializer": {"config": {"dtype": "float32"}, "class_name": "Zeros"}, "moving_variance_initializer": {"config": {"dtype": "float32"}, "class_name": "Ones"}, "epsilon": 0.001, "moving_mean_initializer": {"config": {"dtype": "float32"}, "class_name": "Zeros"}}, "class_name": "BatchNormalization", "inbound_nodes": [[["conv2d_22", 0, 0, {}]]]}, {"name": "activation_71", "config": {"name": "activation_71", "activation": "relu", "trainable": true, "dtype": "float32"}, "class_name": "Activation", "inbound_nodes": [[["batch_normalization_22", 0, 0, {}]]]}, {"name": "conv2d_20", "config": {"bias_regularizer": null, "padding": "same", "strides": [1, 1], "kernel_size": [1, 1], "kernel_initializer": {"config": {"seed": null, "dtype": "float32"}, "class_name": "GlorotUniform"}, "dilation_rate": [1, 1], "dtype": "float32", "activation": "linear", "name": "conv2d_20", "bias_constraint": null, "trainable": true, "kernel_constraint": null, "use_bias": false, "kernel_regularizer": null, "bias_initializer": {"config": {"dtype": "float32"}, "class_name": "Zeros"}, "activity_regularizer": null, "data_format": "channels_last", "filters": 48}, "class_name": "Conv2D", "inbound_nodes": [[["mixed1", 0, 0, {}]]]}, {"name": "conv2d_23", "config": {"bias_regularizer": null, "padding": "same", "strides": [1, 1], "kernel_size": [3, 3], "kernel_initializer": {"config": {"seed": null, "dtype": "float32"}, "class_name": "GlorotUniform"}, "dilation_rate": [1, 1], "dtype": "float32", "activation": "linear", "name": "conv2d_23", "bias_constraint": null, "trainable": true, "kernel_constraint": null, "use_bias": false, "kernel_regularizer": null, "bias_initializer": {"config": {"dtype": "float32"}, "class_name": "Zeros"}, "activity_regularizer": null, "data_format": "channels_last", "filters": 96}, "class_name": "Conv2D", "inbound_nodes": [[["activation_71", 0, 0, {}]]]}, {"name": "batch_normalization_20", "config": {"gamma_regularizer": null, "gamma_initializer": {"config": {"dtype": "float32"}, "class_name": "Ones"}, "momentum": 0.99, "center": true, "axis": [3], "beta_regularizer": null, "dtype": "float32", "scale": false, "name": "batch_normalization_20", "trainable": true, "gamma_constraint": null, "beta_constraint": null, "beta_initializer": {"config": {"dtype": "float32"}, "class_name": "Zeros"}, "moving_variance_initializer": {"config": {"dtype": "float32"}, "class_name": "Ones"}, "epsilon": 0.001, "moving_mean_initializer": {"config": {"dtype": "float32"}, "class_name": "Zeros"}}, "class_name": "BatchNormalization", "inbound_nodes": [[["conv2d_20", 0, 0, {}]]]}, {"name": "batch_normalization_23", "config": {"gamma_regularizer": null, "gamma_initializer": {"config": {"dtype": "float32"}, "class_name": "Ones"}, "momentum": 0.99, "center": true, "axis": [3], "beta_regularizer": null, "dtype": "float32", "scale": false, "name": "batch_normalization_23", "trainable": true, "gamma_constraint": null, "beta_constraint": null, "beta_initializer": {"config": {"dtype": "float32"}, "class_name": "Zeros"}, "moving_variance_initializer": {"config": {"dtype": "float32"}, "class_name": "Ones"}, "epsilon": 0.001, "moving_mean_initializer": {"config": {"dtype": "float32"}, "class_name": "Zeros"}}, "class_name": "BatchNormalization", "inbound_nodes": [[["conv2d_23", 0, 0, {}]]]}, {"name": "activation_69", "config": {"name": "activation_69", "activation": "relu", "trainable": true, "dtype": "float32"}, "class_name": "Activation", "inbound_nodes": [[["batch_normalization_20", 0, 0, {}]]]}, {"name": "activation_72", "config": {"name": "activation_72", "activation": "relu", "trainable": true, "dtype": "float32"}, "class_name": "Activation", "inbound_nodes": [[["batch_normalization_23", 0, 0, {}]]]}, {"name": "average_pooling2d_2", "config": {"trainable": true, "padding": "same", "name": "average_pooling2d_2", "strides": [1, 1], "data_format": "channels_last", "pool_size": [3, 3], "dtype": "float32"}, "class_name": "AveragePooling2D", "inbound_nodes": [[["mixed1", 0, 0, {}]]]}, {"name": "conv2d_19", "config": {"bias_regularizer": null, "padding": "same", "strides": [1, 1], "kernel_size": [1, 1], "kernel_initializer": {"config": {"seed": null, "dtype": "float32"}, "class_name": "GlorotUniform"}, "dilation_rate": [1, 1], "dtype": "float32", "activation": "linear", "name": "conv2d_19", "bias_constraint": null, "trainable": true, "kernel_constraint": null, "use_bias": false, "kernel_regularizer": null, "bias_initializer": {"config": {"dtype": "float32"}, "class_name": "Zeros"}, "activity_regularizer": null, "data_format": "channels_last", "filters": 64}, "class_name": "Conv2D", "inbound_nodes": [[["mixed1", 0, 0, {}]]]}, {"name": "conv2d_21", "config": {"bias_regularizer": null, "padding": "same", "strides": [1, 1], "kernel_size": [5, 5], "kernel_initializer": {"config": {"seed": null, "dtype": "float32"}, "class_name": "GlorotUniform"}, "dilation_rate": [1, 1], "dtype": "float32", "activation": "linear", "name": "conv2d_21", "bias_constraint": null, "trainable": true, "kernel_constraint": null, "use_bias": false, "kernel_regularizer": null, "bias_initializer": {"config": {"dtype": "float32"}, "class_name": "Zeros"}, "activity_regularizer": null, "data_format": "channels_last", "filters": 64}, "class_name": "Conv2D", "inbound_nodes": [[["activation_69", 0, 0, {}]]]}, {"name": "conv2d_24", "config": {"bias_regularizer": null, "padding": "same", "strides": [1, 1], "kernel_size": [3, 3], "kernel_initializer": {"config": {"seed": null, "dtype": "float32"}, "class_name": "GlorotUniform"}, "dilation_rate": [1, 1], "dtype": "float32", "activation": "linear", "name": "conv2d_24", "bias_constraint": null, "trainable": true, "kernel_constraint": null, "use_bias": false, "kernel_regularizer": null, "bias_initializer": {"config": {"dtype": "float32"}, "class_name": "Zeros"}, "activity_regularizer": null, "data_format": "channels_last", "filters": 96}, "class_name": "Conv2D", "inbound_nodes": [[["activation_72", 0, 0, {}]]]}, {"name": "conv2d_25", "config": {"bias_regularizer": null, "padding": "same", "strides": [1, 1], "kernel_size": [1, 1], "kernel_initializer": {"config": {"seed": null, "dtype": "float32"}, "class_name": "GlorotUniform"}, "dilation_rate": [1, 1], "dtype": "float32", "activation": "linear", "name": "conv2d_25", "bias_constraint": null, "trainable": true, "kernel_constraint": null, "use_bias": false, "kernel_regularizer": null, "bias_initializer": {"config": {"dtype": "float32"}, "class_name": "Zeros"}, "activity_regularizer": null, "data_format": "channels_last", "filters": 64}, "class_name": "Conv2D", "inbound_nodes": [[["average_pooling2d_2", 0, 0, {}]]]}, {"name": "batch_normalization_19", "config": {"gamma_regularizer": null, "gamma_initializer": {"config": {"dtype": "float32"}, "class_name": "Ones"}, "momentum": 0.99, "center": true, "axis": [3], "beta_regularizer": null, "dtype": "float32", "scale": false, "name": "batch_normalization_19", "trainable": true, "gamma_constraint": null, "beta_constraint": null, "beta_initializer": {"config": {"dtype": "float32"}, "class_name": "Zeros"}, "moving_variance_initializer": {"config": {"dtype": "float32"}, "class_name": "Ones"}, "epsilon": 0.001, "moving_mean_initializer": {"config": {"dtype": "float32"}, "class_name": "Zeros"}}, "class_name": "BatchNormalization", "inbound_nodes": [[["conv2d_19", 0, 0, {}]]]}, {"name": "batch_normalization_21", "config": {"gamma_regularizer": null, "gamma_initializer": {"config": {"dtype": "float32"}, "class_name": "Ones"}, "momentum": 0.99, "center": true, "axis": [3], "beta_regularizer": null, "dtype": "float32", "scale": false, "name": "batch_normalization_21", "trainable": true, "gamma_constraint": null, "beta_constraint": null, "beta_initializer": {"config": {"dtype": "float32"}, "class_name": "Zeros"}, "moving_variance_initializer": {"config": {"dtype": "float32"}, "class_name": "Ones"}, "epsilon": 0.001, "moving_mean_initializer": {"config": {"dtype": "float32"}, "class_name": "Zeros"}}, "class_name": "BatchNormalization", "inbound_nodes": [[["conv2d_21", 0, 0, {}]]]}, {"name": "batch_normalization_24", "config": {"gamma_regularizer": null, "gamma_initializer": {"config": {"dtype": "float32"}, "class_name": "Ones"}, "momentum": 0.99, "center": true, "axis": [3], "beta_regularizer": null, "dtype": "float32", "scale": false, "name": "batch_normalization_24", "trainable": true, "gamma_constraint": null, "beta_constraint": null, "beta_initializer": {"config": {"dtype": "float32"}, "class_name": "Zeros"}, "moving_variance_initializer": {"config": {"dtype": "float32"}, "class_name": "Ones"}, "epsilon": 0.001, "moving_mean_initializer": {"config": {"dtype": "float32"}, "class_name": "Zeros"}}, "class_name": "BatchNormalization", "inbound_nodes": [[["conv2d_24", 0, 0, {}]]]}, {"name": "batch_normalization_25", "config": {"gamma_regularizer": null, "gamma_initializer": {"config": {"dtype": "float32"}, "class_name": "Ones"}, "momentum": 0.99, "center": true, "axis": [3], "beta_regularizer": null, "dtype": "float32", "scale": false, "name": "batch_normalization_25", "trainable": true, "gamma_constraint": null, "beta_constraint": null, "beta_initializer": {"config": {"dtype": "float32"}, "class_name": "Zeros"}, "moving_variance_initializer": {"config": {"dtype": "float32"}, "class_name": "Ones"}, "epsilon": 0.001, "moving_mean_initializer": {"config": {"dtype": "float32"}, "class_name": "Zeros"}}, "class_name": "BatchNormalization", "inbound_nodes": [[["conv2d_25", 0, 0, {}]]]}, {"name": "activation_68", "config": {"name": "activation_68", "activation": "relu", "trainable": true, "dtype": "float32"}, "class_name": "Activation", "inbound_nodes": [[["batch_normalization_19", 0, 0, {}]]]}, {"name": "activation_70", "config": {"name": "activation_70", "activation": "relu", "trainable": true, "dtype": "float32"}, "class_name": "Activation", "inbound_nodes": [[["batch_normalization_21", 0, 0, {}]]]}, {"name": "activation_73", "config": {"name": "activation_73", "activation": "relu", "trainable": true, "dtype": "float32"}, "class_name": "Activation", "inbound_nodes": [[["batch_normalization_24", 0, 0, {}]]]}, {"name": "activation_74", "config": {"name": "activation_74", "activation": "relu", "trainable": true, "dtype": "float32"}, "class_name": "Activation", "inbound_nodes": [[["batch_normalization_25", 0, 0, {}]]]}, {"name": "mixed2", "config": {"name": "mixed2", "axis": 3, "trainable": true, "dtype": "float32"}, "class_name": "Concatenate", "inbound_nodes": [[["activation_68", 0, 0, {}], ["activation_70", 0, 0, {}], ["activation_73", 0, 0, {}], ["activation_74", 0, 0, {}]]]}, {"name": "conv2d_27", "config": {"bias_regularizer": null, "padding": "same", "strides": [1, 1], "kernel_size": [1, 1], "kernel_initializer": {"config": {"seed": null, "dtype": "float32"}, "class_name": "GlorotUniform"}, "dilation_rate": [1, 1], "dtype": "float32", "activation": "linear", "name": "conv2d_27", "bias_constraint": null, "trainable": true, "kernel_constraint": null, "use_bias": false, "kernel_regularizer": null, "bias_initializer": {"config": {"dtype": "float32"}, "class_name": "Zeros"}, "activity_regularizer": null, "data_format": "channels_last", "filters": 64}, "class_name": "Conv2D", "inbound_nodes": [[["mixed2", 0, 0, {}]]]}, {"name": "batch_normalization_27", "config": {"gamma_regularizer": null, "gamma_initializer": {"config": {"dtype": "float32"}, "class_name": "Ones"}, "momentum": 0.99, "center": true, "axis": [3], "beta_regularizer": null, "dtype": "float32", "scale": false, "name": "batch_normalization_27", "trainable": true, "gamma_constraint": null, "beta_constraint": null, "beta_initializer": {"config": {"dtype": "float32"}, "class_name": "Zeros"}, "moving_variance_initializer": {"config": {"dtype": "float32"}, "class_name": "Ones"}, "epsilon": 0.001, "moving_mean_initializer": {"config": {"dtype": "float32"}, "class_name": "Zeros"}}, "class_name": "BatchNormalization", "inbound_nodes": [[["conv2d_27", 0, 0, {}]]]}, {"name": "activation_76", "config": {"name": "activation_76", "activation": "relu", "trainable": true, "dtype": "float32"}, "class_name": "Activation", "inbound_nodes": [[["batch_normalization_27", 0, 0, {}]]]}, {"name": "conv2d_28", "config": {"bias_regularizer": null, "padding": "same", "strides": [1, 1], "kernel_size": [3, 3], "kernel_initializer": {"config": {"seed": null, "dtype": "float32"}, "class_name": "GlorotUniform"}, "dilation_rate": [1, 1], "dtype": "float32", "activation": "linear", "name": "conv2d_28", "bias_constraint": null, "trainable": true, "kernel_constraint": null, "use_bias": false, "kernel_regularizer": null, "bias_initializer": {"config": {"dtype": "float32"}, "class_name": "Zeros"}, "activity_regularizer": null, "data_format": "channels_last", "filters": 96}, "class_name": "Conv2D", "inbound_nodes": [[["activation_76", 0, 0, {}]]]}, {"name": "batch_normalization_28", "config": {"gamma_regularizer": null, "gamma_initializer": {"config": {"dtype": "float32"}, "class_name": "Ones"}, "momentum": 0.99, "center": true, "axis": [3], "beta_regularizer": null, "dtype": "float32", "scale": false, "name": "batch_normalization_28", "trainable": true, "gamma_constraint": null, "beta_constraint": null, "beta_initializer": {"config": {"dtype": "float32"}, "class_name": "Zeros"}, "moving_variance_initializer": {"config": {"dtype": "float32"}, "class_name": "Ones"}, "epsilon": 0.001, "moving_mean_initializer": {"config": {"dtype": "float32"}, "class_name": "Zeros"}}, "class_name": "BatchNormalization", "inbound_nodes": [[["conv2d_28", 0, 0, {}]]]}, {"name": "activation_77", "config": {"name": "activation_77", "activation": "relu", "trainable": true, "dtype": "float32"}, "class_name": "Activation", "inbound_nodes": [[["batch_normalization_28", 0, 0, {}]]]}, {"name": "conv2d_26", "config": {"bias_regularizer": null, "padding": "valid", "strides": [2, 2], "kernel_size": [3, 3], "kernel_initializer": {"config": {"seed": null, "dtype": "float32"}, "class_name": "GlorotUniform"}, "dilation_rate": [1, 1], "dtype": "float32", "activation": "linear", "name": "conv2d_26", "bias_constraint": null, "trainable": true, "kernel_constraint": null, "use_bias": false, "kernel_regularizer": null, "bias_initializer": {"config": {"dtype": "float32"}, "class_name": "Zeros"}, "activity_regularizer": null, "data_format": "channels_last", "filters": 384}, "class_name": "Conv2D", "inbound_nodes": [[["mixed2", 0, 0, {}]]]}, {"name": "conv2d_29", "config": {"bias_regularizer": null, "padding": "valid", "strides": [2, 2], "kernel_size": [3, 3], "kernel_initializer": {"config": {"seed": null, "dtype": "float32"}, "class_name": "GlorotUniform"}, "dilation_rate": [1, 1], "dtype": "float32", "activation": "linear", "name": "conv2d_29", "bias_constraint": null, "trainable": true, "kernel_constraint": null, "use_bias": false, "kernel_regularizer": null, "bias_initializer": {"config": {"dtype": "float32"}, "class_name": "Zeros"}, "activity_regularizer": null, "data_format": "channels_last", "filters": 96}, "class_name": "Conv2D", "inbound_nodes": [[["activation_77", 0, 0, {}]]]}, {"name": "batch_normalization_26", "config": {"gamma_regularizer": null, "gamma_initializer": {"config": {"dtype": "float32"}, "class_name": "Ones"}, "momentum": 0.99, "center": true, "axis": [3], "beta_regularizer": null, "dtype": "float32", "scale": false, "name": "batch_normalization_26", "trainable": true, "gamma_constraint": null, "beta_constraint": null, "beta_initializer": {"config": {"dtype": "float32"}, "class_name": "Zeros"}, "moving_variance_initializer": {"config": {"dtype": "float32"}, "class_name": "Ones"}, "epsilon": 0.001, "moving_mean_initializer": {"config": {"dtype": "float32"}, "class_name": "Zeros"}}, "class_name": "BatchNormalization", "inbound_nodes": [[["conv2d_26", 0, 0, {}]]]}, {"name": "batch_normalization_29", "config": {"gamma_regularizer": null, "gamma_initializer": {"config": {"dtype": "float32"}, "class_name": "Ones"}, "momentum": 0.99, "center": true, "axis": [3], "beta_regularizer": null, "dtype": "float32", "scale": false, "name": "batch_normalization_29", "trainable": true, "gamma_constraint": null, "beta_constraint": null, "beta_initializer": {"config": {"dtype": "float32"}, "class_name": "Zeros"}, "moving_variance_initializer": {"config": {"dtype": "float32"}, "class_name": "Ones"}, "epsilon": 0.001, "moving_mean_initializer": {"config": {"dtype": "float32"}, "class_name": "Zeros"}}, "class_name": "BatchNormalization", "inbound_nodes": [[["conv2d_29", 0, 0, {}]]]}, {"name": "activation_75", "config": {"name": "activation_75", "activation": "relu", "trainable": true, "dtype": "float32"}, "class_name": "Activation", "inbound_nodes": [[["batch_normalization_26", 0, 0, {}]]]}, {"name": "activation_78", "config": {"name": "activation_78", "activation": "relu", "trainable": true, "dtype": "float32"}, "class_name": "Activation", "inbound_nodes": [[["batch_normalization_29", 0, 0, {}]]]}, {"name": "max_pooling2d_3", "config": {"trainable": true, "padding": "valid", "name": "max_pooling2d_3", "strides": [2, 2], "data_format": "channels_last", "pool_size": [3, 3], "dtype": "float32"}, "class_name": "MaxPooling2D", "inbound_nodes": [[["mixed2", 0, 0, {}]]]}, {"name": "mixed3", "config": {"name": "mixed3", "axis": 3, "trainable": true, "dtype": "float32"}, "class_name": "Concatenate", "inbound_nodes": [[["activation_75", 0, 0, {}], ["activation_78", 0, 0, {}], ["max_pooling2d_3", 0, 0, {}]]]}, {"name": "conv2d_34", "config": {"bias_regularizer": null, "padding": "same", "strides": [1, 1], "kernel_size": [1, 1], "kernel_initializer": {"config": {"seed": null, "dtype": "float32"}, "class_name": "GlorotUniform"}, "dilation_rate": [1, 1], "dtype": "float32", "activation": "linear", "name": "conv2d_34", "bias_constraint": null, "trainable": true, "kernel_constraint": null, "use_bias": false, "kernel_regularizer": null, "bias_initializer": {"config": {"dtype": "float32"}, "class_name": "Zeros"}, "activity_regularizer": null, "data_format": "channels_last", "filters": 128}, "class_name": "Conv2D", "inbound_nodes": [[["mixed3", 0, 0, {}]]]}, {"name": "batch_normalization_34", "config": {"gamma_regularizer": null, "gamma_initializer": {"config": {"dtype": "float32"}, "class_name": "Ones"}, "momentum": 0.99, "center": true, "axis": [3], "beta_regularizer": null, "dtype": "float32", "scale": false, "name": "batch_normalization_34", "trainable": true, "gamma_constraint": null, "beta_constraint": null, "beta_initializer": {"config": {"dtype": "float32"}, "class_name": "Zeros"}, "moving_variance_initializer": {"config": {"dtype": "float32"}, "class_name": "Ones"}, "epsilon": 0.001, "moving_mean_initializer": {"config": {"dtype": "float32"}, "class_name": "Zeros"}}, "class_name": "BatchNormalization", "inbound_nodes": [[["conv2d_34", 0, 0, {}]]]}, {"name": "activation_83", "config": {"name": "activation_83", "activation": "relu", "trainable": true, "dtype": "float32"}, "class_name": "Activation", "inbound_nodes": [[["batch_normalization_34", 0, 0, {}]]]}, {"name": "conv2d_35", "config": {"bias_regularizer": null, "padding": "same", "strides": [1, 1], "kernel_size": [7, 1], "kernel_initializer": {"config": {"seed": null, "dtype": "float32"}, "class_name": "GlorotUniform"}, "dilation_rate": [1, 1], "dtype": "float32", "activation": "linear", "name": "conv2d_35", "bias_constraint": null, "trainable": true, "kernel_constraint": null, "use_bias": false, "kernel_regularizer": null, "bias_initializer": {"config": {"dtype": "float32"}, "class_name": "Zeros"}, "activity_regularizer": null, "data_format": "channels_last", "filters": 128}, "class_name": "Conv2D", "inbound_nodes": [[["activation_83", 0, 0, {}]]]}, {"name": "batch_normalization_35", "config": {"gamma_regularizer": null, "gamma_initializer": {"config": {"dtype": "float32"}, "class_name": "Ones"}, "momentum": 0.99, "center": true, "axis": [3], "beta_regularizer": null, "dtype": "float32", "scale": false, "name": "batch_normalization_35", "trainable": true, "gamma_constraint": null, "beta_constraint": null, "beta_initializer": {"config": {"dtype": "float32"}, "class_name": "Zeros"}, "moving_variance_initializer": {"config": {"dtype": "float32"}, "class_name": "Ones"}, "epsilon": 0.001, "moving_mean_initializer": {"config": {"dtype": "float32"}, "class_name": "Zeros"}}, "class_name": "BatchNormalization", "inbound_nodes": [[["conv2d_35", 0, 0, {}]]]}, {"name": "activation_84", "config": {"name": "activation_84", "activation": "relu", "trainable": true, "dtype": "float32"}, "class_name": "Activation", "inbound_nodes": [[["batch_normalization_35", 0, 0, {}]]]}, {"name": "conv2d_31", "config": {"bias_regularizer": null, "padding": "same", "strides": [1, 1], "kernel_size": [1, 1], "kernel_initializer": {"config": {"seed": null, "dtype": "float32"}, "class_name": "GlorotUniform"}, "dilation_rate": [1, 1], "dtype": "float32", "activation": "linear", "name": "conv2d_31", "bias_constraint": null, "trainable": true, "kernel_constraint": null, "use_bias": false, "kernel_regularizer": null, "bias_initializer": {"config": {"dtype": "float32"}, "class_name": "Zeros"}, "activity_regularizer": null, "data_format": "channels_last", "filters": 128}, "class_name": "Conv2D", "inbound_nodes": [[["mixed3", 0, 0, {}]]]}, {"name": "conv2d_36", "config": {"bias_regularizer": null, "padding": "same", "strides": [1, 1], "kernel_size": [1, 7], "kernel_initializer": {"config": {"seed": null, "dtype": "float32"}, "class_name": "GlorotUniform"}, "dilation_rate": [1, 1], "dtype": "float32", "activation": "linear", "name": "conv2d_36", "bias_constraint": null, "trainable": true, "kernel_constraint": null, "use_bias": false, "kernel_regularizer": null, "bias_initializer": {"config": {"dtype": "float32"}, "class_name": "Zeros"}, "activity_regularizer": null, "data_format": "channels_last", "filters": 128}, "class_name": "Conv2D", "inbound_nodes": [[["activation_84", 0, 0, {}]]]}, {"name": "batch_normalization_31", "config": {"gamma_regularizer": null, "gamma_initializer": {"config": {"dtype": "float32"}, "class_name": "Ones"}, "momentum": 0.99, "center": true, "axis": [3], "beta_regularizer": null, "dtype": "float32", "scale": false, "name": "batch_normalization_31", "trainable": true, "gamma_constraint": null, "beta_constraint": null, "beta_initializer": {"config": {"dtype": "float32"}, "class_name": "Zeros"}, "moving_variance_initializer": {"config": {"dtype": "float32"}, "class_name": "Ones"}, "epsilon": 0.001, "moving_mean_initializer": {"config": {"dtype": "float32"}, "class_name": "Zeros"}}, "class_name": "BatchNormalization", "inbound_nodes": [[["conv2d_31", 0, 0, {}]]]}, {"name": "batch_normalization_36", "config": {"gamma_regularizer": null, "gamma_initializer": {"config": {"dtype": "float32"}, "class_name": "Ones"}, "momentum": 0.99, "center": true, "axis": [3], "beta_regularizer": null, "dtype": "float32", "scale": false, "name": "batch_normalization_36", "trainable": true, "gamma_constraint": null, "beta_constraint": null, "beta_initializer": {"config": {"dtype": "float32"}, "class_name": "Zeros"}, "moving_variance_initializer": {"config": {"dtype": "float32"}, "class_name": "Ones"}, "epsilon": 0.001, "moving_mean_initializer": {"config": {"dtype": "float32"}, "class_name": "Zeros"}}, "class_name": "BatchNormalization", "inbound_nodes": [[["conv2d_36", 0, 0, {}]]]}, {"name": "activation_80", "config": {"name": "activation_80", "activation": "relu", "trainable": true, "dtype": "float32"}, "class_name": "Activation", "inbound_nodes": [[["batch_normalization_31", 0, 0, {}]]]}, {"name": "activation_85", "config": {"name": "activation_85", "activation": "relu", "trainable": true, "dtype": "float32"}, "class_name": "Activation", "inbound_nodes": [[["batch_normalization_36", 0, 0, {}]]]}, {"name": "conv2d_32", "config": {"bias_regularizer": null, "padding": "same", "strides": [1, 1], "kernel_size": [1, 7], "kernel_initializer": {"config": {"seed": null, "dtype": "float32"}, "class_name": "GlorotUniform"}, "dilation_rate": [1, 1], "dtype": "float32", "activation": "linear", "name": "conv2d_32", "bias_constraint": null, "trainable": true, "kernel_constraint": null, "use_bias": false, "kernel_regularizer": null, "bias_initializer": {"config": {"dtype": "float32"}, "class_name": "Zeros"}, "activity_regularizer": null, "data_format": "channels_last", "filters": 128}, "class_name": "Conv2D", "inbound_nodes": [[["activation_80", 0, 0, {}]]]}, {"name": "conv2d_37", "config": {"bias_regularizer": null, "padding": "same", "strides": [1, 1], "kernel_size": [7, 1], "kernel_initializer": {"config": {"seed": null, "dtype": "float32"}, "class_name": "GlorotUniform"}, "dilation_rate": [1, 1], "dtype": "float32", "activation": "linear", "name": "conv2d_37", "bias_constraint": null, "trainable": true, "kernel_constraint": null, "use_bias": false, "kernel_regularizer": null, "bias_initializer": {"config": {"dtype": "float32"}, "class_name": "Zeros"}, "activity_regularizer": null, "data_format": "channels_last", "filters": 128}, "class_name": "Conv2D", "inbound_nodes": [[["activation_85", 0, 0, {}]]]}, {"name": "batch_normalization_32", "config": {"gamma_regularizer": null, "gamma_initializer": {"config": {"dtype": "float32"}, "class_name": "Ones"}, "momentum": 0.99, "center": true, "axis": [3], "beta_regularizer": null, "dtype": "float32", "scale": false, "name": "batch_normalization_32", "trainable": true, "gamma_constraint": null, "beta_constraint": null, "beta_initializer": {"config": {"dtype": "float32"}, "class_name": "Zeros"}, "moving_variance_initializer": {"config": {"dtype": "float32"}, "class_name": "Ones"}, "epsilon": 0.001, "moving_mean_initializer": {"config": {"dtype": "float32"}, "class_name": "Zeros"}}, "class_name": "BatchNormalization", "inbound_nodes": [[["conv2d_32", 0, 0, {}]]]}, {"name": "batch_normalization_37", "config": {"gamma_regularizer": null, "gamma_initializer": {"config": {"dtype": "float32"}, "class_name": "Ones"}, "momentum": 0.99, "center": true, "axis": [3], "beta_regularizer": null, "dtype": "float32", "scale": false, "name": "batch_normalization_37", "trainable": true, "gamma_constraint": null, "beta_constraint": null, "beta_initializer": {"config": {"dtype": "float32"}, "class_name": "Zeros"}, "moving_variance_initializer": {"config": {"dtype": "float32"}, "class_name": "Ones"}, "epsilon": 0.001, "moving_mean_initializer": {"config": {"dtype": "float32"}, "class_name": "Zeros"}}, "class_name": "BatchNormalization", "inbound_nodes": [[["conv2d_37", 0, 0, {}]]]}, {"name": "activation_81", "config": {"name": "activation_81", "activation": "relu", "trainable": true, "dtype": "float32"}, "class_name": "Activation", "inbound_nodes": [[["batch_normalization_32", 0, 0, {}]]]}, {"name": "activation_86", "config": {"name": "activation_86", "activation": "relu", "trainable": true, "dtype": "float32"}, "class_name": "Activation", "inbound_nodes": [[["batch_normalization_37", 0, 0, {}]]]}, {"name": "average_pooling2d_3", "config": {"trainable": true, "padding": "same", "name": "average_pooling2d_3", "strides": [1, 1], "data_format": "channels_last", "pool_size": [3, 3], "dtype": "float32"}, "class_name": "AveragePooling2D", "inbound_nodes": [[["mixed3", 0, 0, {}]]]}, {"name": "conv2d_30", "config": {"bias_regularizer": null, "padding": "same", "strides": [1, 1], "kernel_size": [1, 1], "kernel_initializer": {"config": {"seed": null, "dtype": "float32"}, "class_name": "GlorotUniform"}, "dilation_rate": [1, 1], "dtype": "float32", "activation": "linear", "name": "conv2d_30", "bias_constraint": null, "trainable": true, "kernel_constraint": null, "use_bias": false, "kernel_regularizer": null, "bias_initializer": {"config": {"dtype": "float32"}, "class_name": "Zeros"}, "activity_regularizer": null, "data_format": "channels_last", "filters": 192}, "class_name": "Conv2D", "inbound_nodes": [[["mixed3", 0, 0, {}]]]}, {"name": "conv2d_33", "config": {"bias_regularizer": null, "padding": "same", "strides": [1, 1], "kernel_size": [7, 1], "kernel_initializer": {"config": {"seed": null, "dtype": "float32"}, "class_name": "GlorotUniform"}, "dilation_rate": [1, 1], "dtype": "float32", "activation": "linear", "name": "conv2d_33", "bias_constraint": null, "trainable": true, "kernel_constraint": null, "use_bias": false, "kernel_regularizer": null, "bias_initializer": {"config": {"dtype": "float32"}, "class_name": "Zeros"}, "activity_regularizer": null, "data_format": "channels_last", "filters": 192}, "class_name": "Conv2D", "inbound_nodes": [[["activation_81", 0, 0, {}]]]}, {"name": "conv2d_38", "config": {"bias_regularizer": null, "padding": "same", "strides": [1, 1], "kernel_size": [1, 7], "kernel_initializer": {"config": {"seed": null, "dtype": "float32"}, "class_name": "GlorotUniform"}, "dilation_rate": [1, 1], "dtype": "float32", "activation": "linear", "name": "conv2d_38", "bias_constraint": null, "trainable": true, "kernel_constraint": null, "use_bias": false, "kernel_regularizer": null, "bias_initializer": {"config": {"dtype": "float32"}, "class_name": "Zeros"}, "activity_regularizer": null, "data_format": "channels_last", "filters": 192}, "class_name": "Conv2D", "inbound_nodes": [[["activation_86", 0, 0, {}]]]}, {"name": "conv2d_39", "config": {"bias_regularizer": null, "padding": "same", "strides": [1, 1], "kernel_size": [1, 1], "kernel_initializer": {"config": {"seed": null, "dtype": "float32"}, "class_name": "GlorotUniform"}, "dilation_rate": [1, 1], "dtype": "float32", "activation": "linear", "name": "conv2d_39", "bias_constraint": null, "trainable": true, "kernel_constraint": null, "use_bias": false, "kernel_regularizer": null, "bias_initializer": {"config": {"dtype": "float32"}, "class_name": "Zeros"}, "activity_regularizer": null, "data_format": "channels_last", "filters": 192}, "class_name": "Conv2D", "inbound_nodes": [[["average_pooling2d_3", 0, 0, {}]]]}, {"name": "batch_normalization_30", "config": {"gamma_regularizer": null, "gamma_initializer": {"config": {"dtype": "float32"}, "class_name": "Ones"}, "momentum": 0.99, "center": true, "axis": [3], "beta_regularizer": null, "dtype": "float32", "scale": false, "name": "batch_normalization_30", "trainable": true, "gamma_constraint": null, "beta_constraint": null, "beta_initializer": {"config": {"dtype": "float32"}, "class_name": "Zeros"}, "moving_variance_initializer": {"config": {"dtype": "float32"}, "class_name": "Ones"}, "epsilon": 0.001, "moving_mean_initializer": {"config": {"dtype": "float32"}, "class_name": "Zeros"}}, "class_name": "BatchNormalization", "inbound_nodes": [[["conv2d_30", 0, 0, {}]]]}, {"name": "batch_normalization_33", "config": {"gamma_regularizer": null, "gamma_initializer": {"config": {"dtype": "float32"}, "class_name": "Ones"}, "momentum": 0.99, "center": true, "axis": [3], "beta_regularizer": null, "dtype": "float32", "scale": false, "name": "batch_normalization_33", "trainable": true, "gamma_constraint": null, "beta_constraint": null, "beta_initializer": {"config": {"dtype": "float32"}, "class_name": "Zeros"}, "moving_variance_initializer": {"config": {"dtype": "float32"}, "class_name": "Ones"}, "epsilon": 0.001, "moving_mean_initializer": {"config": {"dtype": "float32"}, "class_name": "Zeros"}}, "class_name": "BatchNormalization", "inbound_nodes": [[["conv2d_33", 0, 0, {}]]]}, {"name": "batch_normalization_38", "config": {"gamma_regularizer": null, "gamma_initializer": {"config": {"dtype": "float32"}, "class_name": "Ones"}, "momentum": 0.99, "center": true, "axis": [3], "beta_regularizer": null, "dtype": "float32", "scale": false, "name": "batch_normalization_38", "trainable": true, "gamma_constraint": null, "beta_constraint": null, "beta_initializer": {"config": {"dtype": "float32"}, "class_name": "Zeros"}, "moving_variance_initializer": {"config": {"dtype": "float32"}, "class_name": "Ones"}, "epsilon": 0.001, "moving_mean_initializer": {"config": {"dtype": "float32"}, "class_name": "Zeros"}}, "class_name": "BatchNormalization", "inbound_nodes": [[["conv2d_38", 0, 0, {}]]]}, {"name": "batch_normalization_39", "config": {"gamma_regularizer": null, "gamma_initializer": {"config": {"dtype": "float32"}, "class_name": "Ones"}, "momentum": 0.99, "center": true, "axis": [3], "beta_regularizer": null, "dtype": "float32", "scale": false, "name": "batch_normalization_39", "trainable": true, "gamma_constraint": null, "beta_constraint": null, "beta_initializer": {"config": {"dtype": "float32"}, "class_name": "Zeros"}, "moving_variance_initializer": {"config": {"dtype": "float32"}, "class_name": "Ones"}, "epsilon": 0.001, "moving_mean_initializer": {"config": {"dtype": "float32"}, "class_name": "Zeros"}}, "class_name": "BatchNormalization", "inbound_nodes": [[["conv2d_39", 0, 0, {}]]]}, {"name": "activation_79", "config": {"name": "activation_79", "activation": "relu", "trainable": true, "dtype": "float32"}, "class_name": "Activation", "inbound_nodes": [[["batch_normalization_30", 0, 0, {}]]]}, {"name": "activation_82", "config": {"name": "activation_82", "activation": "relu", "trainable": true, "dtype": "float32"}, "class_name": "Activation", "inbound_nodes": [[["batch_normalization_33", 0, 0, {}]]]}, {"name": "activation_87", "config": {"name": "activation_87", "activation": "relu", "trainable": true, "dtype": "float32"}, "class_name": "Activation", "inbound_nodes": [[["batch_normalization_38", 0, 0, {}]]]}, {"name": "activation_88", "config": {"name": "activation_88", "activation": "relu", "trainable": true, "dtype": "float32"}, "class_name": "Activation", "inbound_nodes": [[["batch_normalization_39", 0, 0, {}]]]}, {"name": "mixed4", "config": {"name": "mixed4", "axis": 3, "trainable": true, "dtype": "float32"}, "class_name": "Concatenate", "inbound_nodes": [[["activation_79", 0, 0, {}], ["activation_82", 0, 0, {}], ["activation_87", 0, 0, {}], ["activation_88", 0, 0, {}]]]}, {"name": "conv2d_44", "config": {"bias_regularizer": null, "padding": "same", "strides": [1, 1], "kernel_size": [1, 1], "kernel_initializer": {"config": {"seed": null, "dtype": "float32"}, "class_name": "GlorotUniform"}, "dilation_rate": [1, 1], "dtype": "float32", "activation": "linear", "name": "conv2d_44", "bias_constraint": null, "trainable": true, "kernel_constraint": null, "use_bias": false, "kernel_regularizer": null, "bias_initializer": {"config": {"dtype": "float32"}, "class_name": "Zeros"}, "activity_regularizer": null, "data_format": "channels_last", "filters": 160}, "class_name": "Conv2D", "inbound_nodes": [[["mixed4", 0, 0, {}]]]}, {"name": "batch_normalization_44", "config": {"gamma_regularizer": null, "gamma_initializer": {"config": {"dtype": "float32"}, "class_name": "Ones"}, "momentum": 0.99, "center": true, "axis": [3], "beta_regularizer": null, "dtype": "float32", "scale": false, "name": "batch_normalization_44", "trainable": true, "gamma_constraint": null, "beta_constraint": null, "beta_initializer": {"config": {"dtype": "float32"}, "class_name": "Zeros"}, "moving_variance_initializer": {"config": {"dtype": "float32"}, "class_name": "Ones"}, "epsilon": 0.001, "moving_mean_initializer": {"config": {"dtype": "float32"}, "class_name": "Zeros"}}, "class_name": "BatchNormalization", "inbound_nodes": [[["conv2d_44", 0, 0, {}]]]}, {"name": "activation_93", "config": {"name": "activation_93", "activation": "relu", "trainable": true, "dtype": "float32"}, "class_name": "Activation", "inbound_nodes": [[["batch_normalization_44", 0, 0, {}]]]}, {"name": "conv2d_45", "config": {"bias_regularizer": null, "padding": "same", "strides": [1, 1], "kernel_size": [7, 1], "kernel_initializer": {"config": {"seed": null, "dtype": "float32"}, "class_name": "GlorotUniform"}, "dilation_rate": [1, 1], "dtype": "float32", "activation": "linear", "name": "conv2d_45", "bias_constraint": null, "trainable": true, "kernel_constraint": null, "use_bias": false, "kernel_regularizer": null, "bias_initializer": {"config": {"dtype": "float32"}, "class_name": "Zeros"}, "activity_regularizer": null, "data_format": "channels_last", "filters": 160}, "class_name": "Conv2D", "inbound_nodes": [[["activation_93", 0, 0, {}]]]}, {"name": "batch_normalization_45", "config": {"gamma_regularizer": null, "gamma_initializer": {"config": {"dtype": "float32"}, "class_name": "Ones"}, "momentum": 0.99, "center": true, "axis": [3], "beta_regularizer": null, "dtype": "float32", "scale": false, "name": "batch_normalization_45", "trainable": true, "gamma_constraint": null, "beta_constraint": null, "beta_initializer": {"config": {"dtype": "float32"}, "class_name": "Zeros"}, "moving_variance_initializer": {"config": {"dtype": "float32"}, "class_name": "Ones"}, "epsilon": 0.001, "moving_mean_initializer": {"config": {"dtype": "float32"}, "class_name": "Zeros"}}, "class_name": "BatchNormalization", "inbound_nodes": [[["conv2d_45", 0, 0, {}]]]}, {"name": "activation_94", "config": {"name": "activation_94", "activation": "relu", "trainable": true, "dtype": "float32"}, "class_name": "Activation", "inbound_nodes": [[["batch_normalization_45", 0, 0, {}]]]}, {"name": "conv2d_41", "config": {"bias_regularizer": null, "padding": "same", "strides": [1, 1], "kernel_size": [1, 1], "kernel_initializer": {"config": {"seed": null, "dtype": "float32"}, "class_name": "GlorotUniform"}, "dilation_rate": [1, 1], "dtype": "float32", "activation": "linear", "name": "conv2d_41", "bias_constraint": null, "trainable": true, "kernel_constraint": null, "use_bias": false, "kernel_regularizer": null, "bias_initializer": {"config": {"dtype": "float32"}, "class_name": "Zeros"}, "activity_regularizer": null, "data_format": "channels_last", "filters": 160}, "class_name": "Conv2D", "inbound_nodes": [[["mixed4", 0, 0, {}]]]}, {"name": "conv2d_46", "config": {"bias_regularizer": null, "padding": "same", "strides": [1, 1], "kernel_size": [1, 7], "kernel_initializer": {"config": {"seed": null, "dtype": "float32"}, "class_name": "GlorotUniform"}, "dilation_rate": [1, 1], "dtype": "float32", "activation": "linear", "name": "conv2d_46", "bias_constraint": null, "trainable": true, "kernel_constraint": null, "use_bias": false, "kernel_regularizer": null, "bias_initializer": {"config": {"dtype": "float32"}, "class_name": "Zeros"}, "activity_regularizer": null, "data_format": "channels_last", "filters": 160}, "class_name": "Conv2D", "inbound_nodes": [[["activation_94", 0, 0, {}]]]}, {"name": "batch_normalization_41", "config": {"gamma_regularizer": null, "gamma_initializer": {"config": {"dtype": "float32"}, "class_name": "Ones"}, "momentum": 0.99, "center": true, "axis": [3], "beta_regularizer": null, "dtype": "float32", "scale": false, "name": "batch_normalization_41", "trainable": true, "gamma_constraint": null, "beta_constraint": null, "beta_initializer": {"config": {"dtype": "float32"}, "class_name": "Zeros"}, "moving_variance_initializer": {"config": {"dtype": "float32"}, "class_name": "Ones"}, "epsilon": 0.001, "moving_mean_initializer": {"config": {"dtype": "float32"}, "class_name": "Zeros"}}, "class_name": "BatchNormalization", "inbound_nodes": [[["conv2d_41", 0, 0, {}]]]}, {"name": "batch_normalization_46", "config": {"gamma_regularizer": null, "gamma_initializer": {"config": {"dtype": "float32"}, "class_name": "Ones"}, "momentum": 0.99, "center": true, "axis": [3], "beta_regularizer": null, "dtype": "float32", "scale": false, "name": "batch_normalization_46", "trainable": true, "gamma_constraint": null, "beta_constraint": null, "beta_initializer": {"config": {"dtype": "float32"}, "class_name": "Zeros"}, "moving_variance_initializer": {"config": {"dtype": "float32"}, "class_name": "Ones"}, "epsilon": 0.001, "moving_mean_initializer": {"config": {"dtype": "float32"}, "class_name": "Zeros"}}, "class_name": "BatchNormalization", "inbound_nodes": [[["conv2d_46", 0, 0, {}]]]}, {"name": "activation_90", "config": {"name": "activation_90", "activation": "relu", "trainable": true, "dtype": "float32"}, "class_name": "Activation", "inbound_nodes": [[["batch_normalization_41", 0, 0, {}]]]}, {"name": "activation_95", "config": {"name": "activation_95", "activation": "relu", "trainable": true, "dtype": "float32"}, "class_name": "Activation", "inbound_nodes": [[["batch_normalization_46", 0, 0, {}]]]}, {"name": "conv2d_42", "config": {"bias_regularizer": null, "padding": "same", "strides": [1, 1], "kernel_size": [1, 7], "kernel_initializer": {"config": {"seed": null, "dtype": "float32"}, "class_name": "GlorotUniform"}, "dilation_rate": [1, 1], "dtype": "float32", "activation": "linear", "name": "conv2d_42", "bias_constraint": null, "trainable": true, "kernel_constraint": null, "use_bias": false, "kernel_regularizer": null, "bias_initializer": {"config": {"dtype": "float32"}, "class_name": "Zeros"}, "activity_regularizer": null, "data_format": "channels_last", "filters": 160}, "class_name": "Conv2D", "inbound_nodes": [[["activation_90", 0, 0, {}]]]}, {"name": "conv2d_47", "config": {"bias_regularizer": null, "padding": "same", "strides": [1, 1], "kernel_size": [7, 1], "kernel_initializer": {"config": {"seed": null, "dtype": "float32"}, "class_name": "GlorotUniform"}, "dilation_rate": [1, 1], "dtype": "float32", "activation": "linear", "name": "conv2d_47", "bias_constraint": null, "trainable": true, "kernel_constraint": null, "use_bias": false, "kernel_regularizer": null, "bias_initializer": {"config": {"dtype": "float32"}, "class_name": "Zeros"}, "activity_regularizer": null, "data_format": "channels_last", "filters": 160}, "class_name": "Conv2D", "inbound_nodes": [[["activation_95", 0, 0, {}]]]}, {"name": "batch_normalization_42", "config": {"gamma_regularizer": null, "gamma_initializer": {"config": {"dtype": "float32"}, "class_name": "Ones"}, "momentum": 0.99, "center": true, "axis": [3], "beta_regularizer": null, "dtype": "float32", "scale": false, "name": "batch_normalization_42", "trainable": true, "gamma_constraint": null, "beta_constraint": null, "beta_initializer": {"config": {"dtype": "float32"}, "class_name": "Zeros"}, "moving_variance_initializer": {"config": {"dtype": "float32"}, "class_name": "Ones"}, "epsilon": 0.001, "moving_mean_initializer": {"config": {"dtype": "float32"}, "class_name": "Zeros"}}, "class_name": "BatchNormalization", "inbound_nodes": [[["conv2d_42", 0, 0, {}]]]}, {"name": "batch_normalization_47", "config": {"gamma_regularizer": null, "gamma_initializer": {"config": {"dtype": "float32"}, "class_name": "Ones"}, "momentum": 0.99, "center": true, "axis": [3], "beta_regularizer": null, "dtype": "float32", "scale": false, "name": "batch_normalization_47", "trainable": true, "gamma_constraint": null, "beta_constraint": null, "beta_initializer": {"config": {"dtype": "float32"}, "class_name": "Zeros"}, "moving_variance_initializer": {"config": {"dtype": "float32"}, "class_name": "Ones"}, "epsilon": 0.001, "moving_mean_initializer": {"config": {"dtype": "float32"}, "class_name": "Zeros"}}, "class_name": "BatchNormalization", "inbound_nodes": [[["conv2d_47", 0, 0, {}]]]}, {"name": "activation_91", "config": {"name": "activation_91", "activation": "relu", "trainable": true, "dtype": "float32"}, "class_name": "Activation", "inbound_nodes": [[["batch_normalization_42", 0, 0, {}]]]}, {"name": "activation_96", "config": {"name": "activation_96", "activation": "relu", "trainable": true, "dtype": "float32"}, "class_name": "Activation", "inbound_nodes": [[["batch_normalization_47", 0, 0, {}]]]}, {"name": "average_pooling2d_4", "config": {"trainable": true, "padding": "same", "name": "average_pooling2d_4", "strides": [1, 1], "data_format": "channels_last", "pool_size": [3, 3], "dtype": "float32"}, "class_name": "AveragePooling2D", "inbound_nodes": [[["mixed4", 0, 0, {}]]]}, {"name": "conv2d_40", "config": {"bias_regularizer": null, "padding": "same", "strides": [1, 1], "kernel_size": [1, 1], "kernel_initializer": {"config": {"seed": null, "dtype": "float32"}, "class_name": "GlorotUniform"}, "dilation_rate": [1, 1], "dtype": "float32", "activation": "linear", "name": "conv2d_40", "bias_constraint": null, "trainable": true, "kernel_constraint": null, "use_bias": false, "kernel_regularizer": null, "bias_initializer": {"config": {"dtype": "float32"}, "class_name": "Zeros"}, "activity_regularizer": null, "data_format": "channels_last", "filters": 192}, "class_name": "Conv2D", "inbound_nodes": [[["mixed4", 0, 0, {}]]]}, {"name": "conv2d_43", "config": {"bias_regularizer": null, "padding": "same", "strides": [1, 1], "kernel_size": [7, 1], "kernel_initializer": {"config": {"seed": null, "dtype": "float32"}, "class_name": "GlorotUniform"}, "dilation_rate": [1, 1], "dtype": "float32", "activation": "linear", "name": "conv2d_43", "bias_constraint": null, "trainable": true, "kernel_constraint": null, "use_bias": false, "kernel_regularizer": null, "bias_initializer": {"config": {"dtype": "float32"}, "class_name": "Zeros"}, "activity_regularizer": null, "data_format": "channels_last", "filters": 192}, "class_name": "Conv2D", "inbound_nodes": [[["activation_91", 0, 0, {}]]]}, {"name": "conv2d_48", "config": {"bias_regularizer": null, "padding": "same", "strides": [1, 1], "kernel_size": [1, 7], "kernel_initializer": {"config": {"seed": null, "dtype": "float32"}, "class_name": "GlorotUniform"}, "dilation_rate": [1, 1], "dtype": "float32", "activation": "linear", "name": "conv2d_48", "bias_constraint": null, "trainable": true, "kernel_constraint": null, "use_bias": false, "kernel_regularizer": null, "bias_initializer": {"config": {"dtype": "float32"}, "class_name": "Zeros"}, "activity_regularizer": null, "data_format": "channels_last", "filters": 192}, "class_name": "Conv2D", "inbound_nodes": [[["activation_96", 0, 0, {}]]]}, {"name": "conv2d_49", "config": {"bias_regularizer": null, "padding": "same", "strides": [1, 1], "kernel_size": [1, 1], "kernel_initializer": {"config": {"seed": null, "dtype": "float32"}, "class_name": "GlorotUniform"}, "dilation_rate": [1, 1], "dtype": "float32", "activation": "linear", "name": "conv2d_49", "bias_constraint": null, "trainable": true, "kernel_constraint": null, "use_bias": false, "kernel_regularizer": null, "bias_initializer": {"config": {"dtype": "float32"}, "class_name": "Zeros"}, "activity_regularizer": null, "data_format": "channels_last", "filters": 192}, "class_name": "Conv2D", "inbound_nodes": [[["average_pooling2d_4", 0, 0, {}]]]}, {"name": "batch_normalization_40", "config": {"gamma_regularizer": null, "gamma_initializer": {"config": {"dtype": "float32"}, "class_name": "Ones"}, "momentum": 0.99, "center": true, "axis": [3], "beta_regularizer": null, "dtype": "float32", "scale": false, "name": "batch_normalization_40", "trainable": true, "gamma_constraint": null, "beta_constraint": null, "beta_initializer": {"config": {"dtype": "float32"}, "class_name": "Zeros"}, "moving_variance_initializer": {"config": {"dtype": "float32"}, "class_name": "Ones"}, "epsilon": 0.001, "moving_mean_initializer": {"config": {"dtype": "float32"}, "class_name": "Zeros"}}, "class_name": "BatchNormalization", "inbound_nodes": [[["conv2d_40", 0, 0, {}]]]}, {"name": "batch_normalization_43", "config": {"gamma_regularizer": null, "gamma_initializer": {"config": {"dtype": "float32"}, "class_name": "Ones"}, "momentum": 0.99, "center": true, "axis": [3], "beta_regularizer": null, "dtype": "float32", "scale": false, "name": "batch_normalization_43", "trainable": true, "gamma_constraint": null, "beta_constraint": null, "beta_initializer": {"config": {"dtype": "float32"}, "class_name": "Zeros"}, "moving_variance_initializer": {"config": {"dtype": "float32"}, "class_name": "Ones"}, "epsilon": 0.001, "moving_mean_initializer": {"config": {"dtype": "float32"}, "class_name": "Zeros"}}, "class_name": "BatchNormalization", "inbound_nodes": [[["conv2d_43", 0, 0, {}]]]}, {"name": "batch_normalization_48", "config": {"gamma_regularizer": null, "gamma_initializer": {"config": {"dtype": "float32"}, "class_name": "Ones"}, "momentum": 0.99, "center": true, "axis": [3], "beta_regularizer": null, "dtype": "float32", "scale": false, "name": "batch_normalization_48", "trainable": true, "gamma_constraint": null, "beta_constraint": null, "beta_initializer": {"config": {"dtype": "float32"}, "class_name": "Zeros"}, "moving_variance_initializer": {"config": {"dtype": "float32"}, "class_name": "Ones"}, "epsilon": 0.001, "moving_mean_initializer": {"config": {"dtype": "float32"}, "class_name": "Zeros"}}, "class_name": "BatchNormalization", "inbound_nodes": [[["conv2d_48", 0, 0, {}]]]}, {"name": "batch_normalization_49", "config": {"gamma_regularizer": null, "gamma_initializer": {"config": {"dtype": "float32"}, "class_name": "Ones"}, "momentum": 0.99, "center": true, "axis": [3], "beta_regularizer": null, "dtype": "float32", "scale": false, "name": "batch_normalization_49", "trainable": true, "gamma_constraint": null, "beta_constraint": null, "beta_initializer": {"config": {"dtype": "float32"}, "class_name": "Zeros"}, "moving_variance_initializer": {"config": {"dtype": "float32"}, "class_name": "Ones"}, "epsilon": 0.001, "moving_mean_initializer": {"config": {"dtype": "float32"}, "class_name": "Zeros"}}, "class_name": "BatchNormalization", "inbound_nodes": [[["conv2d_49", 0, 0, {}]]]}, {"name": "activation_89", "config": {"name": "activation_89", "activation": "relu", "trainable": true, "dtype": "float32"}, "class_name": "Activation", "inbound_nodes": [[["batch_normalization_40", 0, 0, {}]]]}, {"name": "activation_92", "config": {"name": "activation_92", "activation": "relu", "trainable": true, "dtype": "float32"}, "class_name": "Activation", "inbound_nodes": [[["batch_normalization_43", 0, 0, {}]]]}, {"name": "activation_97", "config": {"name": "activation_97", "activation": "relu", "trainable": true, "dtype": "float32"}, "class_name": "Activation", "inbound_nodes": [[["batch_normalization_48", 0, 0, {}]]]}, {"name": "activation_98", "config": {"name": "activation_98", "activation": "relu", "trainable": true, "dtype": "float32"}, "class_name": "Activation", "inbound_nodes": [[["batch_normalization_49", 0, 0, {}]]]}, {"name": "mixed5", "config": {"name": "mixed5", "axis": 3, "trainable": true, "dtype": "float32"}, "class_name": "Concatenate", "inbound_nodes": [[["activation_89", 0, 0, {}], ["activation_92", 0, 0, {}], ["activation_97", 0, 0, {}], ["activation_98", 0, 0, {}]]]}, {"name": "conv2d_54", "config": {"bias_regularizer": null, "padding": "same", "strides": [1, 1], "kernel_size": [1, 1], "kernel_initializer": {"config": {"seed": null, "dtype": "float32"}, "class_name": "GlorotUniform"}, "dilation_rate": [1, 1], "dtype": "float32", "activation": "linear", "name": "conv2d_54", "bias_constraint": null, "trainable": true, "kernel_constraint": null, "use_bias": false, "kernel_regularizer": null, "bias_initializer": {"config": {"dtype": "float32"}, "class_name": "Zeros"}, "activity_regularizer": null, "data_format": "channels_last", "filters": 160}, "class_name": "Conv2D", "inbound_nodes": [[["mixed5", 0, 0, {}]]]}, {"name": "batch_normalization_54", "config": {"gamma_regularizer": null, "gamma_initializer": {"config": {"dtype": "float32"}, "class_name": "Ones"}, "momentum": 0.99, "center": true, "axis": [3], "beta_regularizer": null, "dtype": "float32", "scale": false, "name": "batch_normalization_54", "trainable": true, "gamma_constraint": null, "beta_constraint": null, "beta_initializer": {"config": {"dtype": "float32"}, "class_name": "Zeros"}, "moving_variance_initializer": {"config": {"dtype": "float32"}, "class_name": "Ones"}, "epsilon": 0.001, "moving_mean_initializer": {"config": {"dtype": "float32"}, "class_name": "Zeros"}}, "class_name": "BatchNormalization", "inbound_nodes": [[["conv2d_54", 0, 0, {}]]]}, {"name": "activation_103", "config": {"name": "activation_103", "activation": "relu", "trainable": true, "dtype": "float32"}, "class_name": "Activation", "inbound_nodes": [[["batch_normalization_54", 0, 0, {}]]]}, {"name": "conv2d_55", "config": {"bias_regularizer": null, "padding": "same", "strides": [1, 1], "kernel_size": [7, 1], "kernel_initializer": {"config": {"seed": null, "dtype": "float32"}, "class_name": "GlorotUniform"}, "dilation_rate": [1, 1], "dtype": "float32", "activation": "linear", "name": "conv2d_55", "bias_constraint": null, "trainable": true, "kernel_constraint": null, "use_bias": false, "kernel_regularizer": null, "bias_initializer": {"config": {"dtype": "float32"}, "class_name": "Zeros"}, "activity_regularizer": null, "data_format": "channels_last", "filters": 160}, "class_name": "Conv2D", "inbound_nodes": [[["activation_103", 0, 0, {}]]]}, {"name": "batch_normalization_55", "config": {"gamma_regularizer": null, "gamma_initializer": {"config": {"dtype": "float32"}, "class_name": "Ones"}, "momentum": 0.99, "center": true, "axis": [3], "beta_regularizer": null, "dtype": "float32", "scale": false, "name": "batch_normalization_55", "trainable": true, "gamma_constraint": null, "beta_constraint": null, "beta_initializer": {"config": {"dtype": "float32"}, "class_name": "Zeros"}, "moving_variance_initializer": {"config": {"dtype": "float32"}, "class_name": "Ones"}, "epsilon": 0.001, "moving_mean_initializer": {"config": {"dtype": "float32"}, "class_name": "Zeros"}}, "class_name": "BatchNormalization", "inbound_nodes": [[["conv2d_55", 0, 0, {}]]]}, {"name": "activation_104", "config": {"name": "activation_104", "activation": "relu", "trainable": true, "dtype": "float32"}, "class_name": "Activation", "inbound_nodes": [[["batch_normalization_55", 0, 0, {}]]]}, {"name": "conv2d_51", "config": {"bias_regularizer": null, "padding": "same", "strides": [1, 1], "kernel_size": [1, 1], "kernel_initializer": {"config": {"seed": null, "dtype": "float32"}, "class_name": "GlorotUniform"}, "dilation_rate": [1, 1], "dtype": "float32", "activation": "linear", "name": "conv2d_51", "bias_constraint": null, "trainable": true, "kernel_constraint": null, "use_bias": false, "kernel_regularizer": null, "bias_initializer": {"config": {"dtype": "float32"}, "class_name": "Zeros"}, "activity_regularizer": null, "data_format": "channels_last", "filters": 160}, "class_name": "Conv2D", "inbound_nodes": [[["mixed5", 0, 0, {}]]]}, {"name": "conv2d_56", "config": {"bias_regularizer": null, "padding": "same", "strides": [1, 1], "kernel_size": [1, 7], "kernel_initializer": {"config": {"seed": null, "dtype": "float32"}, "class_name": "GlorotUniform"}, "dilation_rate": [1, 1], "dtype": "float32", "activation": "linear", "name": "conv2d_56", "bias_constraint": null, "trainable": true, "kernel_constraint": null, "use_bias": false, "kernel_regularizer": null, "bias_initializer": {"config": {"dtype": "float32"}, "class_name": "Zeros"}, "activity_regularizer": null, "data_format": "channels_last", "filters": 160}, "class_name": "Conv2D", "inbound_nodes": [[["activation_104", 0, 0, {}]]]}, {"name": "batch_normalization_51", "config": {"gamma_regularizer": null, "gamma_initializer": {"config": {"dtype": "float32"}, "class_name": "Ones"}, "momentum": 0.99, "center": true, "axis": [3], "beta_regularizer": null, "dtype": "float32", "scale": false, "name": "batch_normalization_51", "trainable": true, "gamma_constraint": null, "beta_constraint": null, "beta_initializer": {"config": {"dtype": "float32"}, "class_name": "Zeros"}, "moving_variance_initializer": {"config": {"dtype": "float32"}, "class_name": "Ones"}, "epsilon": 0.001, "moving_mean_initializer": {"config": {"dtype": "float32"}, "class_name": "Zeros"}}, "class_name": "BatchNormalization", "inbound_nodes": [[["conv2d_51", 0, 0, {}]]]}, {"name": "batch_normalization_56", "config": {"gamma_regularizer": null, "gamma_initializer": {"config": {"dtype": "float32"}, "class_name": "Ones"}, "momentum": 0.99, "center": true, "axis": [3], "beta_regularizer": null, "dtype": "float32", "scale": false, "name": "batch_normalization_56", "trainable": true, "gamma_constraint": null, "beta_constraint": null, "beta_initializer": {"config": {"dtype": "float32"}, "class_name": "Zeros"}, "moving_variance_initializer": {"config": {"dtype": "float32"}, "class_name": "Ones"}, "epsilon": 0.001, "moving_mean_initializer": {"config": {"dtype": "float32"}, "class_name": "Zeros"}}, "class_name": "BatchNormalization", "inbound_nodes": [[["conv2d_56", 0, 0, {}]]]}, {"name": "activation_100", "config": {"name": "activation_100", "activation": "relu", "trainable": true, "dtype": "float32"}, "class_name": "Activation", "inbound_nodes": [[["batch_normalization_51", 0, 0, {}]]]}, {"name": "activation_105", "config": {"name": "activation_105", "activation": "relu", "trainable": true, "dtype": "float32"}, "class_name": "Activation", "inbound_nodes": [[["batch_normalization_56", 0, 0, {}]]]}, {"name": "conv2d_52", "config": {"bias_regularizer": null, "padding": "same", "strides": [1, 1], "kernel_size": [1, 7], "kernel_initializer": {"config": {"seed": null, "dtype": "float32"}, "class_name": "GlorotUniform"}, "dilation_rate": [1, 1], "dtype": "float32", "activation": "linear", "name": "conv2d_52", "bias_constraint": null, "trainable": true, "kernel_constraint": null, "use_bias": false, "kernel_regularizer": null, "bias_initializer": {"config": {"dtype": "float32"}, "class_name": "Zeros"}, "activity_regularizer": null, "data_format": "channels_last", "filters": 160}, "class_name": "Conv2D", "inbound_nodes": [[["activation_100", 0, 0, {}]]]}, {"name": "conv2d_57", "config": {"bias_regularizer": null, "padding": "same", "strides": [1, 1], "kernel_size": [7, 1], "kernel_initializer": {"config": {"seed": null, "dtype": "float32"}, "class_name": "GlorotUniform"}, "dilation_rate": [1, 1], "dtype": "float32", "activation": "linear", "name": "conv2d_57", "bias_constraint": null, "trainable": true, "kernel_constraint": null, "use_bias": false, "kernel_regularizer": null, "bias_initializer": {"config": {"dtype": "float32"}, "class_name": "Zeros"}, "activity_regularizer": null, "data_format": "channels_last", "filters": 160}, "class_name": "Conv2D", "inbound_nodes": [[["activation_105", 0, 0, {}]]]}, {"name": "batch_normalization_52", "config": {"gamma_regularizer": null, "gamma_initializer": {"config": {"dtype": "float32"}, "class_name": "Ones"}, "momentum": 0.99, "center": true, "axis": [3], "beta_regularizer": null, "dtype": "float32", "scale": false, "name": "batch_normalization_52", "trainable": true, "gamma_constraint": null, "beta_constraint": null, "beta_initializer": {"config": {"dtype": "float32"}, "class_name": "Zeros"}, "moving_variance_initializer": {"config": {"dtype": "float32"}, "class_name": "Ones"}, "epsilon": 0.001, "moving_mean_initializer": {"config": {"dtype": "float32"}, "class_name": "Zeros"}}, "class_name": "BatchNormalization", "inbound_nodes": [[["conv2d_52", 0, 0, {}]]]}, {"name": "batch_normalization_57", "config": {"gamma_regularizer": null, "gamma_initializer": {"config": {"dtype": "float32"}, "class_name": "Ones"}, "momentum": 0.99, "center": true, "axis": [3], "beta_regularizer": null, "dtype": "float32", "scale": false, "name": "batch_normalization_57", "trainable": true, "gamma_constraint": null, "beta_constraint": null, "beta_initializer": {"config": {"dtype": "float32"}, "class_name": "Zeros"}, "moving_variance_initializer": {"config": {"dtype": "float32"}, "class_name": "Ones"}, "epsilon": 0.001, "moving_mean_initializer": {"config": {"dtype": "float32"}, "class_name": "Zeros"}}, "class_name": "BatchNormalization", "inbound_nodes": [[["conv2d_57", 0, 0, {}]]]}, {"name": "activation_101", "config": {"name": "activation_101", "activation": "relu", "trainable": true, "dtype": "float32"}, "class_name": "Activation", "inbound_nodes": [[["batch_normalization_52", 0, 0, {}]]]}, {"name": "activation_106", "config": {"name": "activation_106", "activation": "relu", "trainable": true, "dtype": "float32"}, "class_name": "Activation", "inbound_nodes": [[["batch_normalization_57", 0, 0, {}]]]}, {"name": "average_pooling2d_5", "config": {"trainable": true, "padding": "same", "name": "average_pooling2d_5", "strides": [1, 1], "data_format": "channels_last", "pool_size": [3, 3], "dtype": "float32"}, "class_name": "AveragePooling2D", "inbound_nodes": [[["mixed5", 0, 0, {}]]]}, {"name": "conv2d_50", "config": {"bias_regularizer": null, "padding": "same", "strides": [1, 1], "kernel_size": [1, 1], "kernel_initializer": {"config": {"seed": null, "dtype": "float32"}, "class_name": "GlorotUniform"}, "dilation_rate": [1, 1], "dtype": "float32", "activation": "linear", "name": "conv2d_50", "bias_constraint": null, "trainable": true, "kernel_constraint": null, "use_bias": false, "kernel_regularizer": null, "bias_initializer": {"config": {"dtype": "float32"}, "class_name": "Zeros"}, "activity_regularizer": null, "data_format": "channels_last", "filters": 192}, "class_name": "Conv2D", "inbound_nodes": [[["mixed5", 0, 0, {}]]]}, {"name": "conv2d_53", "config": {"bias_regularizer": null, "padding": "same", "strides": [1, 1], "kernel_size": [7, 1], "kernel_initializer": {"config": {"seed": null, "dtype": "float32"}, "class_name": "GlorotUniform"}, "dilation_rate": [1, 1], "dtype": "float32", "activation": "linear", "name": "conv2d_53", "bias_constraint": null, "trainable": true, "kernel_constraint": null, "use_bias": false, "kernel_regularizer": null, "bias_initializer": {"config": {"dtype": "float32"}, "class_name": "Zeros"}, "activity_regularizer": null, "data_format": "channels_last", "filters": 192}, "class_name": "Conv2D", "inbound_nodes": [[["activation_101", 0, 0, {}]]]}, {"name": "conv2d_58", "config": {"bias_regularizer": null, "padding": "same", "strides": [1, 1], "kernel_size": [1, 7], "kernel_initializer": {"config": {"seed": null, "dtype": "float32"}, "class_name": "GlorotUniform"}, "dilation_rate": [1, 1], "dtype": "float32", "activation": "linear", "name": "conv2d_58", "bias_constraint": null, "trainable": true, "kernel_constraint": null, "use_bias": false, "kernel_regularizer": null, "bias_initializer": {"config": {"dtype": "float32"}, "class_name": "Zeros"}, "activity_regularizer": null, "data_format": "channels_last", "filters": 192}, "class_name": "Conv2D", "inbound_nodes": [[["activation_106", 0, 0, {}]]]}, {"name": "conv2d_59", "config": {"bias_regularizer": null, "padding": "same", "strides": [1, 1], "kernel_size": [1, 1], "kernel_initializer": {"config": {"seed": null, "dtype": "float32"}, "class_name": "GlorotUniform"}, "dilation_rate": [1, 1], "dtype": "float32", "activation": "linear", "name": "conv2d_59", "bias_constraint": null, "trainable": true, "kernel_constraint": null, "use_bias": false, "kernel_regularizer": null, "bias_initializer": {"config": {"dtype": "float32"}, "class_name": "Zeros"}, "activity_regularizer": null, "data_format": "channels_last", "filters": 192}, "class_name": "Conv2D", "inbound_nodes": [[["average_pooling2d_5", 0, 0, {}]]]}, {"name": "batch_normalization_50", "config": {"gamma_regularizer": null, "gamma_initializer": {"config": {"dtype": "float32"}, "class_name": "Ones"}, "momentum": 0.99, "center": true, "axis": [3], "beta_regularizer": null, "dtype": "float32", "scale": false, "name": "batch_normalization_50", "trainable": true, "gamma_constraint": null, "beta_constraint": null, "beta_initializer": {"config": {"dtype": "float32"}, "class_name": "Zeros"}, "moving_variance_initializer": {"config": {"dtype": "float32"}, "class_name": "Ones"}, "epsilon": 0.001, "moving_mean_initializer": {"config": {"dtype": "float32"}, "class_name": "Zeros"}}, "class_name": "BatchNormalization", "inbound_nodes": [[["conv2d_50", 0, 0, {}]]]}, {"name": "batch_normalization_53", "config": {"gamma_regularizer": null, "gamma_initializer": {"config": {"dtype": "float32"}, "class_name": "Ones"}, "momentum": 0.99, "center": true, "axis": [3], "beta_regularizer": null, "dtype": "float32", "scale": false, "name": "batch_normalization_53", "trainable": true, "gamma_constraint": null, "beta_constraint": null, "beta_initializer": {"config": {"dtype": "float32"}, "class_name": "Zeros"}, "moving_variance_initializer": {"config": {"dtype": "float32"}, "class_name": "Ones"}, "epsilon": 0.001, "moving_mean_initializer": {"config": {"dtype": "float32"}, "class_name": "Zeros"}}, "class_name": "BatchNormalization", "inbound_nodes": [[["conv2d_53", 0, 0, {}]]]}, {"name": "batch_normalization_58", "config": {"gamma_regularizer": null, "gamma_initializer": {"config": {"dtype": "float32"}, "class_name": "Ones"}, "momentum": 0.99, "center": true, "axis": [3], "beta_regularizer": null, "dtype": "float32", "scale": false, "name": "batch_normalization_58", "trainable": true, "gamma_constraint": null, "beta_constraint": null, "beta_initializer": {"config": {"dtype": "float32"}, "class_name": "Zeros"}, "moving_variance_initializer": {"config": {"dtype": "float32"}, "class_name": "Ones"}, "epsilon": 0.001, "moving_mean_initializer": {"config": {"dtype": "float32"}, "class_name": "Zeros"}}, "class_name": "BatchNormalization", "inbound_nodes": [[["conv2d_58", 0, 0, {}]]]}, {"name": "batch_normalization_59", "config": {"gamma_regularizer": null, "gamma_initializer": {"config": {"dtype": "float32"}, "class_name": "Ones"}, "momentum": 0.99, "center": true, "axis": [3], "beta_regularizer": null, "dtype": "float32", "scale": false, "name": "batch_normalization_59", "trainable": true, "gamma_constraint": null, "beta_constraint": null, "beta_initializer": {"config": {"dtype": "float32"}, "class_name": "Zeros"}, "moving_variance_initializer": {"config": {"dtype": "float32"}, "class_name": "Ones"}, "epsilon": 0.001, "moving_mean_initializer": {"config": {"dtype": "float32"}, "class_name": "Zeros"}}, "class_name": "BatchNormalization", "inbound_nodes": [[["conv2d_59", 0, 0, {}]]]}, {"name": "activation_99", "config": {"name": "activation_99", "activation": "relu", "trainable": true, "dtype": "float32"}, "class_name": "Activation", "inbound_nodes": [[["batch_normalization_50", 0, 0, {}]]]}, {"name": "activation_102", "config": {"name": "activation_102", "activation": "relu", "trainable": true, "dtype": "float32"}, "class_name": "Activation", "inbound_nodes": [[["batch_normalization_53", 0, 0, {}]]]}, {"name": "activation_107", "config": {"name": "activation_107", "activation": "relu", "trainable": true, "dtype": "float32"}, "class_name": "Activation", "inbound_nodes": [[["batch_normalization_58", 0, 0, {}]]]}, {"name": "activation_108", "config": {"name": "activation_108", "activation": "relu", "trainable": true, "dtype": "float32"}, "class_name": "Activation", "inbound_nodes": [[["batch_normalization_59", 0, 0, {}]]]}, {"name": "mixed6", "config": {"name": "mixed6", "axis": 3, "trainable": true, "dtype": "float32"}, "class_name": "Concatenate", "inbound_nodes": [[["activation_99", 0, 0, {}], ["activation_102", 0, 0, {}], ["activation_107", 0, 0, {}], ["activation_108", 0, 0, {}]]]}, {"name": "conv2d_64", "config": {"bias_regularizer": null, "padding": "same", "strides": [1, 1], "kernel_size": [1, 1], "kernel_initializer": {"config": {"seed": null, "dtype": "float32"}, "class_name": "GlorotUniform"}, "dilation_rate": [1, 1], "dtype": "float32", "activation": "linear", "name": "conv2d_64", "bias_constraint": null, "trainable": true, "kernel_constraint": null, "use_bias": false, "kernel_regularizer": null, "bias_initializer": {"config": {"dtype": "float32"}, "class_name": "Zeros"}, "activity_regularizer": null, "data_format": "channels_last", "filters": 192}, "class_name": "Conv2D", "inbound_nodes": [[["mixed6", 0, 0, {}]]]}, {"name": "batch_normalization_64", "config": {"gamma_regularizer": null, "gamma_initializer": {"config": {"dtype": "float32"}, "class_name": "Ones"}, "momentum": 0.99, "center": true, "axis": [3], "beta_regularizer": null, "dtype": "float32", "scale": false, "name": "batch_normalization_64", "trainable": true, "gamma_constraint": null, "beta_constraint": null, "beta_initializer": {"config": {"dtype": "float32"}, "class_name": "Zeros"}, "moving_variance_initializer": {"config": {"dtype": "float32"}, "class_name": "Ones"}, "epsilon": 0.001, "moving_mean_initializer": {"config": {"dtype": "float32"}, "class_name": "Zeros"}}, "class_name": "BatchNormalization", "inbound_nodes": [[["conv2d_64", 0, 0, {}]]]}, {"name": "activation_113", "config": {"name": "activation_113", "activation": "relu", "trainable": true, "dtype": "float32"}, "class_name": "Activation", "inbound_nodes": [[["batch_normalization_64", 0, 0, {}]]]}, {"name": "conv2d_65", "config": {"bias_regularizer": null, "padding": "same", "strides": [1, 1], "kernel_size": [7, 1], "kernel_initializer": {"config": {"seed": null, "dtype": "float32"}, "class_name": "GlorotUniform"}, "dilation_rate": [1, 1], "dtype": "float32", "activation": "linear", "name": "conv2d_65", "bias_constraint": null, "trainable": true, "kernel_constraint": null, "use_bias": false, "kernel_regularizer": null, "bias_initializer": {"config": {"dtype": "float32"}, "class_name": "Zeros"}, "activity_regularizer": null, "data_format": "channels_last", "filters": 192}, "class_name": "Conv2D", "inbound_nodes": [[["activation_113", 0, 0, {}]]]}, {"name": "batch_normalization_65", "config": {"gamma_regularizer": null, "gamma_initializer": {"config": {"dtype": "float32"}, "class_name": "Ones"}, "momentum": 0.99, "center": true, "axis": [3], "beta_regularizer": null, "dtype": "float32", "scale": false, "name": "batch_normalization_65", "trainable": true, "gamma_constraint": null, "beta_constraint": null, "beta_initializer": {"config": {"dtype": "float32"}, "class_name": "Zeros"}, "moving_variance_initializer": {"config": {"dtype": "float32"}, "class_name": "Ones"}, "epsilon": 0.001, "moving_mean_initializer": {"config": {"dtype": "float32"}, "class_name": "Zeros"}}, "class_name": "BatchNormalization", "inbound_nodes": [[["conv2d_65", 0, 0, {}]]]}, {"name": "activation_114", "config": {"name": "activation_114", "activation": "relu", "trainable": true, "dtype": "float32"}, "class_name": "Activation", "inbound_nodes": [[["batch_normalization_65", 0, 0, {}]]]}, {"name": "conv2d_61", "config": {"bias_regularizer": null, "padding": "same", "strides": [1, 1], "kernel_size": [1, 1], "kernel_initializer": {"config": {"seed": null, "dtype": "float32"}, "class_name": "GlorotUniform"}, "dilation_rate": [1, 1], "dtype": "float32", "activation": "linear", "name": "conv2d_61", "bias_constraint": null, "trainable": true, "kernel_constraint": null, "use_bias": false, "kernel_regularizer": null, "bias_initializer": {"config": {"dtype": "float32"}, "class_name": "Zeros"}, "activity_regularizer": null, "data_format": "channels_last", "filters": 192}, "class_name": "Conv2D", "inbound_nodes": [[["mixed6", 0, 0, {}]]]}, {"name": "conv2d_66", "config": {"bias_regularizer": null, "padding": "same", "strides": [1, 1], "kernel_size": [1, 7], "kernel_initializer": {"config": {"seed": null, "dtype": "float32"}, "class_name": "GlorotUniform"}, "dilation_rate": [1, 1], "dtype": "float32", "activation": "linear", "name": "conv2d_66", "bias_constraint": null, "trainable": true, "kernel_constraint": null, "use_bias": false, "kernel_regularizer": null, "bias_initializer": {"config": {"dtype": "float32"}, "class_name": "Zeros"}, "activity_regularizer": null, "data_format": "channels_last", "filters": 192}, "class_name": "Conv2D", "inbound_nodes": [[["activation_114", 0, 0, {}]]]}, {"name": "batch_normalization_61", "config": {"gamma_regularizer": null, "gamma_initializer": {"config": {"dtype": "float32"}, "class_name": "Ones"}, "momentum": 0.99, "center": true, "axis": [3], "beta_regularizer": null, "dtype": "float32", "scale": false, "name": "batch_normalization_61", "trainable": true, "gamma_constraint": null, "beta_constraint": null, "beta_initializer": {"config": {"dtype": "float32"}, "class_name": "Zeros"}, "moving_variance_initializer": {"config": {"dtype": "float32"}, "class_name": "Ones"}, "epsilon": 0.001, "moving_mean_initializer": {"config": {"dtype": "float32"}, "class_name": "Zeros"}}, "class_name": "BatchNormalization", "inbound_nodes": [[["conv2d_61", 0, 0, {}]]]}, {"name": "batch_normalization_66", "config": {"gamma_regularizer": null, "gamma_initializer": {"config": {"dtype": "float32"}, "class_name": "Ones"}, "momentum": 0.99, "center": true, "axis": [3], "beta_regularizer": null, "dtype": "float32", "scale": false, "name": "batch_normalization_66", "trainable": true, "gamma_constraint": null, "beta_constraint": null, "beta_initializer": {"config": {"dtype": "float32"}, "class_name": "Zeros"}, "moving_variance_initializer": {"config": {"dtype": "float32"}, "class_name": "Ones"}, "epsilon": 0.001, "moving_mean_initializer": {"config": {"dtype": "float32"}, "class_name": "Zeros"}}, "class_name": "BatchNormalization", "inbound_nodes": [[["conv2d_66", 0, 0, {}]]]}, {"name": "activation_110", "config": {"name": "activation_110", "activation": "relu", "trainable": true, "dtype": "float32"}, "class_name": "Activation", "inbound_nodes": [[["batch_normalization_61", 0, 0, {}]]]}, {"name": "activation_115", "config": {"name": "activation_115", "activation": "relu", "trainable": true, "dtype": "float32"}, "class_name": "Activation", "inbound_nodes": [[["batch_normalization_66", 0, 0, {}]]]}, {"name": "conv2d_62", "config": {"bias_regularizer": null, "padding": "same", "strides": [1, 1], "kernel_size": [1, 7], "kernel_initializer": {"config": {"seed": null, "dtype": "float32"}, "class_name": "GlorotUniform"}, "dilation_rate": [1, 1], "dtype": "float32", "activation": "linear", "name": "conv2d_62", "bias_constraint": null, "trainable": true, "kernel_constraint": null, "use_bias": false, "kernel_regularizer": null, "bias_initializer": {"config": {"dtype": "float32"}, "class_name": "Zeros"}, "activity_regularizer": null, "data_format": "channels_last", "filters": 192}, "class_name": "Conv2D", "inbound_nodes": [[["activation_110", 0, 0, {}]]]}, {"name": "conv2d_67", "config": {"bias_regularizer": null, "padding": "same", "strides": [1, 1], "kernel_size": [7, 1], "kernel_initializer": {"config": {"seed": null, "dtype": "float32"}, "class_name": "GlorotUniform"}, "dilation_rate": [1, 1], "dtype": "float32", "activation": "linear", "name": "conv2d_67", "bias_constraint": null, "trainable": true, "kernel_constraint": null, "use_bias": false, "kernel_regularizer": null, "bias_initializer": {"config": {"dtype": "float32"}, "class_name": "Zeros"}, "activity_regularizer": null, "data_format": "channels_last", "filters": 192}, "class_name": "Conv2D", "inbound_nodes": [[["activation_115", 0, 0, {}]]]}, {"name": "batch_normalization_62", "config": {"gamma_regularizer": null, "gamma_initializer": {"config": {"dtype": "float32"}, "class_name": "Ones"}, "momentum": 0.99, "center": true, "axis": [3], "beta_regularizer": null, "dtype": "float32", "scale": false, "name": "batch_normalization_62", "trainable": true, "gamma_constraint": null, "beta_constraint": null, "beta_initializer": {"config": {"dtype": "float32"}, "class_name": "Zeros"}, "moving_variance_initializer": {"config": {"dtype": "float32"}, "class_name": "Ones"}, "epsilon": 0.001, "moving_mean_initializer": {"config": {"dtype": "float32"}, "class_name": "Zeros"}}, "class_name": "BatchNormalization", "inbound_nodes": [[["conv2d_62", 0, 0, {}]]]}, {"name": "batch_normalization_67", "config": {"gamma_regularizer": null, "gamma_initializer": {"config": {"dtype": "float32"}, "class_name": "Ones"}, "momentum": 0.99, "center": true, "axis": [3], "beta_regularizer": null, "dtype": "float32", "scale": false, "name": "batch_normalization_67", "trainable": true, "gamma_constraint": null, "beta_constraint": null, "beta_initializer": {"config": {"dtype": "float32"}, "class_name": "Zeros"}, "moving_variance_initializer": {"config": {"dtype": "float32"}, "class_name": "Ones"}, "epsilon": 0.001, "moving_mean_initializer": {"config": {"dtype": "float32"}, "class_name": "Zeros"}}, "class_name": "BatchNormalization", "inbound_nodes": [[["conv2d_67", 0, 0, {}]]]}, {"name": "activation_111", "config": {"name": "activation_111", "activation": "relu", "trainable": true, "dtype": "float32"}, "class_name": "Activation", "inbound_nodes": [[["batch_normalization_62", 0, 0, {}]]]}, {"name": "activation_116", "config": {"name": "activation_116", "activation": "relu", "trainable": true, "dtype": "float32"}, "class_name": "Activation", "inbound_nodes": [[["batch_normalization_67", 0, 0, {}]]]}, {"name": "average_pooling2d_6", "config": {"trainable": true, "padding": "same", "name": "average_pooling2d_6", "strides": [1, 1], "data_format": "channels_last", "pool_size": [3, 3], "dtype": "float32"}, "class_name": "AveragePooling2D", "inbound_nodes": [[["mixed6", 0, 0, {}]]]}, {"name": "conv2d_60", "config": {"bias_regularizer": null, "padding": "same", "strides": [1, 1], "kernel_size": [1, 1], "kernel_initializer": {"config": {"seed": null, "dtype": "float32"}, "class_name": "GlorotUniform"}, "dilation_rate": [1, 1], "dtype": "float32", "activation": "linear", "name": "conv2d_60", "bias_constraint": null, "trainable": true, "kernel_constraint": null, "use_bias": false, "kernel_regularizer": null, "bias_initializer": {"config": {"dtype": "float32"}, "class_name": "Zeros"}, "activity_regularizer": null, "data_format": "channels_last", "filters": 192}, "class_name": "Conv2D", "inbound_nodes": [[["mixed6", 0, 0, {}]]]}, {"name": "conv2d_63", "config": {"bias_regularizer": null, "padding": "same", "strides": [1, 1], "kernel_size": [7, 1], "kernel_initializer": {"config": {"seed": null, "dtype": "float32"}, "class_name": "GlorotUniform"}, "dilation_rate": [1, 1], "dtype": "float32", "activation": "linear", "name": "conv2d_63", "bias_constraint": null, "trainable": true, "kernel_constraint": null, "use_bias": false, "kernel_regularizer": null, "bias_initializer": {"config": {"dtype": "float32"}, "class_name": "Zeros"}, "activity_regularizer": null, "data_format": "channels_last", "filters": 192}, "class_name": "Conv2D", "inbound_nodes": [[["activation_111", 0, 0, {}]]]}, {"name": "conv2d_68", "config": {"bias_regularizer": null, "padding": "same", "strides": [1, 1], "kernel_size": [1, 7], "kernel_initializer": {"config": {"seed": null, "dtype": "float32"}, "class_name": "GlorotUniform"}, "dilation_rate": [1, 1], "dtype": "float32", "activation": "linear", "name": "conv2d_68", "bias_constraint": null, "trainable": true, "kernel_constraint": null, "use_bias": false, "kernel_regularizer": null, "bias_initializer": {"config": {"dtype": "float32"}, "class_name": "Zeros"}, "activity_regularizer": null, "data_format": "channels_last", "filters": 192}, "class_name": "Conv2D", "inbound_nodes": [[["activation_116", 0, 0, {}]]]}, {"name": "conv2d_69", "config": {"bias_regularizer": null, "padding": "same", "strides": [1, 1], "kernel_size": [1, 1], "kernel_initializer": {"config": {"seed": null, "dtype": "float32"}, "class_name": "GlorotUniform"}, "dilation_rate": [1, 1], "dtype": "float32", "activation": "linear", "name": "conv2d_69", "bias_constraint": null, "trainable": true, "kernel_constraint": null, "use_bias": false, "kernel_regularizer": null, "bias_initializer": {"config": {"dtype": "float32"}, "class_name": "Zeros"}, "activity_regularizer": null, "data_format": "channels_last", "filters": 192}, "class_name": "Conv2D", "inbound_nodes": [[["average_pooling2d_6", 0, 0, {}]]]}, {"name": "batch_normalization_60", "config": {"gamma_regularizer": null, "gamma_initializer": {"config": {"dtype": "float32"}, "class_name": "Ones"}, "momentum": 0.99, "center": true, "axis": [3], "beta_regularizer": null, "dtype": "float32", "scale": false, "name": "batch_normalization_60", "trainable": true, "gamma_constraint": null, "beta_constraint": null, "beta_initializer": {"config": {"dtype": "float32"}, "class_name": "Zeros"}, "moving_variance_initializer": {"config": {"dtype": "float32"}, "class_name": "Ones"}, "epsilon": 0.001, "moving_mean_initializer": {"config": {"dtype": "float32"}, "class_name": "Zeros"}}, "class_name": "BatchNormalization", "inbound_nodes": [[["conv2d_60", 0, 0, {}]]]}, {"name": "batch_normalization_63", "config": {"gamma_regularizer": null, "gamma_initializer": {"config": {"dtype": "float32"}, "class_name": "Ones"}, "momentum": 0.99, "center": true, "axis": [3], "beta_regularizer": null, "dtype": "float32", "scale": false, "name": "batch_normalization_63", "trainable": true, "gamma_constraint": null, "beta_constraint": null, "beta_initializer": {"config": {"dtype": "float32"}, "class_name": "Zeros"}, "moving_variance_initializer": {"config": {"dtype": "float32"}, "class_name": "Ones"}, "epsilon": 0.001, "moving_mean_initializer": {"config": {"dtype": "float32"}, "class_name": "Zeros"}}, "class_name": "BatchNormalization", "inbound_nodes": [[["conv2d_63", 0, 0, {}]]]}, {"name": "batch_normalization_68", "config": {"gamma_regularizer": null, "gamma_initializer": {"config": {"dtype": "float32"}, "class_name": "Ones"}, "momentum": 0.99, "center": true, "axis": [3], "beta_regularizer": null, "dtype": "float32", "scale": false, "name": "batch_normalization_68", "trainable": true, "gamma_constraint": null, "beta_constraint": null, "beta_initializer": {"config": {"dtype": "float32"}, "class_name": "Zeros"}, "moving_variance_initializer": {"config": {"dtype": "float32"}, "class_name": "Ones"}, "epsilon": 0.001, "moving_mean_initializer": {"config": {"dtype": "float32"}, "class_name": "Zeros"}}, "class_name": "BatchNormalization", "inbound_nodes": [[["conv2d_68", 0, 0, {}]]]}, {"name": "batch_normalization_69", "config": {"gamma_regularizer": null, "gamma_initializer": {"config": {"dtype": "float32"}, "class_name": "Ones"}, "momentum": 0.99, "center": true, "axis": [3], "beta_regularizer": null, "dtype": "float32", "scale": false, "name": "batch_normalization_69", "trainable": true, "gamma_constraint": null, "beta_constraint": null, "beta_initializer": {"config": {"dtype": "float32"}, "class_name": "Zeros"}, "moving_variance_initializer": {"config": {"dtype": "float32"}, "class_name": "Ones"}, "epsilon": 0.001, "moving_mean_initializer": {"config": {"dtype": "float32"}, "class_name": "Zeros"}}, "class_name": "BatchNormalization", "inbound_nodes": [[["conv2d_69", 0, 0, {}]]]}, {"name": "activation_109", "config": {"name": "activation_109", "activation": "relu", "trainable": true, "dtype": "float32"}, "class_name": "Activation", "inbound_nodes": [[["batch_normalization_60", 0, 0, {}]]]}, {"name": "activation_112", "config": {"name": "activation_112", "activation": "relu", "trainable": true, "dtype": "float32"}, "class_name": "Activation", "inbound_nodes": [[["batch_normalization_63", 0, 0, {}]]]}, {"name": "activation_117", "config": {"name": "activation_117", "activation": "relu", "trainable": true, "dtype": "float32"}, "class_name": "Activation", "inbound_nodes": [[["batch_normalization_68", 0, 0, {}]]]}, {"name": "activation_118", "config": {"name": "activation_118", "activation": "relu", "trainable": true, "dtype": "float32"}, "class_name": "Activation", "inbound_nodes": [[["batch_normalization_69", 0, 0, {}]]]}, {"name": "mixed7", "config": {"name": "mixed7", "axis": 3, "trainable": true, "dtype": "float32"}, "class_name": "Concatenate", "inbound_nodes": [[["activation_109", 0, 0, {}], ["activation_112", 0, 0, {}], ["activation_117", 0, 0, {}], ["activation_118", 0, 0, {}]]]}, {"name": "conv2d_72", "config": {"bias_regularizer": null, "padding": "same", "strides": [1, 1], "kernel_size": [1, 1], "kernel_initializer": {"config": {"seed": null, "dtype": "float32"}, "class_name": "GlorotUniform"}, "dilation_rate": [1, 1], "dtype": "float32", "activation": "linear", "name": "conv2d_72", "bias_constraint": null, "trainable": true, "kernel_constraint": null, "use_bias": false, "kernel_regularizer": null, "bias_initializer": {"config": {"dtype": "float32"}, "class_name": "Zeros"}, "activity_regularizer": null, "data_format": "channels_last", "filters": 192}, "class_name": "Conv2D", "inbound_nodes": [[["mixed7", 0, 0, {}]]]}, {"name": "batch_normalization_72", "config": {"gamma_regularizer": null, "gamma_initializer": {"config": {"dtype": "float32"}, "class_name": "Ones"}, "momentum": 0.99, "center": true, "axis": [3], "beta_regularizer": null, "dtype": "float32", "scale": false, "name": "batch_normalization_72", "trainable": true, "gamma_constraint": null, "beta_constraint": null, "beta_initializer": {"config": {"dtype": "float32"}, "class_name": "Zeros"}, "moving_variance_initializer": {"config": {"dtype": "float32"}, "class_name": "Ones"}, "epsilon": 0.001, "moving_mean_initializer": {"config": {"dtype": "float32"}, "class_name": "Zeros"}}, "class_name": "BatchNormalization", "inbound_nodes": [[["conv2d_72", 0, 0, {}]]]}, {"name": "activation_121", "config": {"name": "activation_121", "activation": "relu", "trainable": true, "dtype": "float32"}, "class_name": "Activation", "inbound_nodes": [[["batch_normalization_72", 0, 0, {}]]]}, {"name": "conv2d_73", "config": {"bias_regularizer": null, "padding": "same", "strides": [1, 1], "kernel_size": [1, 7], "kernel_initializer": {"config": {"seed": null, "dtype": "float32"}, "class_name": "GlorotUniform"}, "dilation_rate": [1, 1], "dtype": "float32", "activation": "linear", "name": "conv2d_73", "bias_constraint": null, "trainable": true, "kernel_constraint": null, "use_bias": false, "kernel_regularizer": null, "bias_initializer": {"config": {"dtype": "float32"}, "class_name": "Zeros"}, "activity_regularizer": null, "data_format": "channels_last", "filters": 192}, "class_name": "Conv2D", "inbound_nodes": [[["activation_121", 0, 0, {}]]]}, {"name": "batch_normalization_73", "config": {"gamma_regularizer": null, "gamma_initializer": {"config": {"dtype": "float32"}, "class_name": "Ones"}, "momentum": 0.99, "center": true, "axis": [3], "beta_regularizer": null, "dtype": "float32", "scale": false, "name": "batch_normalization_73", "trainable": true, "gamma_constraint": null, "beta_constraint": null, "beta_initializer": {"config": {"dtype": "float32"}, "class_name": "Zeros"}, "moving_variance_initializer": {"config": {"dtype": "float32"}, "class_name": "Ones"}, "epsilon": 0.001, "moving_mean_initializer": {"config": {"dtype": "float32"}, "class_name": "Zeros"}}, "class_name": "BatchNormalization", "inbound_nodes": [[["conv2d_73", 0, 0, {}]]]}, {"name": "activation_122", "config": {"name": "activation_122", "activation": "relu", "trainable": true, "dtype": "float32"}, "class_name": "Activation", "inbound_nodes": [[["batch_normalization_73", 0, 0, {}]]]}, {"name": "conv2d_70", "config": {"bias_regularizer": null, "padding": "same", "strides": [1, 1], "kernel_size": [1, 1], "kernel_initializer": {"config": {"seed": null, "dtype": "float32"}, "class_name": "GlorotUniform"}, "dilation_rate": [1, 1], "dtype": "float32", "activation": "linear", "name": "conv2d_70", "bias_constraint": null, "trainable": true, "kernel_constraint": null, "use_bias": false, "kernel_regularizer": null, "bias_initializer": {"config": {"dtype": "float32"}, "class_name": "Zeros"}, "activity_regularizer": null, "data_format": "channels_last", "filters": 192}, "class_name": "Conv2D", "inbound_nodes": [[["mixed7", 0, 0, {}]]]}, {"name": "conv2d_74", "config": {"bias_regularizer": null, "padding": "same", "strides": [1, 1], "kernel_size": [7, 1], "kernel_initializer": {"config": {"seed": null, "dtype": "float32"}, "class_name": "GlorotUniform"}, "dilation_rate": [1, 1], "dtype": "float32", "activation": "linear", "name": "conv2d_74", "bias_constraint": null, "trainable": true, "kernel_constraint": null, "use_bias": false, "kernel_regularizer": null, "bias_initializer": {"config": {"dtype": "float32"}, "class_name": "Zeros"}, "activity_regularizer": null, "data_format": "channels_last", "filters": 192}, "class_name": "Conv2D", "inbound_nodes": [[["activation_122", 0, 0, {}]]]}, {"name": "batch_normalization_70", "config": {"gamma_regularizer": null, "gamma_initializer": {"config": {"dtype": "float32"}, "class_name": "Ones"}, "momentum": 0.99, "center": true, "axis": [3], "beta_regularizer": null, "dtype": "float32", "scale": false, "name": "batch_normalization_70", "trainable": true, "gamma_constraint": null, "beta_constraint": null, "beta_initializer": {"config": {"dtype": "float32"}, "class_name": "Zeros"}, "moving_variance_initializer": {"config": {"dtype": "float32"}, "class_name": "Ones"}, "epsilon": 0.001, "moving_mean_initializer": {"config": {"dtype": "float32"}, "class_name": "Zeros"}}, "class_name": "BatchNormalization", "inbound_nodes": [[["conv2d_70", 0, 0, {}]]]}, {"name": "batch_normalization_74", "config": {"gamma_regularizer": null, "gamma_initializer": {"config": {"dtype": "float32"}, "class_name": "Ones"}, "momentum": 0.99, "center": true, "axis": [3], "beta_regularizer": null, "dtype": "float32", "scale": false, "name": "batch_normalization_74", "trainable": true, "gamma_constraint": null, "beta_constraint": null, "beta_initializer": {"config": {"dtype": "float32"}, "class_name": "Zeros"}, "moving_variance_initializer": {"config": {"dtype": "float32"}, "class_name": "Ones"}, "epsilon": 0.001, "moving_mean_initializer": {"config": {"dtype": "float32"}, "class_name": "Zeros"}}, "class_name": "BatchNormalization", "inbound_nodes": [[["conv2d_74", 0, 0, {}]]]}, {"name": "activation_119", "config": {"name": "activation_119", "activation": "relu", "trainable": true, "dtype": "float32"}, "class_name": "Activation", "inbound_nodes": [[["batch_normalization_70", 0, 0, {}]]]}, {"name": "activation_123", "config": {"name": "activation_123", "activation": "relu", "trainable": true, "dtype": "float32"}, "class_name": "Activation", "inbound_nodes": [[["batch_normalization_74", 0, 0, {}]]]}, {"name": "conv2d_71", "config": {"bias_regularizer": null, "padding": "valid", "strides": [2, 2], "kernel_size": [3, 3], "kernel_initializer": {"config": {"seed": null, "dtype": "float32"}, "class_name": "GlorotUniform"}, "dilation_rate": [1, 1], "dtype": "float32", "activation": "linear", "name": "conv2d_71", "bias_constraint": null, "trainable": true, "kernel_constraint": null, "use_bias": false, "kernel_regularizer": null, "bias_initializer": {"config": {"dtype": "float32"}, "class_name": "Zeros"}, "activity_regularizer": null, "data_format": "channels_last", "filters": 320}, "class_name": "Conv2D", "inbound_nodes": [[["activation_119", 0, 0, {}]]]}, {"name": "conv2d_75", "config": {"bias_regularizer": null, "padding": "valid", "strides": [2, 2], "kernel_size": [3, 3], "kernel_initializer": {"config": {"seed": null, "dtype": "float32"}, "class_name": "GlorotUniform"}, "dilation_rate": [1, 1], "dtype": "float32", "activation": "linear", "name": "conv2d_75", "bias_constraint": null, "trainable": true, "kernel_constraint": null, "use_bias": false, "kernel_regularizer": null, "bias_initializer": {"config": {"dtype": "float32"}, "class_name": "Zeros"}, "activity_regularizer": null, "data_format": "channels_last", "filters": 192}, "class_name": "Conv2D", "inbound_nodes": [[["activation_123", 0, 0, {}]]]}, {"name": "batch_normalization_71", "config": {"gamma_regularizer": null, "gamma_initializer": {"config": {"dtype": "float32"}, "class_name": "Ones"}, "momentum": 0.99, "center": true, "axis": [3], "beta_regularizer": null, "dtype": "float32", "scale": false, "name": "batch_normalization_71", "trainable": true, "gamma_constraint": null, "beta_constraint": null, "beta_initializer": {"config": {"dtype": "float32"}, "class_name": "Zeros"}, "moving_variance_initializer": {"config": {"dtype": "float32"}, "class_name": "Ones"}, "epsilon": 0.001, "moving_mean_initializer": {"config": {"dtype": "float32"}, "class_name": "Zeros"}}, "class_name": "BatchNormalization", "inbound_nodes": [[["conv2d_71", 0, 0, {}]]]}, {"name": "batch_normalization_75", "config": {"gamma_regularizer": null, "gamma_initializer": {"config": {"dtype": "float32"}, "class_name": "Ones"}, "momentum": 0.99, "center": true, "axis": [3], "beta_regularizer": null, "dtype": "float32", "scale": false, "name": "batch_normalization_75", "trainable": true, "gamma_constraint": null, "beta_constraint": null, "beta_initializer": {"config": {"dtype": "float32"}, "class_name": "Zeros"}, "moving_variance_initializer": {"config": {"dtype": "float32"}, "class_name": "Ones"}, "epsilon": 0.001, "moving_mean_initializer": {"config": {"dtype": "float32"}, "class_name": "Zeros"}}, "class_name": "BatchNormalization", "inbound_nodes": [[["conv2d_75", 0, 0, {}]]]}, {"name": "activation_120", "config": {"name": "activation_120", "activation": "relu", "trainable": true, "dtype": "float32"}, "class_name": "Activation", "inbound_nodes": [[["batch_normalization_71", 0, 0, {}]]]}, {"name": "activation_124", "config": {"name": "activation_124", "activation": "relu", "trainable": true, "dtype": "float32"}, "class_name": "Activation", "inbound_nodes": [[["batch_normalization_75", 0, 0, {}]]]}, {"name": "max_pooling2d_4", "config": {"trainable": true, "padding": "valid", "name": "max_pooling2d_4", "strides": [2, 2], "data_format": "channels_last", "pool_size": [3, 3], "dtype": "float32"}, "class_name": "MaxPooling2D", "inbound_nodes": [[["mixed7", 0, 0, {}]]]}, {"name": "mixed8", "config": {"name": "mixed8", "axis": 3, "trainable": true, "dtype": "float32"}, "class_name": "Concatenate", "inbound_nodes": [[["activation_120", 0, 0, {}], ["activation_124", 0, 0, {}], ["max_pooling2d_4", 0, 0, {}]]]}, {"name": "conv2d_80", "config": {"bias_regularizer": null, "padding": "same", "strides": [1, 1], "kernel_size": [1, 1], "kernel_initializer": {"config": {"seed": null, "dtype": "float32"}, "class_name": "GlorotUniform"}, "dilation_rate": [1, 1], "dtype": "float32", "activation": "linear", "name": "conv2d_80", "bias_constraint": null, "trainable": true, "kernel_constraint": null, "use_bias": false, "kernel_regularizer": null, "bias_initializer": {"config": {"dtype": "float32"}, "class_name": "Zeros"}, "activity_regularizer": null, "data_format": "channels_last", "filters": 448}, "class_name": "Conv2D", "inbound_nodes": [[["mixed8", 0, 0, {}]]]}, {"name": "batch_normalization_80", "config": {"gamma_regularizer": null, "gamma_initializer": {"config": {"dtype": "float32"}, "class_name": "Ones"}, "momentum": 0.99, "center": true, "axis": [3], "beta_regularizer": null, "dtype": "float32", "scale": false, "name": "batch_normalization_80", "trainable": true, "gamma_constraint": null, "beta_constraint": null, "beta_initializer": {"config": {"dtype": "float32"}, "class_name": "Zeros"}, "moving_variance_initializer": {"config": {"dtype": "float32"}, "class_name": "Ones"}, "epsilon": 0.001, "moving_mean_initializer": {"config": {"dtype": "float32"}, "class_name": "Zeros"}}, "class_name": "BatchNormalization", "inbound_nodes": [[["conv2d_80", 0, 0, {}]]]}, {"name": "activation_129", "config": {"name": "activation_129", "activation": "relu", "trainable": true, "dtype": "float32"}, "class_name": "Activation", "inbound_nodes": [[["batch_normalization_80", 0, 0, {}]]]}, {"name": "conv2d_77", "config": {"bias_regularizer": null, "padding": "same", "strides": [1, 1], "kernel_size": [1, 1], "kernel_initializer": {"config": {"seed": null, "dtype": "float32"}, "class_name": "GlorotUniform"}, "dilation_rate": [1, 1], "dtype": "float32", "activation": "linear", "name": "conv2d_77", "bias_constraint": null, "trainable": true, "kernel_constraint": null, "use_bias": false, "kernel_regularizer": null, "bias_initializer": {"config": {"dtype": "float32"}, "class_name": "Zeros"}, "activity_regularizer": null, "data_format": "channels_last", "filters": 384}, "class_name": "Conv2D", "inbound_nodes": [[["mixed8", 0, 0, {}]]]}, {"name": "conv2d_81", "config": {"bias_regularizer": null, "padding": "same", "strides": [1, 1], "kernel_size": [3, 3], "kernel_initializer": {"config": {"seed": null, "dtype": "float32"}, "class_name": "GlorotUniform"}, "dilation_rate": [1, 1], "dtype": "float32", "activation": "linear", "name": "conv2d_81", "bias_constraint": null, "trainable": true, "kernel_constraint": null, "use_bias": false, "kernel_regularizer": null, "bias_initializer": {"config": {"dtype": "float32"}, "class_name": "Zeros"}, "activity_regularizer": null, "data_format": "channels_last", "filters": 384}, "class_name": "Conv2D", "inbound_nodes": [[["activation_129", 0, 0, {}]]]}, {"name": "batch_normalization_77", "config": {"gamma_regularizer": null, "gamma_initializer": {"config": {"dtype": "float32"}, "class_name": "Ones"}, "momentum": 0.99, "center": true, "axis": [3], "beta_regularizer": null, "dtype": "float32", "scale": false, "name": "batch_normalization_77", "trainable": true, "gamma_constraint": null, "beta_constraint": null, "beta_initializer": {"config": {"dtype": "float32"}, "class_name": "Zeros"}, "moving_variance_initializer": {"config": {"dtype": "float32"}, "class_name": "Ones"}, "epsilon": 0.001, "moving_mean_initializer": {"config": {"dtype": "float32"}, "class_name": "Zeros"}}, "class_name": "BatchNormalization", "inbound_nodes": [[["conv2d_77", 0, 0, {}]]]}, {"name": "batch_normalization_81", "config": {"gamma_regularizer": null, "gamma_initializer": {"config": {"dtype": "float32"}, "class_name": "Ones"}, "momentum": 0.99, "center": true, "axis": [3], "beta_regularizer": null, "dtype": "float32", "scale": false, "name": "batch_normalization_81", "trainable": true, "gamma_constraint": null, "beta_constraint": null, "beta_initializer": {"config": {"dtype": "float32"}, "class_name": "Zeros"}, "moving_variance_initializer": {"config": {"dtype": "float32"}, "class_name": "Ones"}, "epsilon": 0.001, "moving_mean_initializer": {"config": {"dtype": "float32"}, "class_name": "Zeros"}}, "class_name": "BatchNormalization", "inbound_nodes": [[["conv2d_81", 0, 0, {}]]]}, {"name": "activation_126", "config": {"name": "activation_126", "activation": "relu", "trainable": true, "dtype": "float32"}, "class_name": "Activation", "inbound_nodes": [[["batch_normalization_77", 0, 0, {}]]]}, {"name": "activation_130", "config": {"name": "activation_130", "activation": "relu", "trainable": true, "dtype": "float32"}, "class_name": "Activation", "inbound_nodes": [[["batch_normalization_81", 0, 0, {}]]]}, {"name": "conv2d_78", "config": {"bias_regularizer": null, "padding": "same", "strides": [1, 1], "kernel_size": [1, 3], "kernel_initializer": {"config": {"seed": null, "dtype": "float32"}, "class_name": "GlorotUniform"}, "dilation_rate": [1, 1], "dtype": "float32", "activation": "linear", "name": "conv2d_78", "bias_constraint": null, "trainable": true, "kernel_constraint": null, "use_bias": false, "kernel_regularizer": null, "bias_initializer": {"config": {"dtype": "float32"}, "class_name": "Zeros"}, "activity_regularizer": null, "data_format": "channels_last", "filters": 384}, "class_name": "Conv2D", "inbound_nodes": [[["activation_126", 0, 0, {}]]]}, {"name": "conv2d_79", "config": {"bias_regularizer": null, "padding": "same", "strides": [1, 1], "kernel_size": [3, 1], "kernel_initializer": {"config": {"seed": null, "dtype": "float32"}, "class_name": "GlorotUniform"}, "dilation_rate": [1, 1], "dtype": "float32", "activation": "linear", "name": "conv2d_79", "bias_constraint": null, "trainable": true, "kernel_constraint": null, "use_bias": false, "kernel_regularizer": null, "bias_initializer": {"config": {"dtype": "float32"}, "class_name": "Zeros"}, "activity_regularizer": null, "data_format": "channels_last", "filters": 384}, "class_name": "Conv2D", "inbound_nodes": [[["activation_126", 0, 0, {}]]]}, {"name": "conv2d_82", "config": {"bias_regularizer": null, "padding": "same", "strides": [1, 1], "kernel_size": [1, 3], "kernel_initializer": {"config": {"seed": null, "dtype": "float32"}, "class_name": "GlorotUniform"}, "dilation_rate": [1, 1], "dtype": "float32", "activation": "linear", "name": "conv2d_82", "bias_constraint": null, "trainable": true, "kernel_constraint": null, "use_bias": false, "kernel_regularizer": null, "bias_initializer": {"config": {"dtype": "float32"}, "class_name": "Zeros"}, "activity_regularizer": null, "data_format": "channels_last", "filters": 384}, "class_name": "Conv2D", "inbound_nodes": [[["activation_130", 0, 0, {}]]]}, {"name": "conv2d_83", "config": {"bias_regularizer": null, "padding": "same", "strides": [1, 1], "kernel_size": [3, 1], "kernel_initializer": {"config": {"seed": null, "dtype": "float32"}, "class_name": "GlorotUniform"}, "dilation_rate": [1, 1], "dtype": "float32", "activation": "linear", "name": "conv2d_83", "bias_constraint": null, "trainable": true, "kernel_constraint": null, "use_bias": false, "kernel_regularizer": null, "bias_initializer": {"config": {"dtype": "float32"}, "class_name": "Zeros"}, "activity_regularizer": null, "data_format": "channels_last", "filters": 384}, "class_name": "Conv2D", "inbound_nodes": [[["activation_130", 0, 0, {}]]]}, {"name": "average_pooling2d_7", "config": {"trainable": true, "padding": "same", "name": "average_pooling2d_7", "strides": [1, 1], "data_format": "channels_last", "pool_size": [3, 3], "dtype": "float32"}, "class_name": "AveragePooling2D", "inbound_nodes": [[["mixed8", 0, 0, {}]]]}, {"name": "conv2d_76", "config": {"bias_regularizer": null, "padding": "same", "strides": [1, 1], "kernel_size": [1, 1], "kernel_initializer": {"config": {"seed": null, "dtype": "float32"}, "class_name": "GlorotUniform"}, "dilation_rate": [1, 1], "dtype": "float32", "activation": "linear", "name": "conv2d_76", "bias_constraint": null, "trainable": true, "kernel_constraint": null, "use_bias": false, "kernel_regularizer": null, "bias_initializer": {"config": {"dtype": "float32"}, "class_name": "Zeros"}, "activity_regularizer": null, "data_format": "channels_last", "filters": 320}, "class_name": "Conv2D", "inbound_nodes": [[["mixed8", 0, 0, {}]]]}, {"name": "batch_normalization_78", "config": {"gamma_regularizer": null, "gamma_initializer": {"config": {"dtype": "float32"}, "class_name": "Ones"}, "momentum": 0.99, "center": true, "axis": [3], "beta_regularizer": null, "dtype": "float32", "scale": false, "name": "batch_normalization_78", "trainable": true, "gamma_constraint": null, "beta_constraint": null, "beta_initializer": {"config": {"dtype": "float32"}, "class_name": "Zeros"}, "moving_variance_initializer": {"config": {"dtype": "float32"}, "class_name": "Ones"}, "epsilon": 0.001, "moving_mean_initializer": {"config": {"dtype": "float32"}, "class_name": "Zeros"}}, "class_name": "BatchNormalization", "inbound_nodes": [[["conv2d_78", 0, 0, {}]]]}, {"name": "batch_normalization_79", "config": {"gamma_regularizer": null, "gamma_initializer": {"config": {"dtype": "float32"}, "class_name": "Ones"}, "momentum": 0.99, "center": true, "axis": [3], "beta_regularizer": null, "dtype": "float32", "scale": false, "name": "batch_normalization_79", "trainable": true, "gamma_constraint": null, "beta_constraint": null, "beta_initializer": {"config": {"dtype": "float32"}, "class_name": "Zeros"}, "moving_variance_initializer": {"config": {"dtype": "float32"}, "class_name": "Ones"}, "epsilon": 0.001, "moving_mean_initializer": {"config": {"dtype": "float32"}, "class_name": "Zeros"}}, "class_name": "BatchNormalization", "inbound_nodes": [[["conv2d_79", 0, 0, {}]]]}, {"name": "batch_normalization_82", "config": {"gamma_regularizer": null, "gamma_initializer": {"config": {"dtype": "float32"}, "class_name": "Ones"}, "momentum": 0.99, "center": true, "axis": [3], "beta_regularizer": null, "dtype": "float32", "scale": false, "name": "batch_normalization_82", "trainable": true, "gamma_constraint": null, "beta_constraint": null, "beta_initializer": {"config": {"dtype": "float32"}, "class_name": "Zeros"}, "moving_variance_initializer": {"config": {"dtype": "float32"}, "class_name": "Ones"}, "epsilon": 0.001, "moving_mean_initializer": {"config": {"dtype": "float32"}, "class_name": "Zeros"}}, "class_name": "BatchNormalization", "inbound_nodes": [[["conv2d_82", 0, 0, {}]]]}, {"name": "batch_normalization_83", "config": {"gamma_regularizer": null, "gamma_initializer": {"config": {"dtype": "float32"}, "class_name": "Ones"}, "momentum": 0.99, "center": true, "axis": [3], "beta_regularizer": null, "dtype": "float32", "scale": false, "name": "batch_normalization_83", "trainable": true, "gamma_constraint": null, "beta_constraint": null, "beta_initializer": {"config": {"dtype": "float32"}, "class_name": "Zeros"}, "moving_variance_initializer": {"config": {"dtype": "float32"}, "class_name": "Ones"}, "epsilon": 0.001, "moving_mean_initializer": {"config": {"dtype": "float32"}, "class_name": "Zeros"}}, "class_name": "BatchNormalization", "inbound_nodes": [[["conv2d_83", 0, 0, {}]]]}, {"name": "conv2d_84", "config": {"bias_regularizer": null, "padding": "same", "strides": [1, 1], "kernel_size": [1, 1], "kernel_initializer": {"config": {"seed": null, "dtype": "float32"}, "class_name": "GlorotUniform"}, "dilation_rate": [1, 1], "dtype": "float32", "activation": "linear", "name": "conv2d_84", "bias_constraint": null, "trainable": true, "kernel_constraint": null, "use_bias": false, "kernel_regularizer": null, "bias_initializer": {"config": {"dtype": "float32"}, "class_name": "Zeros"}, "activity_regularizer": null, "data_format": "channels_last", "filters": 192}, "class_name": "Conv2D", "inbound_nodes": [[["average_pooling2d_7", 0, 0, {}]]]}, {"name": "batch_normalization_76", "config": {"gamma_regularizer": null, "gamma_initializer": {"config": {"dtype": "float32"}, "class_name": "Ones"}, "momentum": 0.99, "center": true, "axis": [3], "beta_regularizer": null, "dtype": "float32", "scale": false, "name": "batch_normalization_76", "trainable": true, "gamma_constraint": null, "beta_constraint": null, "beta_initializer": {"config": {"dtype": "float32"}, "class_name": "Zeros"}, "moving_variance_initializer": {"config": {"dtype": "float32"}, "class_name": "Ones"}, "epsilon": 0.001, "moving_mean_initializer": {"config": {"dtype": "float32"}, "class_name": "Zeros"}}, "class_name": "BatchNormalization", "inbound_nodes": [[["conv2d_76", 0, 0, {}]]]}, {"name": "activation_127", "config": {"name": "activation_127", "activation": "relu", "trainable": true, "dtype": "float32"}, "class_name": "Activation", "inbound_nodes": [[["batch_normalization_78", 0, 0, {}]]]}, {"name": "activation_128", "config": {"name": "activation_128", "activation": "relu", "trainable": true, "dtype": "float32"}, "class_name": "Activation", "inbound_nodes": [[["batch_normalization_79", 0, 0, {}]]]}, {"name": "activation_131", "config": {"name": "activation_131", "activation": "relu", "trainable": true, "dtype": "float32"}, "class_name": "Activation", "inbound_nodes": [[["batch_normalization_82", 0, 0, {}]]]}, {"name": "activation_132", "config": {"name": "activation_132", "activation": "relu", "trainable": true, "dtype": "float32"}, "class_name": "Activation", "inbound_nodes": [[["batch_normalization_83", 0, 0, {}]]]}, {"name": "batch_normalization_84", "config": {"gamma_regularizer": null, "gamma_initializer": {"config": {"dtype": "float32"}, "class_name": "Ones"}, "momentum": 0.99, "center": true, "axis": [3], "beta_regularizer": null, "dtype": "float32", "scale": false, "name": "batch_normalization_84", "trainable": true, "gamma_constraint": null, "beta_constraint": null, "beta_initializer": {"config": {"dtype": "float32"}, "class_name": "Zeros"}, "moving_variance_initializer": {"config": {"dtype": "float32"}, "class_name": "Ones"}, "epsilon": 0.001, "moving_mean_initializer": {"config": {"dtype": "float32"}, "class_name": "Zeros"}}, "class_name": "BatchNormalization", "inbound_nodes": [[["conv2d_84", 0, 0, {}]]]}, {"name": "activation_125", "config": {"name": "activation_125", "activation": "relu", "trainable": true, "dtype": "float32"}, "class_name": "Activation", "inbound_nodes": [[["batch_normalization_76", 0, 0, {}]]]}, {"name": "mixed9_0", "config": {"name": "mixed9_0", "axis": 3, "trainable": true, "dtype": "float32"}, "class_name": "Concatenate", "inbound_nodes": [[["activation_127", 0, 0, {}], ["activation_128", 0, 0, {}]]]}, {"name": "concatenate", "config": {"name": "concatenate", "axis": 3, "trainable": true, "dtype": "float32"}, "class_name": "Concatenate", "inbound_nodes": [[["activation_131", 0, 0, {}], ["activation_132", 0, 0, {}]]]}, {"name": "activation_133", "config": {"name": "activation_133", "activation": "relu", "trainable": true, "dtype": "float32"}, "class_name": "Activation", "inbound_nodes": [[["batch_normalization_84", 0, 0, {}]]]}, {"name": "mixed9", "config": {"name": "mixed9", "axis": 3, "trainable": true, "dtype": "float32"}, "class_name": "Concatenate", "inbound_nodes": [[["activation_125", 0, 0, {}], ["mixed9_0", 0, 0, {}], ["concatenate", 0, 0, {}], ["activation_133", 0, 0, {}]]]}, {"name": "conv2d_89", "config": {"bias_regularizer": null, "padding": "same", "strides": [1, 1], "kernel_size": [1, 1], "kernel_initializer": {"config": {"seed": null, "dtype": "float32"}, "class_name": "GlorotUniform"}, "dilation_rate": [1, 1], "dtype": "float32", "activation": "linear", "name": "conv2d_89", "bias_constraint": null, "trainable": true, "kernel_constraint": null, "use_bias": false, "kernel_regularizer": null, "bias_initializer": {"config": {"dtype": "float32"}, "class_name": "Zeros"}, "activity_regularizer": null, "data_format": "channels_last", "filters": 448}, "class_name": "Conv2D", "inbound_nodes": [[["mixed9", 0, 0, {}]]]}, {"name": "batch_normalization_89", "config": {"gamma_regularizer": null, "gamma_initializer": {"config": {"dtype": "float32"}, "class_name": "Ones"}, "momentum": 0.99, "center": true, "axis": [3], "beta_regularizer": null, "dtype": "float32", "scale": false, "name": "batch_normalization_89", "trainable": true, "gamma_constraint": null, "beta_constraint": null, "beta_initializer": {"config": {"dtype": "float32"}, "class_name": "Zeros"}, "moving_variance_initializer": {"config": {"dtype": "float32"}, "class_name": "Ones"}, "epsilon": 0.001, "moving_mean_initializer": {"config": {"dtype": "float32"}, "class_name": "Zeros"}}, "class_name": "BatchNormalization", "inbound_nodes": [[["conv2d_89", 0, 0, {}]]]}, {"name": "activation_138", "config": {"name": "activation_138", "activation": "relu", "trainable": true, "dtype": "float32"}, "class_name": "Activation", "inbound_nodes": [[["batch_normalization_89", 0, 0, {}]]]}, {"name": "conv2d_86", "config": {"bias_regularizer": null, "padding": "same", "strides": [1, 1], "kernel_size": [1, 1], "kernel_initializer": {"config": {"seed": null, "dtype": "float32"}, "class_name": "GlorotUniform"}, "dilation_rate": [1, 1], "dtype": "float32", "activation": "linear", "name": "conv2d_86", "bias_constraint": null, "trainable": true, "kernel_constraint": null, "use_bias": false, "kernel_regularizer": null, "bias_initializer": {"config": {"dtype": "float32"}, "class_name": "Zeros"}, "activity_regularizer": null, "data_format": "channels_last", "filters": 384}, "class_name": "Conv2D", "inbound_nodes": [[["mixed9", 0, 0, {}]]]}, {"name": "conv2d_90", "config": {"bias_regularizer": null, "padding": "same", "strides": [1, 1], "kernel_size": [3, 3], "kernel_initializer": {"config": {"seed": null, "dtype": "float32"}, "class_name": "GlorotUniform"}, "dilation_rate": [1, 1], "dtype": "float32", "activation": "linear", "name": "conv2d_90", "bias_constraint": null, "trainable": true, "kernel_constraint": null, "use_bias": false, "kernel_regularizer": null, "bias_initializer": {"config": {"dtype": "float32"}, "class_name": "Zeros"}, "activity_regularizer": null, "data_format": "channels_last", "filters": 384}, "class_name": "Conv2D", "inbound_nodes": [[["activation_138", 0, 0, {}]]]}, {"name": "batch_normalization_86", "config": {"gamma_regularizer": null, "gamma_initializer": {"config": {"dtype": "float32"}, "class_name": "Ones"}, "momentum": 0.99, "center": true, "axis": [3], "beta_regularizer": null, "dtype": "float32", "scale": false, "name": "batch_normalization_86", "trainable": true, "gamma_constraint": null, "beta_constraint": null, "beta_initializer": {"config": {"dtype": "float32"}, "class_name": "Zeros"}, "moving_variance_initializer": {"config": {"dtype": "float32"}, "class_name": "Ones"}, "epsilon": 0.001, "moving_mean_initializer": {"config": {"dtype": "float32"}, "class_name": "Zeros"}}, "class_name": "BatchNormalization", "inbound_nodes": [[["conv2d_86", 0, 0, {}]]]}, {"name": "batch_normalization_90", "config": {"gamma_regularizer": null, "gamma_initializer": {"config": {"dtype": "float32"}, "class_name": "Ones"}, "momentum": 0.99, "center": true, "axis": [3], "beta_regularizer": null, "dtype": "float32", "scale": false, "name": "batch_normalization_90", "trainable": true, "gamma_constraint": null, "beta_constraint": null, "beta_initializer": {"config": {"dtype": "float32"}, "class_name": "Zeros"}, "moving_variance_initializer": {"config": {"dtype": "float32"}, "class_name": "Ones"}, "epsilon": 0.001, "moving_mean_initializer": {"config": {"dtype": "float32"}, "class_name": "Zeros"}}, "class_name": "BatchNormalization", "inbound_nodes": [[["conv2d_90", 0, 0, {}]]]}, {"name": "activation_135", "config": {"name": "activation_135", "activation": "relu", "trainable": true, "dtype": "float32"}, "class_name": "Activation", "inbound_nodes": [[["batch_normalization_86", 0, 0, {}]]]}, {"name": "activation_139", "config": {"name": "activation_139", "activation": "relu", "trainable": true, "dtype": "float32"}, "class_name": "Activation", "inbound_nodes": [[["batch_normalization_90", 0, 0, {}]]]}, {"name": "conv2d_87", "config": {"bias_regularizer": null, "padding": "same", "strides": [1, 1], "kernel_size": [1, 3], "kernel_initializer": {"config": {"seed": null, "dtype": "float32"}, "class_name": "GlorotUniform"}, "dilation_rate": [1, 1], "dtype": "float32", "activation": "linear", "name": "conv2d_87", "bias_constraint": null, "trainable": true, "kernel_constraint": null, "use_bias": false, "kernel_regularizer": null, "bias_initializer": {"config": {"dtype": "float32"}, "class_name": "Zeros"}, "activity_regularizer": null, "data_format": "channels_last", "filters": 384}, "class_name": "Conv2D", "inbound_nodes": [[["activation_135", 0, 0, {}]]]}, {"name": "conv2d_88", "config": {"bias_regularizer": null, "padding": "same", "strides": [1, 1], "kernel_size": [3, 1], "kernel_initializer": {"config": {"seed": null, "dtype": "float32"}, "class_name": "GlorotUniform"}, "dilation_rate": [1, 1], "dtype": "float32", "activation": "linear", "name": "conv2d_88", "bias_constraint": null, "trainable": true, "kernel_constraint": null, "use_bias": false, "kernel_regularizer": null, "bias_initializer": {"config": {"dtype": "float32"}, "class_name": "Zeros"}, "activity_regularizer": null, "data_format": "channels_last", "filters": 384}, "class_name": "Conv2D", "inbound_nodes": [[["activation_135", 0, 0, {}]]]}, {"name": "conv2d_91", "config": {"bias_regularizer": null, "padding": "same", "strides": [1, 1], "kernel_size": [1, 3], "kernel_initializer": {"config": {"seed": null, "dtype": "float32"}, "class_name": "GlorotUniform"}, "dilation_rate": [1, 1], "dtype": "float32", "activation": "linear", "name": "conv2d_91", "bias_constraint": null, "trainable": true, "kernel_constraint": null, "use_bias": false, "kernel_regularizer": null, "bias_initializer": {"config": {"dtype": "float32"}, "class_name": "Zeros"}, "activity_regularizer": null, "data_format": "channels_last", "filters": 384}, "class_name": "Conv2D", "inbound_nodes": [[["activation_139", 0, 0, {}]]]}, {"name": "conv2d_92", "config": {"bias_regularizer": null, "padding": "same", "strides": [1, 1], "kernel_size": [3, 1], "kernel_initializer": {"config": {"seed": null, "dtype": "float32"}, "class_name": "GlorotUniform"}, "dilation_rate": [1, 1], "dtype": "float32", "activation": "linear", "name": "conv2d_92", "bias_constraint": null, "trainable": true, "kernel_constraint": null, "use_bias": false, "kernel_regularizer": null, "bias_initializer": {"config": {"dtype": "float32"}, "class_name": "Zeros"}, "activity_regularizer": null, "data_format": "channels_last", "filters": 384}, "class_name": "Conv2D", "inbound_nodes": [[["activation_139", 0, 0, {}]]]}, {"name": "average_pooling2d_8", "config": {"trainable": true, "padding": "same", "name": "average_pooling2d_8", "strides": [1, 1], "data_format": "channels_last", "pool_size": [3, 3], "dtype": "float32"}, "class_name": "AveragePooling2D", "inbound_nodes": [[["mixed9", 0, 0, {}]]]}, {"name": "conv2d_85", "config": {"bias_regularizer": null, "padding": "same", "strides": [1, 1], "kernel_size": [1, 1], "kernel_initializer": {"config": {"seed": null, "dtype": "float32"}, "class_name": "GlorotUniform"}, "dilation_rate": [1, 1], "dtype": "float32", "activation": "linear", "name": "conv2d_85", "bias_constraint": null, "trainable": true, "kernel_constraint": null, "use_bias": false, "kernel_regularizer": null, "bias_initializer": {"config": {"dtype": "float32"}, "class_name": "Zeros"}, "activity_regularizer": null, "data_format": "channels_last", "filters": 320}, "class_name": "Conv2D", "inbound_nodes": [[["mixed9", 0, 0, {}]]]}, {"name": "batch_normalization_87", "config": {"gamma_regularizer": null, "gamma_initializer": {"config": {"dtype": "float32"}, "class_name": "Ones"}, "momentum": 0.99, "center": true, "axis": [3], "beta_regularizer": null, "dtype": "float32", "scale": false, "name": "batch_normalization_87", "trainable": true, "gamma_constraint": null, "beta_constraint": null, "beta_initializer": {"config": {"dtype": "float32"}, "class_name": "Zeros"}, "moving_variance_initializer": {"config": {"dtype": "float32"}, "class_name": "Ones"}, "epsilon": 0.001, "moving_mean_initializer": {"config": {"dtype": "float32"}, "class_name": "Zeros"}}, "class_name": "BatchNormalization", "inbound_nodes": [[["conv2d_87", 0, 0, {}]]]}, {"name": "batch_normalization_88", "config": {"gamma_regularizer": null, "gamma_initializer": {"config": {"dtype": "float32"}, "class_name": "Ones"}, "momentum": 0.99, "center": true, "axis": [3], "beta_regularizer": null, "dtype": "float32", "scale": false, "name": "batch_normalization_88", "trainable": true, "gamma_constraint": null, "beta_constraint": null, "beta_initializer": {"config": {"dtype": "float32"}, "class_name": "Zeros"}, "moving_variance_initializer": {"config": {"dtype": "float32"}, "class_name": "Ones"}, "epsilon": 0.001, "moving_mean_initializer": {"config": {"dtype": "float32"}, "class_name": "Zeros"}}, "class_name": "BatchNormalization", "inbound_nodes": [[["conv2d_88", 0, 0, {}]]]}, {"name": "batch_normalization_91", "config": {"gamma_regularizer": null, "gamma_initializer": {"config": {"dtype": "float32"}, "class_name": "Ones"}, "momentum": 0.99, "center": true, "axis": [3], "beta_regularizer": null, "dtype": "float32", "scale": false, "name": "batch_normalization_91", "trainable": true, "gamma_constraint": null, "beta_constraint": null, "beta_initializer": {"config": {"dtype": "float32"}, "class_name": "Zeros"}, "moving_variance_initializer": {"config": {"dtype": "float32"}, "class_name": "Ones"}, "epsilon": 0.001, "moving_mean_initializer": {"config": {"dtype": "float32"}, "class_name": "Zeros"}}, "class_name": "BatchNormalization", "inbound_nodes": [[["conv2d_91", 0, 0, {}]]]}, {"name": "batch_normalization_92", "config": {"gamma_regularizer": null, "gamma_initializer": {"config": {"dtype": "float32"}, "class_name": "Ones"}, "momentum": 0.99, "center": true, "axis": [3], "beta_regularizer": null, "dtype": "float32", "scale": false, "name": "batch_normalization_92", "trainable": true, "gamma_constraint": null, "beta_constraint": null, "beta_initializer": {"config": {"dtype": "float32"}, "class_name": "Zeros"}, "moving_variance_initializer": {"config": {"dtype": "float32"}, "class_name": "Ones"}, "epsilon": 0.001, "moving_mean_initializer": {"config": {"dtype": "float32"}, "class_name": "Zeros"}}, "class_name": "BatchNormalization", "inbound_nodes": [[["conv2d_92", 0, 0, {}]]]}, {"name": "conv2d_93", "config": {"bias_regularizer": null, "padding": "same", "strides": [1, 1], "kernel_size": [1, 1], "kernel_initializer": {"config": {"seed": null, "dtype": "float32"}, "class_name": "GlorotUniform"}, "dilation_rate": [1, 1], "dtype": "float32", "activation": "linear", "name": "conv2d_93", "bias_constraint": null, "trainable": true, "kernel_constraint": null, "use_bias": false, "kernel_regularizer": null, "bias_initializer": {"config": {"dtype": "float32"}, "class_name": "Zeros"}, "activity_regularizer": null, "data_format": "channels_last", "filters": 192}, "class_name": "Conv2D", "inbound_nodes": [[["average_pooling2d_8", 0, 0, {}]]]}, {"name": "batch_normalization_85", "config": {"gamma_regularizer": null, "gamma_initializer": {"config": {"dtype": "float32"}, "class_name": "Ones"}, "momentum": 0.99, "center": true, "axis": [3], "beta_regularizer": null, "dtype": "float32", "scale": false, "name": "batch_normalization_85", "trainable": true, "gamma_constraint": null, "beta_constraint": null, "beta_initializer": {"config": {"dtype": "float32"}, "class_name": "Zeros"}, "moving_variance_initializer": {"config": {"dtype": "float32"}, "class_name": "Ones"}, "epsilon": 0.001, "moving_mean_initializer": {"config": {"dtype": "float32"}, "class_name": "Zeros"}}, "class_name": "BatchNormalization", "inbound_nodes": [[["conv2d_85", 0, 0, {}]]]}, {"name": "activation_136", "config": {"name": "activation_136", "activation": "relu", "trainable": true, "dtype": "float32"}, "class_name": "Activation", "inbound_nodes": [[["batch_normalization_87", 0, 0, {}]]]}, {"name": "activation_137", "config": {"name": "activation_137", "activation": "relu", "trainable": true, "dtype": "float32"}, "class_name": "Activation", "inbound_nodes": [[["batch_normalization_88", 0, 0, {}]]]}, {"name": "activation_140", "config": {"name": "activation_140", "activation": "relu", "trainable": true, "dtype": "float32"}, "class_name": "Activation", "inbound_nodes": [[["batch_normalization_91", 0, 0, {}]]]}, {"name": "activation_141", "config": {"name": "activation_141", "activation": "relu", "trainable": true, "dtype": "float32"}, "class_name": "Activation", "inbound_nodes": [[["batch_normalization_92", 0, 0, {}]]]}, {"name": "batch_normalization_93", "config": {"gamma_regularizer": null, "gamma_initializer": {"config": {"dtype": "float32"}, "class_name": "Ones"}, "momentum": 0.99, "center": true, "axis": [3], "beta_regularizer": null, "dtype": "float32", "scale": false, "name": "batch_normalization_93", "trainable": true, "gamma_constraint": null, "beta_constraint": null, "beta_initializer": {"config": {"dtype": "float32"}, "class_name": "Zeros"}, "moving_variance_initializer": {"config": {"dtype": "float32"}, "class_name": "Ones"}, "epsilon": 0.001, "moving_mean_initializer": {"config": {"dtype": "float32"}, "class_name": "Zeros"}}, "class_name": "BatchNormalization", "inbound_nodes": [[["conv2d_93", 0, 0, {}]]]}, {"name": "activation_134", "config": {"name": "activation_134", "activation": "relu", "trainable": true, "dtype": "float32"}, "class_name": "Activation", "inbound_nodes": [[["batch_normalization_85", 0, 0, {}]]]}, {"name": "mixed9_1", "config": {"name": "mixed9_1", "axis": 3, "trainable": true, "dtype": "float32"}, "class_name": "Concatenate", "inbound_nodes": [[["activation_136", 0, 0, {}], ["activation_137", 0, 0, {}]]]}, {"name": "concatenate_1", "config": {"name": "concatenate_1", "axis": 3, "trainable": true, "dtype": "float32"}, "class_name": "Concatenate", "inbound_nodes": [[["activation_140", 0, 0, {}], ["activation_141", 0, 0, {}]]]}, {"name": "activation_142", "config": {"name": "activation_142", "activation": "relu", "trainable": true, "dtype": "float32"}, "class_name": "Activation", "inbound_nodes": [[["batch_normalization_93", 0, 0, {}]]]}, {"name": "mixed10", "config": {"name": "mixed10", "axis": 3, "trainable": true, "dtype": "float32"}, "class_name": "Concatenate", "inbound_nodes": [[["activation_134", 0, 0, {}], ["mixed9_1", 0, 0, {}], ["concatenate_1", 0, 0, {}], ["activation_142", 0, 0, {}]]]}, {"name": "avg_pool", "config": {"name": "avg_pool", "data_format": "channels_last", "trainable": true, "dtype": "float32"}, "class_name": "GlobalAveragePooling2D", "inbound_nodes": [[["mixed10", 0, 0, {}]]]}, {"name": "predictions", "config": {"bias_regularizer": null, "activation": "softmax", "dtype": "float32", "kernel_initializer": {"config": {"seed": null, "dtype": "float32"}, "class_name": "GlorotUniform"}, "name": "predictions", "bias_constraint": null, "trainable": true, "kernel_constraint": null, "units": 1000, "use_bias": true, "kernel_regularizer": null, "bias_initializer": {"config": {"dtype": "float32"}, "class_name": "Zeros"}, "activity_regularizer": null}, "class_name": "Dense", "inbound_nodes": [[["avg_pool", 0, 0, {}]]]}]}, "keras_version": "2.1.6-tf", "class_name": "Model", "backend": "tensorflow"}