{"class_name": "Model", "config": {"name": "inception_v3", "layers": [{"inbound_nodes": [], "class_name": "InputLayer", "config": {"sparse": false, "dtype": "float32", "name": "input_4", "batch_input_shape": [null, null, null, 3]}, "name": "input_4"}, {"inbound_nodes": [[["input_4", 0, 0, {}]]], "class_name": "Conv2D", "config": {"bias_regularizer": null, "bias_constraint": null, "trainable": true, "name": "conv2d", "dilation_rate": [1, 1], "use_bias": false, "filters": 32, "activity_regularizer": null, "activation": "linear", "padding": "valid", "kernel_constraint": null, "data_format": "channels_last", "kernel_initializer": {"class_name": "VarianceScaling", "config": {"seed": null, "distribution": "uniform", "dtype": "float32", "scale": 1.0, "mode": "fan_avg"}}, "kernel_size": [3, 3], "kernel_regularizer": null, "dtype": "float32", "strides": [2, 2], "bias_initializer": {"class_name": "Zeros", "config": {"dtype": "float32"}}}, "name": "conv2d"}, {"inbound_nodes": [[["conv2d", 0, 0, {}]]], "class_name": "BatchNormalization", "config": {"moving_mean_initializer": {"class_name": "Zeros", "config": {"dtype": "float32"}}, "trainable": true, "name": "batch_normalization", "beta_regularizer": null, "gamma_regularizer": null, "moving_variance_initializer": {"class_name": "Ones", "config": {"dtype": "float32"}}, "gamma_initializer": {"class_name": "Ones", "config": {"dtype": "float32"}}, "beta_initializer": {"class_name": "Zeros", "config": {"dtype": "float32"}}, "epsilon": 0.001, "axis": [3], "gamma_constraint": null, "dtype": "float32", "scale": false, "center": true, "momentum": 0.99, "beta_constraint": null}, "name": "batch_normalization"}, {"inbound_nodes": [[["batch_normalization", 0, 0, {}]]], "class_name": "Activation", "config": {"trainable": true, "name": "activation_49", "activation": "relu", "dtype": "float32"}, "name": "activation_49"}, {"inbound_nodes": [[["activation_49", 0, 0, {}]]], "class_name": "Conv2D", "config": {"bias_regularizer": null, "bias_constraint": null, "trainable": true, "name": "conv2d_1", "dilation_rate": [1, 1], "use_bias": false, "filters": 32, "activity_regularizer": null, "activation": "linear", "padding": "valid", "kernel_constraint": null, "data_format": "channels_last", "kernel_initializer": {"class_name": "VarianceScaling", "config": {"seed": null, "distribution": "uniform", "dtype": "float32", "scale": 1.0, "mode": "fan_avg"}}, "kernel_size": [3, 3], "kernel_regularizer": null, "dtype": "float32", "strides": [1, 1], "bias_initializer": {"class_name": "Zeros", "config": {"dtype": "float32"}}}, "name": "conv2d_1"}, {"inbound_nodes": [[["conv2d_1", 0, 0, {}]]], "class_name": "BatchNormalization", "config": {"moving_mean_initializer": {"class_name": "Zeros", "config": {"dtype": "float32"}}, "trainable": true, "name": "batch_normalization_1", "beta_regularizer": null, "gamma_regularizer": null, "moving_variance_initializer": {"class_name": "Ones", "config": {"dtype": "float32"}}, "gamma_initializer": {"class_name": "Ones", "config": {"dtype": "float32"}}, "beta_initializer": {"class_name": "Zeros", "config": {"dtype": "float32"}}, "epsilon": 0.001, "axis": [3], "gamma_constraint": null, "dtype": "float32", "scale": false, "center": true, "momentum": 0.99, "beta_constraint": null}, "name": "batch_normalization_1"}, {"inbound_nodes": [[["batch_normalization_1", 0, 0, {}]]], "class_name": "Activation", "config": {"trainable": true, "name": "activation_50", "activation": "relu", "dtype": "float32"}, "name": "activation_50"}, {"inbound_nodes": [[["activation_50", 0, 0, {}]]], "class_name": "Conv2D", "config": {"bias_regularizer": null, "bias_constraint": null, "trainable": true, "name": "conv2d_2", "dilation_rate": [1, 1], "use_bias": false, "filters": 64, "activity_regularizer": null, "activation": "linear", "padding": "same", "kernel_constraint": null, "data_format": "channels_last", "kernel_initializer": {"class_name": "VarianceScaling", "config": {"seed": null, "distribution": "uniform", "dtype": "float32", "scale": 1.0, "mode": "fan_avg"}}, "kernel_size": [3, 3], "kernel_regularizer": null, "dtype": "float32", "strides": [1, 1], "bias_initializer": {"class_name": "Zeros", "config": {"dtype": "float32"}}}, "name": "conv2d_2"}, {"inbound_nodes": [[["conv2d_2", 0, 0, {}]]], "class_name": "BatchNormalization", "config": {"moving_mean_initializer": {"class_name": "Zeros", "config": {"dtype": "float32"}}, "trainable": true, "name": "batch_normalization_2", "beta_regularizer": null, "gamma_regularizer": null, "moving_variance_initializer": {"class_name": "Ones", "config": {"dtype": "float32"}}, "gamma_initializer": {"class_name": "Ones", "config": {"dtype": "float32"}}, "beta_initializer": {"class_name": "Zeros", "config": {"dtype": "float32"}}, "epsilon": 0.001, "axis": [3], "gamma_constraint": null, "dtype": "float32", "scale": false, "center": true, "momentum": 0.99, "beta_constraint": null}, "name": "batch_normalization_2"}, {"inbound_nodes": [[["batch_normalization_2", 0, 0, {}]]], "class_name": "Activation", "config": {"trainable": true, "name": "activation_51", "activation": "relu", "dtype": "float32"}, "name": "activation_51"}, {"inbound_nodes": [[["activation_51", 0, 0, {}]]], "class_name": "MaxPooling2D", "config": {"trainable": true, "name": "max_pooling2d_1", "pool_size": [3, 3], "data_format": "channels_last", "strides": [2, 2], "dtype": "float32", "padding": "valid"}, "name": "max_pooling2d_1"}, {"inbound_nodes": [[["max_pooling2d_1", 0, 0, {}]]], "class_name": "Conv2D", "config": {"bias_regularizer": null, "bias_constraint": null, "trainable": true, "name": "conv2d_3", "dilation_rate": [1, 1], "use_bias": false, "filters": 80, "activity_regularizer": null, "activation": "linear", "padding": "valid", "kernel_constraint": null, "data_format": "channels_last", "kernel_initializer": {"class_name": "VarianceScaling", "config": {"seed": null, "distribution": "uniform", "dtype": "float32", "scale": 1.0, "mode": "fan_avg"}}, "kernel_size": [1, 1], "kernel_regularizer": null, "dtype": "float32", "strides": [1, 1], "bias_initializer": {"class_name": "Zeros", "config": {"dtype": "float32"}}}, "name": "conv2d_3"}, {"inbound_nodes": [[["conv2d_3", 0, 0, {}]]], "class_name": "BatchNormalization", "config": {"moving_mean_initializer": {"class_name": "Zeros", "config": {"dtype": "float32"}}, "trainable": true, "name": "batch_normalization_3", "beta_regularizer": null, "gamma_regularizer": null, "moving_variance_initializer": {"class_name": "Ones", "config": {"dtype": "float32"}}, "gamma_initializer": {"class_name": "Ones", "config": {"dtype": "float32"}}, "beta_initializer": {"class_name": "Zeros", "config": {"dtype": "float32"}}, "epsilon": 0.001, "axis": [3], "gamma_constraint": null, "dtype": "float32", "scale": false, "center": true, "momentum": 0.99, "beta_constraint": null}, "name": "batch_normalization_3"}, {"inbound_nodes": [[["batch_normalization_3", 0, 0, {}]]], "class_name": "Activation", "config": {"trainable": true, "name": "activation_52", "activation": "relu", "dtype": "float32"}, "name": "activation_52"}, {"inbound_nodes": [[["activation_52", 0, 0, {}]]], "class_name": "Conv2D", "config": {"bias_regularizer": null, "bias_constraint": null, "trainable": true, "name": "conv2d_4", "dilation_rate": [1, 1], "use_bias": false, "filters": 192, "activity_regularizer": null, "activation": "linear", "padding": "valid", "kernel_constraint": null, "data_format": "channels_last", "kernel_initializer": {"class_name": "VarianceScaling", "config": {"seed": null, "distribution": "uniform", "dtype": "float32", "scale": 1.0, "mode": "fan_avg"}}, "kernel_size": [3, 3], "kernel_regularizer": null, "dtype": "float32", "strides": [1, 1], "bias_initializer": {"class_name": "Zeros", "config": {"dtype": "float32"}}}, "name": "conv2d_4"}, {"inbound_nodes": [[["conv2d_4", 0, 0, {}]]], "class_name": "BatchNormalization", "config": {"moving_mean_initializer": {"class_name": "Zeros", "config": {"dtype": "float32"}}, "trainable": true, "name": "batch_normalization_4", "beta_regularizer": null, "gamma_regularizer": null, "moving_variance_initializer": {"class_name": "Ones", "config": {"dtype": "float32"}}, "gamma_initializer": {"class_name": "Ones", "config": {"dtype": "float32"}}, "beta_initializer": {"class_name": "Zeros", "config": {"dtype": "float32"}}, "epsilon": 0.001, "axis": [3], "gamma_constraint": null, "dtype": "float32", "scale": false, "center": true, "momentum": 0.99, "beta_constraint": null}, "name": "batch_normalization_4"}, {"inbound_nodes": [[["batch_normalization_4", 0, 0, {}]]], "class_name": "Activation", "config": {"trainable": true, "name": "activation_53", "activation": "relu", "dtype": "float32"}, "name": "activation_53"}, {"inbound_nodes": [[["activation_53", 0, 0, {}]]], "class_name": "MaxPooling2D", "config": {"trainable": true, "name": "max_pooling2d_2", "pool_size": [3, 3], "data_format": "channels_last", "strides": [2, 2], "dtype": "float32", "padding": "valid"}, "name": "max_pooling2d_2"}, {"inbound_nodes": [[["max_pooling2d_2", 0, 0, {}]]], "class_name": "Conv2D", "config": {"bias_regularizer": null, "bias_constraint": null, "trainable": true, "name": "conv2d_8", "dilation_rate": [1, 1], "use_bias": false, "filters": 64, "activity_regularizer": null, "activation": "linear", "padding": "same", "kernel_constraint": null, "data_format": "channels_last", "kernel_initializer": {"class_name": "VarianceScaling", "config": {"seed": null, "distribution": "uniform", "dtype": "float32", "scale": 1.0, "mode": "fan_avg"}}, "kernel_size": [1, 1], "kernel_regularizer": null, "dtype": "float32", "strides": [1, 1], "bias_initializer": {"class_name": "Zeros", "config": {"dtype": "float32"}}}, "name": "conv2d_8"}, {"inbound_nodes": [[["conv2d_8", 0, 0, {}]]], "class_name": "BatchNormalization", "config": {"moving_mean_initializer": {"class_name": "Zeros", "config": {"dtype": "float32"}}, "trainable": true, "name": "batch_normalization_8", "beta_regularizer": null, "gamma_regularizer": null, "moving_variance_initializer": {"class_name": "Ones", "config": {"dtype": "float32"}}, "gamma_initializer": {"class_name": "Ones", "config": {"dtype": "float32"}}, "beta_initializer": {"class_name": "Zeros", "config": {"dtype": "float32"}}, "epsilon": 0.001, "axis": [3], "gamma_constraint": null, "dtype": "float32", "scale": false, "center": true, "momentum": 0.99, "beta_constraint": null}, "name": "batch_normalization_8"}, {"inbound_nodes": [[["batch_normalization_8", 0, 0, {}]]], "class_name": "Activation", "config": {"trainable": true, "name": "activation_57", "activation": "relu", "dtype": "float32"}, "name": "activation_57"}, {"inbound_nodes": [[["max_pooling2d_2", 0, 0, {}]]], "class_name": "Conv2D", "config": {"bias_regularizer": null, "bias_constraint": null, "trainable": true, "name": "conv2d_6", "dilation_rate": [1, 1], "use_bias": false, "filters": 48, "activity_regularizer": null, "activation": "linear", "padding": "same", "kernel_constraint": null, "data_format": "channels_last", "kernel_initializer": {"class_name": "VarianceScaling", "config": {"seed": null, "distribution": "uniform", "dtype": "float32", "scale": 1.0, "mode": "fan_avg"}}, "kernel_size": [1, 1], "kernel_regularizer": null, "dtype": "float32", "strides": [1, 1], "bias_initializer": {"class_name": "Zeros", "config": {"dtype": "float32"}}}, "name": "conv2d_6"}, {"inbound_nodes": [[["activation_57", 0, 0, {}]]], "class_name": "Conv2D", "config": {"bias_regularizer": null, "bias_constraint": null, "trainable": true, "name": "conv2d_9", "dilation_rate": [1, 1], "use_bias": false, "filters": 96, "activity_regularizer": null, "activation": "linear", "padding": "same", "kernel_constraint": null, "data_format": "channels_last", "kernel_initializer": {"class_name": "VarianceScaling", "config": {"seed": null, "distribution": "uniform", "dtype": "float32", "scale": 1.0, "mode": "fan_avg"}}, "kernel_size": [3, 3], "kernel_regularizer": null, "dtype": "float32", "strides": [1, 1], "bias_initializer": {"class_name": "Zeros", "config": {"dtype": "float32"}}}, "name": "conv2d_9"}, {"inbound_nodes": [[["conv2d_6", 0, 0, {}]]], "class_name": "BatchNormalization", "config": {"moving_mean_initializer": {"class_name": "Zeros", "config": {"dtype": "float32"}}, "trainable": true, "name": "batch_normalization_6", "beta_regularizer": null, "gamma_regularizer": null, "moving_variance_initializer": {"class_name": "Ones", "config": {"dtype": "float32"}}, "gamma_initializer": {"class_name": "Ones", "config": {"dtype": "float32"}}, "beta_initializer": {"class_name": "Zeros", "config": {"dtype": "float32"}}, "epsilon": 0.001, "axis": [3], "gamma_constraint": null, "dtype": "float32", "scale": false, "center": true, "momentum": 0.99, "beta_constraint": null}, "name": "batch_normalization_6"}, {"inbound_nodes": [[["conv2d_9", 0, 0, {}]]], "class_name": "BatchNormalization", "config": {"moving_mean_initializer": {"class_name": "Zeros", "config": {"dtype": "float32"}}, "trainable": true, "name": "batch_normalization_9", "beta_regularizer": null, "gamma_regularizer": null, "moving_variance_initializer": {"class_name": "Ones", "config": {"dtype": "float32"}}, "gamma_initializer": {"class_name": "Ones", "config": {"dtype": "float32"}}, "beta_initializer": {"class_name": "Zeros", "config": {"dtype": "float32"}}, "epsilon": 0.001, "axis": [3], "gamma_constraint": null, "dtype": "float32", "scale": false, "center": true, "momentum": 0.99, "beta_constraint": null}, "name": "batch_normalization_9"}, {"inbound_nodes": [[["batch_normalization_6", 0, 0, {}]]], "class_name": "Activation", "config": {"trainable": true, "name": "activation_55", "activation": "relu", "dtype": "float32"}, "name": "activation_55"}, {"inbound_nodes": [[["batch_normalization_9", 0, 0, {}]]], "class_name": "Activation", "config": {"trainable": true, "name": "activation_58", "activation": "relu", "dtype": "float32"}, "name": "activation_58"}, {"inbound_nodes": [[["max_pooling2d_2", 0, 0, {}]]], "class_name": "AveragePooling2D", "config": {"trainable": true, "name": "average_pooling2d", "pool_size": [3, 3], "data_format": "channels_last", "strides": [1, 1], "dtype": "float32", "padding": "same"}, "name": "average_pooling2d"}, {"inbound_nodes": [[["max_pooling2d_2", 0, 0, {}]]], "class_name": "Conv2D", "config": {"bias_regularizer": null, "bias_constraint": null, "trainable": true, "name": "conv2d_5", "dilation_rate": [1, 1], "use_bias": false, "filters": 64, "activity_regularizer": null, "activation": "linear", "padding": "same", "kernel_constraint": null, "data_format": "channels_last", "kernel_initializer": {"class_name": "VarianceScaling", "config": {"seed": null, "distribution": "uniform", "dtype": "float32", "scale": 1.0, "mode": "fan_avg"}}, "kernel_size": [1, 1], "kernel_regularizer": null, "dtype": "float32", "strides": [1, 1], "bias_initializer": {"class_name": "Zeros", "config": {"dtype": "float32"}}}, "name": "conv2d_5"}, {"inbound_nodes": [[["activation_55", 0, 0, {}]]], "class_name": "Conv2D", "config": {"bias_regularizer": null, "bias_constraint": null, "trainable": true, "name": "conv2d_7", "dilation_rate": [1, 1], "use_bias": false, "filters": 64, "activity_regularizer": null, "activation": "linear", "padding": "same", "kernel_constraint": null, "data_format": "channels_last", "kernel_initializer": {"class_name": "VarianceScaling", "config": {"seed": null, "distribution": "uniform", "dtype": "float32", "scale": 1.0, "mode": "fan_avg"}}, "kernel_size": [5, 5], "kernel_regularizer": null, "dtype": "float32", "strides": [1, 1], "bias_initializer": {"class_name": "Zeros", "config": {"dtype": "float32"}}}, "name": "conv2d_7"}, {"inbound_nodes": [[["activation_58", 0, 0, {}]]], "class_name": "Conv2D", "config": {"bias_regularizer": null, "bias_constraint": null, "trainable": true, "name": "conv2d_10", "dilation_rate": [1, 1], "use_bias": false, "filters": 96, "activity_regularizer": null, "activation": "linear", "padding": "same", "kernel_constraint": null, "data_format": "channels_last", "kernel_initializer": {"class_name": "VarianceScaling", "config": {"seed": null, "distribution": "uniform", "dtype": "float32", "scale": 1.0, "mode": "fan_avg"}}, "kernel_size": [3, 3], "kernel_regularizer": null, "dtype": "float32", "strides": [1, 1], "bias_initializer": {"class_name": "Zeros", "config": {"dtype": "float32"}}}, "name": "conv2d_10"}, {"inbound_nodes": [[["average_pooling2d", 0, 0, {}]]], "class_name": "Conv2D", "config": {"bias_regularizer": null, "bias_constraint": null, "trainable": true, "name": "conv2d_11", "dilation_rate": [1, 1], "use_bias": false, "filters": 32, "activity_regularizer": null, "activation": "linear", "padding": "same", "kernel_constraint": null, "data_format": "channels_last", "kernel_initializer": {"class_name": "VarianceScaling", "config": {"seed": null, "distribution": "uniform", "dtype": "float32", "scale": 1.0, "mode": "fan_avg"}}, "kernel_size": [1, 1], "kernel_regularizer": null, "dtype": "float32", "strides": [1, 1], "bias_initializer": {"class_name": "Zeros", "config": {"dtype": "float32"}}}, "name": "conv2d_11"}, {"inbound_nodes": [[["conv2d_5", 0, 0, {}]]], "class_name": "BatchNormalization", "config": {"moving_mean_initializer": {"class_name": "Zeros", "config": {"dtype": "float32"}}, "trainable": true, "name": "batch_normalization_5", "beta_regularizer": null, "gamma_regularizer": null, "moving_variance_initializer": {"class_name": "Ones", "config": {"dtype": "float32"}}, "gamma_initializer": {"class_name": "Ones", "config": {"dtype": "float32"}}, "beta_initializer": {"class_name": "Zeros", "config": {"dtype": "float32"}}, "epsilon": 0.001, "axis": [3], "gamma_constraint": null, "dtype": "float32", "scale": false, "center": true, "momentum": 0.99, "beta_constraint": null}, "name": "batch_normalization_5"}, {"inbound_nodes": [[["conv2d_7", 0, 0, {}]]], "class_name": "BatchNormalization", "config": {"moving_mean_initializer": {"class_name": "Zeros", "config": {"dtype": "float32"}}, "trainable": true, "name": "batch_normalization_7", "beta_regularizer": null, "gamma_regularizer": null, "moving_variance_initializer": {"class_name": "Ones", "config": {"dtype": "float32"}}, "gamma_initializer": {"class_name": "Ones", "config": {"dtype": "float32"}}, "beta_initializer": {"class_name": "Zeros", "config": {"dtype": "float32"}}, "epsilon": 0.001, "axis": [3], "gamma_constraint": null, "dtype": "float32", "scale": false, "center": true, "momentum": 0.99, "beta_constraint": null}, "name": "batch_normalization_7"}, {"inbound_nodes": [[["conv2d_10", 0, 0, {}]]], "class_name": "BatchNormalization", "config": {"moving_mean_initializer": {"class_name": "Zeros", "config": {"dtype": "float32"}}, "trainable": true, "name": "batch_normalization_10", "beta_regularizer": null, "gamma_regularizer": null, "moving_variance_initializer": {"class_name": "Ones", "config": {"dtype": "float32"}}, "gamma_initializer": {"class_name": "Ones", "config": {"dtype": "float32"}}, "beta_initializer": {"class_name": "Zeros", "config": {"dtype": "float32"}}, "epsilon": 0.001, "axis": [3], "gamma_constraint": null, "dtype": "float32", "scale": false, "center": true, "momentum": 0.99, "beta_constraint": null}, "name": "batch_normalization_10"}, {"inbound_nodes": [[["conv2d_11", 0, 0, {}]]], "class_name": "BatchNormalization", "config": {"moving_mean_initializer": {"class_name": "Zeros", "config": {"dtype": "float32"}}, "trainable": true, "name": "batch_normalization_11", "beta_regularizer": null, "gamma_regularizer": null, "moving_variance_initializer": {"class_name": "Ones", "config": {"dtype": "float32"}}, "gamma_initializer": {"class_name": "Ones", "config": {"dtype": "float32"}}, "beta_initializer": {"class_name": "Zeros", "config": {"dtype": "float32"}}, "epsilon": 0.001, "axis": [3], "gamma_constraint": null, "dtype": "float32", "scale": false, "center": true, "momentum": 0.99, "beta_constraint": null}, "name": "batch_normalization_11"}, {"inbound_nodes": [[["batch_normalization_5", 0, 0, {}]]], "class_name": "Activation", "config": {"trainable": true, "name": "activation_54", "activation": "relu", "dtype": "float32"}, "name": "activation_54"}, {"inbound_nodes": [[["batch_normalization_7", 0, 0, {}]]], "class_name": "Activation", "config": {"trainable": true, "name": "activation_56", "activation": "relu", "dtype": "float32"}, "name": "activation_56"}, {"inbound_nodes": [[["batch_normalization_10", 0, 0, {}]]], "class_name": "Activation", "config": {"trainable": true, "name": "activation_59", "activation": "relu", "dtype": "float32"}, "name": "activation_59"}, {"inbound_nodes": [[["batch_normalization_11", 0, 0, {}]]], "class_name": "Activation", "config": {"trainable": true, "name": "activation_60", "activation": "relu", "dtype": "float32"}, "name": "activation_60"}, {"inbound_nodes": [[["activation_54", 0, 0, {}], ["activation_56", 0, 0, {}], ["activation_59", 0, 0, {}], ["activation_60", 0, 0, {}]]], "class_name": "Concatenate", "config": {"trainable": true, "name": "mixed0", "axis": 3, "dtype": "float32"}, "name": "mixed0"}, {"inbound_nodes": [[["mixed0", 0, 0, {}]]], "class_name": "Conv2D", "config": {"bias_regularizer": null, "bias_constraint": null, "trainable": true, "name": "conv2d_15", "dilation_rate": [1, 1], "use_bias": false, "filters": 64, "activity_regularizer": null, "activation": "linear", "padding": "same", "kernel_constraint": null, "data_format": "channels_last", "kernel_initializer": {"class_name": "VarianceScaling", "config": {"seed": null, "distribution": "uniform", "dtype": "float32", "scale": 1.0, "mode": "fan_avg"}}, "kernel_size": [1, 1], "kernel_regularizer": null, "dtype": "float32", "strides": [1, 1], "bias_initializer": {"class_name": "Zeros", "config": {"dtype": "float32"}}}, "name": "conv2d_15"}, {"inbound_nodes": [[["conv2d_15", 0, 0, {}]]], "class_name": "BatchNormalization", "config": {"moving_mean_initializer": {"class_name": "Zeros", "config": {"dtype": "float32"}}, "trainable": true, "name": "batch_normalization_15", "beta_regularizer": null, "gamma_regularizer": null, "moving_variance_initializer": {"class_name": "Ones", "config": {"dtype": "float32"}}, "gamma_initializer": {"class_name": "Ones", "config": {"dtype": "float32"}}, "beta_initializer": {"class_name": "Zeros", "config": {"dtype": "float32"}}, "epsilon": 0.001, "axis": [3], "gamma_constraint": null, "dtype": "float32", "scale": false, "center": true, "momentum": 0.99, "beta_constraint": null}, "name": "batch_normalization_15"}, {"inbound_nodes": [[["batch_normalization_15", 0, 0, {}]]], "class_name": "Activation", "config": {"trainable": true, "name": "activation_64", "activation": "relu", "dtype": "float32"}, "name": "activation_64"}, {"inbound_nodes": [[["mixed0", 0, 0, {}]]], "class_name": "Conv2D", "config": {"bias_regularizer": null, "bias_constraint": null, "trainable": true, "name": "conv2d_13", "dilation_rate": [1, 1], "use_bias": false, "filters": 48, "activity_regularizer": null, "activation": "linear", "padding": "same", "kernel_constraint": null, "data_format": "channels_last", "kernel_initializer": {"class_name": "VarianceScaling", "config": {"seed": null, "distribution": "uniform", "dtype": "float32", "scale": 1.0, "mode": "fan_avg"}}, "kernel_size": [1, 1], "kernel_regularizer": null, "dtype": "float32", "strides": [1, 1], "bias_initializer": {"class_name": "Zeros", "config": {"dtype": "float32"}}}, "name": "conv2d_13"}, {"inbound_nodes": [[["activation_64", 0, 0, {}]]], "class_name": "Conv2D", "config": {"bias_regularizer": null, "bias_constraint": null, "trainable": true, "name": "conv2d_16", "dilation_rate": [1, 1], "use_bias": false, "filters": 96, "activity_regularizer": null, "activation": "linear", "padding": "same", "kernel_constraint": null, "data_format": "channels_last", "kernel_initializer": {"class_name": "VarianceScaling", "config": {"seed": null, "distribution": "uniform", "dtype": "float32", "scale": 1.0, "mode": "fan_avg"}}, "kernel_size": [3, 3], "kernel_regularizer": null, "dtype": "float32", "strides": [1, 1], "bias_initializer": {"class_name": "Zeros", "config": {"dtype": "float32"}}}, "name": "conv2d_16"}, {"inbound_nodes": [[["conv2d_13", 0, 0, {}]]], "class_name": "BatchNormalization", "config": {"moving_mean_initializer": {"class_name": "Zeros", "config": {"dtype": "float32"}}, "trainable": true, "name": "batch_normalization_13", "beta_regularizer": null, "gamma_regularizer": null, "moving_variance_initializer": {"class_name": "Ones", "config": {"dtype": "float32"}}, "gamma_initializer": {"class_name": "Ones", "config": {"dtype": "float32"}}, "beta_initializer": {"class_name": "Zeros", "config": {"dtype": "float32"}}, "epsilon": 0.001, "axis": [3], "gamma_constraint": null, "dtype": "float32", "scale": false, "center": true, "momentum": 0.99, "beta_constraint": null}, "name": "batch_normalization_13"}, {"inbound_nodes": [[["conv2d_16", 0, 0, {}]]], "class_name": "BatchNormalization", "config": {"moving_mean_initializer": {"class_name": "Zeros", "config": {"dtype": "float32"}}, "trainable": true, "name": "batch_normalization_16", "beta_regularizer": null, "gamma_regularizer": null, "moving_variance_initializer": {"class_name": "Ones", "config": {"dtype": "float32"}}, "gamma_initializer": {"class_name": "Ones", "config": {"dtype": "float32"}}, "beta_initializer": {"class_name": "Zeros", "config": {"dtype": "float32"}}, "epsilon": 0.001, "axis": [3], "gamma_constraint": null, "dtype": "float32", "scale": false, "center": true, "momentum": 0.99, "beta_constraint": null}, "name": "batch_normalization_16"}, {"inbound_nodes": [[["batch_normalization_13", 0, 0, {}]]], "class_name": "Activation", "config": {"trainable": true, "name": "activation_62", "activation": "relu", "dtype": "float32"}, "name": "activation_62"}, {"inbound_nodes": [[["batch_normalization_16", 0, 0, {}]]], "class_name": "Activation", "config": {"trainable": true, "name": "activation_65", "activation": "relu", "dtype": "float32"}, "name": "activation_65"}, {"inbound_nodes": [[["mixed0", 0, 0, {}]]], "class_name": "AveragePooling2D", "config": {"trainable": true, "name": "average_pooling2d_1", "pool_size": [3, 3], "data_format": "channels_last", "strides": [1, 1], "dtype": "float32", "padding": "same"}, "name": "average_pooling2d_1"}, {"inbound_nodes": [[["mixed0", 0, 0, {}]]], "class_name": "Conv2D", "config": {"bias_regularizer": null, "bias_constraint": null, "trainable": true, "name": "conv2d_12", "dilation_rate": [1, 1], "use_bias": false, "filters": 64, "activity_regularizer": null, "activation": "linear", "padding": "same", "kernel_constraint": null, "data_format": "channels_last", "kernel_initializer": {"class_name": "VarianceScaling", "config": {"seed": null, "distribution": "uniform", "dtype": "float32", "scale": 1.0, "mode": "fan_avg"}}, "kernel_size": [1, 1], "kernel_regularizer": null, "dtype": "float32", "strides": [1, 1], "bias_initializer": {"class_name": "Zeros", "config": {"dtype": "float32"}}}, "name": "conv2d_12"}, {"inbound_nodes": [[["activation_62", 0, 0, {}]]], "class_name": "Conv2D", "config": {"bias_regularizer": null, "bias_constraint": null, "trainable": true, "name": "conv2d_14", "dilation_rate": [1, 1], "use_bias": false, "filters": 64, "activity_regularizer": null, "activation": "linear", "padding": "same", "kernel_constraint": null, "data_format": "channels_last", "kernel_initializer": {"class_name": "VarianceScaling", "config": {"seed": null, "distribution": "uniform", "dtype": "float32", "scale": 1.0, "mode": "fan_avg"}}, "kernel_size": [5, 5], "kernel_regularizer": null, "dtype": "float32", "strides": [1, 1], "bias_initializer": {"class_name": "Zeros", "config": {"dtype": "float32"}}}, "name": "conv2d_14"}, {"inbound_nodes": [[["activation_65", 0, 0, {}]]], "class_name": "Conv2D", "config": {"bias_regularizer": null, "bias_constraint": null, "trainable": true, "name": "conv2d_17", "dilation_rate": [1, 1], "use_bias": false, "filters": 96, "activity_regularizer": null, "activation": "linear", "padding": "same", "kernel_constraint": null, "data_format": "channels_last", "kernel_initializer": {"class_name": "VarianceScaling", "config": {"seed": null, "distribution": "uniform", "dtype": "float32", "scale": 1.0, "mode": "fan_avg"}}, "kernel_size": [3, 3], "kernel_regularizer": null, "dtype": "float32", "strides": [1, 1], "bias_initializer": {"class_name": "Zeros", "config": {"dtype": "float32"}}}, "name": "conv2d_17"}, {"inbound_nodes": [[["average_pooling2d_1", 0, 0, {}]]], "class_name": "Conv2D", "config": {"bias_regularizer": null, "bias_constraint": null, "trainable": true, "name": "conv2d_18", "dilation_rate": [1, 1], "use_bias": false, "filters": 64, "activity_regularizer": null, "activation": "linear", "padding": "same", "kernel_constraint": null, "data_format": "channels_last", "kernel_initializer": {"class_name": "VarianceScaling", "config": {"seed": null, "distribution": "uniform", "dtype": "float32", "scale": 1.0, "mode": "fan_avg"}}, "kernel_size": [1, 1], "kernel_regularizer": null, "dtype": "float32", "strides": [1, 1], "bias_initializer": {"class_name": "Zeros", "config": {"dtype": "float32"}}}, "name": "conv2d_18"}, {"inbound_nodes": [[["conv2d_12", 0, 0, {}]]], "class_name": "BatchNormalization", "config": {"moving_mean_initializer": {"class_name": "Zeros", "config": {"dtype": "float32"}}, "trainable": true, "name": "batch_normalization_12", "beta_regularizer": null, "gamma_regularizer": null, "moving_variance_initializer": {"class_name": "Ones", "config": {"dtype": "float32"}}, "gamma_initializer": {"class_name": "Ones", "config": {"dtype": "float32"}}, "beta_initializer": {"class_name": "Zeros", "config": {"dtype": "float32"}}, "epsilon": 0.001, "axis": [3], "gamma_constraint": null, "dtype": "float32", "scale": false, "center": true, "momentum": 0.99, "beta_constraint": null}, "name": "batch_normalization_12"}, {"inbound_nodes": [[["conv2d_14", 0, 0, {}]]], "class_name": "BatchNormalization", "config": {"moving_mean_initializer": {"class_name": "Zeros", "config": {"dtype": "float32"}}, "trainable": true, "name": "batch_normalization_14", "beta_regularizer": null, "gamma_regularizer": null, "moving_variance_initializer": {"class_name": "Ones", "config": {"dtype": "float32"}}, "gamma_initializer": {"class_name": "Ones", "config": {"dtype": "float32"}}, "beta_initializer": {"class_name": "Zeros", "config": {"dtype": "float32"}}, "epsilon": 0.001, "axis": [3], "gamma_constraint": null, "dtype": "float32", "scale": false, "center": true, "momentum": 0.99, "beta_constraint": null}, "name": "batch_normalization_14"}, {"inbound_nodes": [[["conv2d_17", 0, 0, {}]]], "class_name": "BatchNormalization", "config": {"moving_mean_initializer": {"class_name": "Zeros", "config": {"dtype": "float32"}}, "trainable": true, "name": "batch_normalization_17", "beta_regularizer": null, "gamma_regularizer": null, "moving_variance_initializer": {"class_name": "Ones", "config": {"dtype": "float32"}}, "gamma_initializer": {"class_name": "Ones", "config": {"dtype": "float32"}}, "beta_initializer": {"class_name": "Zeros", "config": {"dtype": "float32"}}, "epsilon": 0.001, "axis": [3], "gamma_constraint": null, "dtype": "float32", "scale": false, "center": true, "momentum": 0.99, "beta_constraint": null}, "name": "batch_normalization_17"}, {"inbound_nodes": [[["conv2d_18", 0, 0, {}]]], "class_name": "BatchNormalization", "config": {"moving_mean_initializer": {"class_name": "Zeros", "config": {"dtype": "float32"}}, "trainable": true, "name": "batch_normalization_18", "beta_regularizer": null, "gamma_regularizer": null, "moving_variance_initializer": {"class_name": "Ones", "config": {"dtype": "float32"}}, "gamma_initializer": {"class_name": "Ones", "config": {"dtype": "float32"}}, "beta_initializer": {"class_name": "Zeros", "config": {"dtype": "float32"}}, "epsilon": 0.001, "axis": [3], "gamma_constraint": null, "dtype": "float32", "scale": false, "center": true, "momentum": 0.99, "beta_constraint": null}, "name": "batch_normalization_18"}, {"inbound_nodes": [[["batch_normalization_12", 0, 0, {}]]], "class_name": "Activation", "config": {"trainable": true, "name": "activation_61", "activation": "relu", "dtype": "float32"}, "name": "activation_61"}, {"inbound_nodes": [[["batch_normalization_14", 0, 0, {}]]], "class_name": "Activation", "config": {"trainable": true, "name": "activation_63", "activation": "relu", "dtype": "float32"}, "name": "activation_63"}, {"inbound_nodes": [[["batch_normalization_17", 0, 0, {}]]], "class_name": "Activation", "config": {"trainable": true, "name": "activation_66", "activation": "relu", "dtype": "float32"}, "name": "activation_66"}, {"inbound_nodes": [[["batch_normalization_18", 0, 0, {}]]], "class_name": "Activation", "config": {"trainable": true, "name": "activation_67", "activation": "relu", "dtype": "float32"}, "name": "activation_67"}, {"inbound_nodes": [[["activation_61", 0, 0, {}], ["activation_63", 0, 0, {}], ["activation_66", 0, 0, {}], ["activation_67", 0, 0, {}]]], "class_name": "Concatenate", "config": {"trainable": true, "name": "mixed1", "axis": 3, "dtype": "float32"}, "name": "mixed1"}, {"inbound_nodes": [[["mixed1", 0, 0, {}]]], "class_name": "Conv2D", "config": {"bias_regularizer": null, "bias_constraint": null, "trainable": true, "name": "conv2d_22", "dilation_rate": [1, 1], "use_bias": false, "filters": 64, "activity_regularizer": null, "activation": "linear", "padding": "same", "kernel_constraint": null, "data_format": "channels_last", "kernel_initializer": {"class_name": "VarianceScaling", "config": {"seed": null, "distribution": "uniform", "dtype": "float32", "scale": 1.0, "mode": "fan_avg"}}, "kernel_size": [1, 1], "kernel_regularizer": null, "dtype": "float32", "strides": [1, 1], "bias_initializer": {"class_name": "Zeros", "config": {"dtype": "float32"}}}, "name": "conv2d_22"}, {"inbound_nodes": [[["conv2d_22", 0, 0, {}]]], "class_name": "BatchNormalization", "config": {"moving_mean_initializer": {"class_name": "Zeros", "config": {"dtype": "float32"}}, "trainable": true, "name": "batch_normalization_22", "beta_regularizer": null, "gamma_regularizer": null, "moving_variance_initializer": {"class_name": "Ones", "config": {"dtype": "float32"}}, "gamma_initializer": {"class_name": "Ones", "config": {"dtype": "float32"}}, "beta_initializer": {"class_name": "Zeros", "config": {"dtype": "float32"}}, "epsilon": 0.001, "axis": [3], "gamma_constraint": null, "dtype": "float32", "scale": false, "center": true, "momentum": 0.99, "beta_constraint": null}, "name": "batch_normalization_22"}, {"inbound_nodes": [[["batch_normalization_22", 0, 0, {}]]], "class_name": "Activation", "config": {"trainable": true, "name": "activation_71", "activation": "relu", "dtype": "float32"}, "name": "activation_71"}, {"inbound_nodes": [[["mixed1", 0, 0, {}]]], "class_name": "Conv2D", "config": {"bias_regularizer": null, "bias_constraint": null, "trainable": true, "name": "conv2d_20", "dilation_rate": [1, 1], "use_bias": false, "filters": 48, "activity_regularizer": null, "activation": "linear", "padding": "same", "kernel_constraint": null, "data_format": "channels_last", "kernel_initializer": {"class_name": "VarianceScaling", "config": {"seed": null, "distribution": "uniform", "dtype": "float32", "scale": 1.0, "mode": "fan_avg"}}, "kernel_size": [1, 1], "kernel_regularizer": null, "dtype": "float32", "strides": [1, 1], "bias_initializer": {"class_name": "Zeros", "config": {"dtype": "float32"}}}, "name": "conv2d_20"}, {"inbound_nodes": [[["activation_71", 0, 0, {}]]], "class_name": "Conv2D", "config": {"bias_regularizer": null, "bias_constraint": null, "trainable": true, "name": "conv2d_23", "dilation_rate": [1, 1], "use_bias": false, "filters": 96, "activity_regularizer": null, "activation": "linear", "padding": "same", "kernel_constraint": null, "data_format": "channels_last", "kernel_initializer": {"class_name": "VarianceScaling", "config": {"seed": null, "distribution": "uniform", "dtype": "float32", "scale": 1.0, "mode": "fan_avg"}}, "kernel_size": [3, 3], "kernel_regularizer": null, "dtype": "float32", "strides": [1, 1], "bias_initializer": {"class_name": "Zeros", "config": {"dtype": "float32"}}}, "name": "conv2d_23"}, {"inbound_nodes": [[["conv2d_20", 0, 0, {}]]], "class_name": "BatchNormalization", "config": {"moving_mean_initializer": {"class_name": "Zeros", "config": {"dtype": "float32"}}, "trainable": true, "name": "batch_normalization_20", "beta_regularizer": null, "gamma_regularizer": null, "moving_variance_initializer": {"class_name": "Ones", "config": {"dtype": "float32"}}, "gamma_initializer": {"class_name": "Ones", "config": {"dtype": "float32"}}, "beta_initializer": {"class_name": "Zeros", "config": {"dtype": "float32"}}, "epsilon": 0.001, "axis": [3], "gamma_constraint": null, "dtype": "float32", "scale": false, "center": true, "momentum": 0.99, "beta_constraint": null}, "name": "batch_normalization_20"}, {"inbound_nodes": [[["conv2d_23", 0, 0, {}]]], "class_name": "BatchNormalization", "config": {"moving_mean_initializer": {"class_name": "Zeros", "config": {"dtype": "float32"}}, "trainable": true, "name": "batch_normalization_23", "beta_regularizer": null, "gamma_regularizer": null, "moving_variance_initializer": {"class_name": "Ones", "config": {"dtype": "float32"}}, "gamma_initializer": {"class_name": "Ones", "config": {"dtype": "float32"}}, "beta_initializer": {"class_name": "Zeros", "config": {"dtype": "float32"}}, "epsilon": 0.001, "axis": [3], "gamma_constraint": null, "dtype": "float32", "scale": false, "center": true, "momentum": 0.99, "beta_constraint": null}, "name": "batch_normalization_23"}, {"inbound_nodes": [[["batch_normalization_20", 0, 0, {}]]], "class_name": "Activation", "config": {"trainable": true, "name": "activation_69", "activation": "relu", "dtype": "float32"}, "name": "activation_69"}, {"inbound_nodes": [[["batch_normalization_23", 0, 0, {}]]], "class_name": "Activation", "config": {"trainable": true, "name": "activation_72", "activation": "relu", "dtype": "float32"}, "name": "activation_72"}, {"inbound_nodes": [[["mixed1", 0, 0, {}]]], "class_name": "AveragePooling2D", "config": {"trainable": true, "name": "average_pooling2d_2", "pool_size": [3, 3], "data_format": "channels_last", "strides": [1, 1], "dtype": "float32", "padding": "same"}, "name": "average_pooling2d_2"}, {"inbound_nodes": [[["mixed1", 0, 0, {}]]], "class_name": "Conv2D", "config": {"bias_regularizer": null, "bias_constraint": null, "trainable": true, "name": "conv2d_19", "dilation_rate": [1, 1], "use_bias": false, "filters": 64, "activity_regularizer": null, "activation": "linear", "padding": "same", "kernel_constraint": null, "data_format": "channels_last", "kernel_initializer": {"class_name": "VarianceScaling", "config": {"seed": null, "distribution": "uniform", "dtype": "float32", "scale": 1.0, "mode": "fan_avg"}}, "kernel_size": [1, 1], "kernel_regularizer": null, "dtype": "float32", "strides": [1, 1], "bias_initializer": {"class_name": "Zeros", "config": {"dtype": "float32"}}}, "name": "conv2d_19"}, {"inbound_nodes": [[["activation_69", 0, 0, {}]]], "class_name": "Conv2D", "config": {"bias_regularizer": null, "bias_constraint": null, "trainable": true, "name": "conv2d_21", "dilation_rate": [1, 1], "use_bias": false, "filters": 64, "activity_regularizer": null, "activation": "linear", "padding": "same", "kernel_constraint": null, "data_format": "channels_last", "kernel_initializer": {"class_name": "VarianceScaling", "config": {"seed": null, "distribution": "uniform", "dtype": "float32", "scale": 1.0, "mode": "fan_avg"}}, "kernel_size": [5, 5], "kernel_regularizer": null, "dtype": "float32", "strides": [1, 1], "bias_initializer": {"class_name": "Zeros", "config": {"dtype": "float32"}}}, "name": "conv2d_21"}, {"inbound_nodes": [[["activation_72", 0, 0, {}]]], "class_name": "Conv2D", "config": {"bias_regularizer": null, "bias_constraint": null, "trainable": true, "name": "conv2d_24", "dilation_rate": [1, 1], "use_bias": false, "filters": 96, "activity_regularizer": null, "activation": "linear", "padding": "same", "kernel_constraint": null, "data_format": "channels_last", "kernel_initializer": {"class_name": "VarianceScaling", "config": {"seed": null, "distribution": "uniform", "dtype": "float32", "scale": 1.0, "mode": "fan_avg"}}, "kernel_size": [3, 3], "kernel_regularizer": null, "dtype": "float32", "strides": [1, 1], "bias_initializer": {"class_name": "Zeros", "config": {"dtype": "float32"}}}, "name": "conv2d_24"}, {"inbound_nodes": [[["average_pooling2d_2", 0, 0, {}]]], "class_name": "Conv2D", "config": {"bias_regularizer": null, "bias_constraint": null, "trainable": true, "name": "conv2d_25", "dilation_rate": [1, 1], "use_bias": false, "filters": 64, "activity_regularizer": null, "activation": "linear", "padding": "same", "kernel_constraint": null, "data_format": "channels_last", "kernel_initializer": {"class_name": "VarianceScaling", "config": {"seed": null, "distribution": "uniform", "dtype": "float32", "scale": 1.0, "mode": "fan_avg"}}, "kernel_size": [1, 1], "kernel_regularizer": null, "dtype": "float32", "strides": [1, 1], "bias_initializer": {"class_name": "Zeros", "config": {"dtype": "float32"}}}, "name": "conv2d_25"}, {"inbound_nodes": [[["conv2d_19", 0, 0, {}]]], "class_name": "BatchNormalization", "config": {"moving_mean_initializer": {"class_name": "Zeros", "config": {"dtype": "float32"}}, "trainable": true, "name": "batch_normalization_19", "beta_regularizer": null, "gamma_regularizer": null, "moving_variance_initializer": {"class_name": "Ones", "config": {"dtype": "float32"}}, "gamma_initializer": {"class_name": "Ones", "config": {"dtype": "float32"}}, "beta_initializer": {"class_name": "Zeros", "config": {"dtype": "float32"}}, "epsilon": 0.001, "axis": [3], "gamma_constraint": null, "dtype": "float32", "scale": false, "center": true, "momentum": 0.99, "beta_constraint": null}, "name": "batch_normalization_19"}, {"inbound_nodes": [[["conv2d_21", 0, 0, {}]]], "class_name": "BatchNormalization", "config": {"moving_mean_initializer": {"class_name": "Zeros", "config": {"dtype": "float32"}}, "trainable": true, "name": "batch_normalization_21", "beta_regularizer": null, "gamma_regularizer": null, "moving_variance_initializer": {"class_name": "Ones", "config": {"dtype": "float32"}}, "gamma_initializer": {"class_name": "Ones", "config": {"dtype": "float32"}}, "beta_initializer": {"class_name": "Zeros", "config": {"dtype": "float32"}}, "epsilon": 0.001, "axis": [3], "gamma_constraint": null, "dtype": "float32", "scale": false, "center": true, "momentum": 0.99, "beta_constraint": null}, "name": "batch_normalization_21"}, {"inbound_nodes": [[["conv2d_24", 0, 0, {}]]], "class_name": "BatchNormalization", "config": {"moving_mean_initializer": {"class_name": "Zeros", "config": {"dtype": "float32"}}, "trainable": true, "name": "batch_normalization_24", "beta_regularizer": null, "gamma_regularizer": null, "moving_variance_initializer": {"class_name": "Ones", "config": {"dtype": "float32"}}, "gamma_initializer": {"class_name": "Ones", "config": {"dtype": "float32"}}, "beta_initializer": {"class_name": "Zeros", "config": {"dtype": "float32"}}, "epsilon": 0.001, "axis": [3], "gamma_constraint": null, "dtype": "float32", "scale": false, "center": true, "momentum": 0.99, "beta_constraint": null}, "name": "batch_normalization_24"}, {"inbound_nodes": [[["conv2d_25", 0, 0, {}]]], "class_name": "BatchNormalization", "config": {"moving_mean_initializer": {"class_name": "Zeros", "config": {"dtype": "float32"}}, "trainable": true, "name": "batch_normalization_25", "beta_regularizer": null, "gamma_regularizer": null, "moving_variance_initializer": {"class_name": "Ones", "config": {"dtype": "float32"}}, "gamma_initializer": {"class_name": "Ones", "config": {"dtype": "float32"}}, "beta_initializer": {"class_name": "Zeros", "config": {"dtype": "float32"}}, "epsilon": 0.001, "axis": [3], "gamma_constraint": null, "dtype": "float32", "scale": false, "center": true, "momentum": 0.99, "beta_constraint": null}, "name": "batch_normalization_25"}, {"inbound_nodes": [[["batch_normalization_19", 0, 0, {}]]], "class_name": "Activation", "config": {"trainable": true, "name": "activation_68", "activation": "relu", "dtype": "float32"}, "name": "activation_68"}, {"inbound_nodes": [[["batch_normalization_21", 0, 0, {}]]], "class_name": "Activation", "config": {"trainable": true, "name": "activation_70", "activation": "relu", "dtype": "float32"}, "name": "activation_70"}, {"inbound_nodes": [[["batch_normalization_24", 0, 0, {}]]], "class_name": "Activation", "config": {"trainable": true, "name": "activation_73", "activation": "relu", "dtype": "float32"}, "name": "activation_73"}, {"inbound_nodes": [[["batch_normalization_25", 0, 0, {}]]], "class_name": "Activation", "config": {"trainable": true, "name": "activation_74", "activation": "relu", "dtype": "float32"}, "name": "activation_74"}, {"inbound_nodes": [[["activation_68", 0, 0, {}], ["activation_70", 0, 0, {}], ["activation_73", 0, 0, {}], ["activation_74", 0, 0, {}]]], "class_name": "Concatenate", "config": {"trainable": true, "name": "mixed2", "axis": 3, "dtype": "float32"}, "name": "mixed2"}, {"inbound_nodes": [[["mixed2", 0, 0, {}]]], "class_name": "Conv2D", "config": {"bias_regularizer": null, "bias_constraint": null, "trainable": true, "name": "conv2d_27", "dilation_rate": [1, 1], "use_bias": false, "filters": 64, "activity_regularizer": null, "activation": "linear", "padding": "same", "kernel_constraint": null, "data_format": "channels_last", "kernel_initializer": {"class_name": "VarianceScaling", "config": {"seed": null, "distribution": "uniform", "dtype": "float32", "scale": 1.0, "mode": "fan_avg"}}, "kernel_size": [1, 1], "kernel_regularizer": null, "dtype": "float32", "strides": [1, 1], "bias_initializer": {"class_name": "Zeros", "config": {"dtype": "float32"}}}, "name": "conv2d_27"}, {"inbound_nodes": [[["conv2d_27", 0, 0, {}]]], "class_name": "BatchNormalization", "config": {"moving_mean_initializer": {"class_name": "Zeros", "config": {"dtype": "float32"}}, "trainable": true, "name": "batch_normalization_27", "beta_regularizer": null, "gamma_regularizer": null, "moving_variance_initializer": {"class_name": "Ones", "config": {"dtype": "float32"}}, "gamma_initializer": {"class_name": "Ones", "config": {"dtype": "float32"}}, "beta_initializer": {"class_name": "Zeros", "config": {"dtype": "float32"}}, "epsilon": 0.001, "axis": [3], "gamma_constraint": null, "dtype": "float32", "scale": false, "center": true, "momentum": 0.99, "beta_constraint": null}, "name": "batch_normalization_27"}, {"inbound_nodes": [[["batch_normalization_27", 0, 0, {}]]], "class_name": "Activation", "config": {"trainable": true, "name": "activation_76", "activation": "relu", "dtype": "float32"}, "name": "activation_76"}, {"inbound_nodes": [[["activation_76", 0, 0, {}]]], "class_name": "Conv2D", "config": {"bias_regularizer": null, "bias_constraint": null, "trainable": true, "name": "conv2d_28", "dilation_rate": [1, 1], "use_bias": false, "filters": 96, "activity_regularizer": null, "activation": "linear", "padding": "same", "kernel_constraint": null, "data_format": "channels_last", "kernel_initializer": {"class_name": "VarianceScaling", "config": {"seed": null, "distribution": "uniform", "dtype": "float32", "scale": 1.0, "mode": "fan_avg"}}, "kernel_size": [3, 3], "kernel_regularizer": null, "dtype": "float32", "strides": [1, 1], "bias_initializer": {"class_name": "Zeros", "config": {"dtype": "float32"}}}, "name": "conv2d_28"}, {"inbound_nodes": [[["conv2d_28", 0, 0, {}]]], "class_name": "BatchNormalization", "config": {"moving_mean_initializer": {"class_name": "Zeros", "config": {"dtype": "float32"}}, "trainable": true, "name": "batch_normalization_28", "beta_regularizer": null, "gamma_regularizer": null, "moving_variance_initializer": {"class_name": "Ones", "config": {"dtype": "float32"}}, "gamma_initializer": {"class_name": "Ones", "config": {"dtype": "float32"}}, "beta_initializer": {"class_name": "Zeros", "config": {"dtype": "float32"}}, "epsilon": 0.001, "axis": [3], "gamma_constraint": null, "dtype": "float32", "scale": false, "center": true, "momentum": 0.99, "beta_constraint": null}, "name": "batch_normalization_28"}, {"inbound_nodes": [[["batch_normalization_28", 0, 0, {}]]], "class_name": "Activation", "config": {"trainable": true, "name": "activation_77", "activation": "relu", "dtype": "float32"}, "name": "activation_77"}, {"inbound_nodes": [[["mixed2", 0, 0, {}]]], "class_name": "Conv2D", "config": {"bias_regularizer": null, "bias_constraint": null, "trainable": true, "name": "conv2d_26", "dilation_rate": [1, 1], "use_bias": false, "filters": 384, "activity_regularizer": null, "activation": "linear", "padding": "valid", "kernel_constraint": null, "data_format": "channels_last", "kernel_initializer": {"class_name": "VarianceScaling", "config": {"seed": null, "distribution": "uniform", "dtype": "float32", "scale": 1.0, "mode": "fan_avg"}}, "kernel_size": [3, 3], "kernel_regularizer": null, "dtype": "float32", "strides": [2, 2], "bias_initializer": {"class_name": "Zeros", "config": {"dtype": "float32"}}}, "name": "conv2d_26"}, {"inbound_nodes": [[["activation_77", 0, 0, {}]]], "class_name": "Conv2D", "config": {"bias_regularizer": null, "bias_constraint": null, "trainable": true, "name": "conv2d_29", "dilation_rate": [1, 1], "use_bias": false, "filters": 96, "activity_regularizer": null, "activation": "linear", "padding": "valid", "kernel_constraint": null, "data_format": "channels_last", "kernel_initializer": {"class_name": "VarianceScaling", "config": {"seed": null, "distribution": "uniform", "dtype": "float32", "scale": 1.0, "mode": "fan_avg"}}, "kernel_size": [3, 3], "kernel_regularizer": null, "dtype": "float32", "strides": [2, 2], "bias_initializer": {"class_name": "Zeros", "config": {"dtype": "float32"}}}, "name": "conv2d_29"}, {"inbound_nodes": [[["conv2d_26", 0, 0, {}]]], "class_name": "BatchNormalization", "config": {"moving_mean_initializer": {"class_name": "Zeros", "config": {"dtype": "float32"}}, "trainable": true, "name": "batch_normalization_26", "beta_regularizer": null, "gamma_regularizer": null, "moving_variance_initializer": {"class_name": "Ones", "config": {"dtype": "float32"}}, "gamma_initializer": {"class_name": "Ones", "config": {"dtype": "float32"}}, "beta_initializer": {"class_name": "Zeros", "config": {"dtype": "float32"}}, "epsilon": 0.001, "axis": [3], "gamma_constraint": null, "dtype": "float32", "scale": false, "center": true, "momentum": 0.99, "beta_constraint": null}, "name": "batch_normalization_26"}, {"inbound_nodes": [[["conv2d_29", 0, 0, {}]]], "class_name": "BatchNormalization", "config": {"moving_mean_initializer": {"class_name": "Zeros", "config": {"dtype": "float32"}}, "trainable": true, "name": "batch_normalization_29", "beta_regularizer": null, "gamma_regularizer": null, "moving_variance_initializer": {"class_name": "Ones", "config": {"dtype": "float32"}}, "gamma_initializer": {"class_name": "Ones", "config": {"dtype": "float32"}}, "beta_initializer": {"class_name": "Zeros", "config": {"dtype": "float32"}}, "epsilon": 0.001, "axis": [3], "gamma_constraint": null, "dtype": "float32", "scale": false, "center": true, "momentum": 0.99, "beta_constraint": null}, "name": "batch_normalization_29"}, {"inbound_nodes": [[["batch_normalization_26", 0, 0, {}]]], "class_name": "Activation", "config": {"trainable": true, "name": "activation_75", "activation": "relu", "dtype": "float32"}, "name": "activation_75"}, {"inbound_nodes": [[["batch_normalization_29", 0, 0, {}]]], "class_name": "Activation", "config": {"trainable": true, "name": "activation_78", "activation": "relu", "dtype": "float32"}, "name": "activation_78"}, {"inbound_nodes": [[["mixed2", 0, 0, {}]]], "class_name": "MaxPooling2D", "config": {"trainable": true, "name": "max_pooling2d_3", "pool_size": [3, 3], "data_format": "channels_last", "strides": [2, 2], "dtype": "float32", "padding": "valid"}, "name": "max_pooling2d_3"}, {"inbound_nodes": [[["activation_75", 0, 0, {}], ["activation_78", 0, 0, {}], ["max_pooling2d_3", 0, 0, {}]]], "class_name": "Concatenate", "config": {"trainable": true, "name": "mixed3", "axis": 3, "dtype": "float32"}, "name": "mixed3"}, {"inbound_nodes": [[["mixed3", 0, 0, {}]]], "class_name": "Conv2D", "config": {"bias_regularizer": null, "bias_constraint": null, "trainable": true, "name": "conv2d_34", "dilation_rate": [1, 1], "use_bias": false, "filters": 128, "activity_regularizer": null, "activation": "linear", "padding": "same", "kernel_constraint": null, "data_format": "channels_last", "kernel_initializer": {"class_name": "VarianceScaling", "config": {"seed": null, "distribution": "uniform", "dtype": "float32", "scale": 1.0, "mode": "fan_avg"}}, "kernel_size": [1, 1], "kernel_regularizer": null, "dtype": "float32", "strides": [1, 1], "bias_initializer": {"class_name": "Zeros", "config": {"dtype": "float32"}}}, "name": "conv2d_34"}, {"inbound_nodes": [[["conv2d_34", 0, 0, {}]]], "class_name": "BatchNormalization", "config": {"moving_mean_initializer": {"class_name": "Zeros", "config": {"dtype": "float32"}}, "trainable": true, "name": "batch_normalization_34", "beta_regularizer": null, "gamma_regularizer": null, "moving_variance_initializer": {"class_name": "Ones", "config": {"dtype": "float32"}}, "gamma_initializer": {"class_name": "Ones", "config": {"dtype": "float32"}}, "beta_initializer": {"class_name": "Zeros", "config": {"dtype": "float32"}}, "epsilon": 0.001, "axis": [3], "gamma_constraint": null, "dtype": "float32", "scale": false, "center": true, "momentum": 0.99, "beta_constraint": null}, "name": "batch_normalization_34"}, {"inbound_nodes": [[["batch_normalization_34", 0, 0, {}]]], "class_name": "Activation", "config": {"trainable": true, "name": "activation_83", "activation": "relu", "dtype": "float32"}, "name": "activation_83"}, {"inbound_nodes": [[["activation_83", 0, 0, {}]]], "class_name": "Conv2D", "config": {"bias_regularizer": null, "bias_constraint": null, "trainable": true, "name": "conv2d_35", "dilation_rate": [1, 1], "use_bias": false, "filters": 128, "activity_regularizer": null, "activation": "linear", "padding": "same", "kernel_constraint": null, "data_format": "channels_last", "kernel_initializer": {"class_name": "VarianceScaling", "config": {"seed": null, "distribution": "uniform", "dtype": "float32", "scale": 1.0, "mode": "fan_avg"}}, "kernel_size": [7, 1], "kernel_regularizer": null, "dtype": "float32", "strides": [1, 1], "bias_initializer": {"class_name": "Zeros", "config": {"dtype": "float32"}}}, "name": "conv2d_35"}, {"inbound_nodes": [[["conv2d_35", 0, 0, {}]]], "class_name": "BatchNormalization", "config": {"moving_mean_initializer": {"class_name": "Zeros", "config": {"dtype": "float32"}}, "trainable": true, "name": "batch_normalization_35", "beta_regularizer": null, "gamma_regularizer": null, "moving_variance_initializer": {"class_name": "Ones", "config": {"dtype": "float32"}}, "gamma_initializer": {"class_name": "Ones", "config": {"dtype": "float32"}}, "beta_initializer": {"class_name": "Zeros", "config": {"dtype": "float32"}}, "epsilon": 0.001, "axis": [3], "gamma_constraint": null, "dtype": "float32", "scale": false, "center": true, "momentum": 0.99, "beta_constraint": null}, "name": "batch_normalization_35"}, {"inbound_nodes": [[["batch_normalization_35", 0, 0, {}]]], "class_name": "Activation", "config": {"trainable": true, "name": "activation_84", "activation": "relu", "dtype": "float32"}, "name": "activation_84"}, {"inbound_nodes": [[["mixed3", 0, 0, {}]]], "class_name": "Conv2D", "config": {"bias_regularizer": null, "bias_constraint": null, "trainable": true, "name": "conv2d_31", "dilation_rate": [1, 1], "use_bias": false, "filters": 128, "activity_regularizer": null, "activation": "linear", "padding": "same", "kernel_constraint": null, "data_format": "channels_last", "kernel_initializer": {"class_name": "VarianceScaling", "config": {"seed": null, "distribution": "uniform", "dtype": "float32", "scale": 1.0, "mode": "fan_avg"}}, "kernel_size": [1, 1], "kernel_regularizer": null, "dtype": "float32", "strides": [1, 1], "bias_initializer": {"class_name": "Zeros", "config": {"dtype": "float32"}}}, "name": "conv2d_31"}, {"inbound_nodes": [[["activation_84", 0, 0, {}]]], "class_name": "Conv2D", "config": {"bias_regularizer": null, "bias_constraint": null, "trainable": true, "name": "conv2d_36", "dilation_rate": [1, 1], "use_bias": false, "filters": 128, "activity_regularizer": null, "activation": "linear", "padding": "same", "kernel_constraint": null, "data_format": "channels_last", "kernel_initializer": {"class_name": "VarianceScaling", "config": {"seed": null, "distribution": "uniform", "dtype": "float32", "scale": 1.0, "mode": "fan_avg"}}, "kernel_size": [1, 7], "kernel_regularizer": null, "dtype": "float32", "strides": [1, 1], "bias_initializer": {"class_name": "Zeros", "config": {"dtype": "float32"}}}, "name": "conv2d_36"}, {"inbound_nodes": [[["conv2d_31", 0, 0, {}]]], "class_name": "BatchNormalization", "config": {"moving_mean_initializer": {"class_name": "Zeros", "config": {"dtype": "float32"}}, "trainable": true, "name": "batch_normalization_31", "beta_regularizer": null, "gamma_regularizer": null, "moving_variance_initializer": {"class_name": "Ones", "config": {"dtype": "float32"}}, "gamma_initializer": {"class_name": "Ones", "config": {"dtype": "float32"}}, "beta_initializer": {"class_name": "Zeros", "config": {"dtype": "float32"}}, "epsilon": 0.001, "axis": [3], "gamma_constraint": null, "dtype": "float32", "scale": false, "center": true, "momentum": 0.99, "beta_constraint": null}, "name": "batch_normalization_31"}, {"inbound_nodes": [[["conv2d_36", 0, 0, {}]]], "class_name": "BatchNormalization", "config": {"moving_mean_initializer": {"class_name": "Zeros", "config": {"dtype": "float32"}}, "trainable": true, "name": "batch_normalization_36", "beta_regularizer": null, "gamma_regularizer": null, "moving_variance_initializer": {"class_name": "Ones", "config": {"dtype": "float32"}}, "gamma_initializer": {"class_name": "Ones", "config": {"dtype": "float32"}}, "beta_initializer": {"class_name": "Zeros", "config": {"dtype": "float32"}}, "epsilon": 0.001, "axis": [3], "gamma_constraint": null, "dtype": "float32", "scale": false, "center": true, "momentum": 0.99, "beta_constraint": null}, "name": "batch_normalization_36"}, {"inbound_nodes": [[["batch_normalization_31", 0, 0, {}]]], "class_name": "Activation", "config": {"trainable": true, "name": "activation_80", "activation": "relu", "dtype": "float32"}, "name": "activation_80"}, {"inbound_nodes": [[["batch_normalization_36", 0, 0, {}]]], "class_name": "Activation", "config": {"trainable": true, "name": "activation_85", "activation": "relu", "dtype": "float32"}, "name": "activation_85"}, {"inbound_nodes": [[["activation_80", 0, 0, {}]]], "class_name": "Conv2D", "config": {"bias_regularizer": null, "bias_constraint": null, "trainable": true, "name": "conv2d_32", "dilation_rate": [1, 1], "use_bias": false, "filters": 128, "activity_regularizer": null, "activation": "linear", "padding": "same", "kernel_constraint": null, "data_format": "channels_last", "kernel_initializer": {"class_name": "VarianceScaling", "config": {"seed": null, "distribution": "uniform", "dtype": "float32", "scale": 1.0, "mode": "fan_avg"}}, "kernel_size": [1, 7], "kernel_regularizer": null, "dtype": "float32", "strides": [1, 1], "bias_initializer": {"class_name": "Zeros", "config": {"dtype": "float32"}}}, "name": "conv2d_32"}, {"inbound_nodes": [[["activation_85", 0, 0, {}]]], "class_name": "Conv2D", "config": {"bias_regularizer": null, "bias_constraint": null, "trainable": true, "name": "conv2d_37", "dilation_rate": [1, 1], "use_bias": false, "filters": 128, "activity_regularizer": null, "activation": "linear", "padding": "same", "kernel_constraint": null, "data_format": "channels_last", "kernel_initializer": {"class_name": "VarianceScaling", "config": {"seed": null, "distribution": "uniform", "dtype": "float32", "scale": 1.0, "mode": "fan_avg"}}, "kernel_size": [7, 1], "kernel_regularizer": null, "dtype": "float32", "strides": [1, 1], "bias_initializer": {"class_name": "Zeros", "config": {"dtype": "float32"}}}, "name": "conv2d_37"}, {"inbound_nodes": [[["conv2d_32", 0, 0, {}]]], "class_name": "BatchNormalization", "config": {"moving_mean_initializer": {"class_name": "Zeros", "config": {"dtype": "float32"}}, "trainable": true, "name": "batch_normalization_32", "beta_regularizer": null, "gamma_regularizer": null, "moving_variance_initializer": {"class_name": "Ones", "config": {"dtype": "float32"}}, "gamma_initializer": {"class_name": "Ones", "config": {"dtype": "float32"}}, "beta_initializer": {"class_name": "Zeros", "config": {"dtype": "float32"}}, "epsilon": 0.001, "axis": [3], "gamma_constraint": null, "dtype": "float32", "scale": false, "center": true, "momentum": 0.99, "beta_constraint": null}, "name": "batch_normalization_32"}, {"inbound_nodes": [[["conv2d_37", 0, 0, {}]]], "class_name": "BatchNormalization", "config": {"moving_mean_initializer": {"class_name": "Zeros", "config": {"dtype": "float32"}}, "trainable": true, "name": "batch_normalization_37", "beta_regularizer": null, "gamma_regularizer": null, "moving_variance_initializer": {"class_name": "Ones", "config": {"dtype": "float32"}}, "gamma_initializer": {"class_name": "Ones", "config": {"dtype": "float32"}}, "beta_initializer": {"class_name": "Zeros", "config": {"dtype": "float32"}}, "epsilon": 0.001, "axis": [3], "gamma_constraint": null, "dtype": "float32", "scale": false, "center": true, "momentum": 0.99, "beta_constraint": null}, "name": "batch_normalization_37"}, {"inbound_nodes": [[["batch_normalization_32", 0, 0, {}]]], "class_name": "Activation", "config": {"trainable": true, "name": "activation_81", "activation": "relu", "dtype": "float32"}, "name": "activation_81"}, {"inbound_nodes": [[["batch_normalization_37", 0, 0, {}]]], "class_name": "Activation", "config": {"trainable": true, "name": "activation_86", "activation": "relu", "dtype": "float32"}, "name": "activation_86"}, {"inbound_nodes": [[["mixed3", 0, 0, {}]]], "class_name": "AveragePooling2D", "config": {"trainable": true, "name": "average_pooling2d_3", "pool_size": [3, 3], "data_format": "channels_last", "strides": [1, 1], "dtype": "float32", "padding": "same"}, "name": "average_pooling2d_3"}, {"inbound_nodes": [[["mixed3", 0, 0, {}]]], "class_name": "Conv2D", "config": {"bias_regularizer": null, "bias_constraint": null, "trainable": true, "name": "conv2d_30", "dilation_rate": [1, 1], "use_bias": false, "filters": 192, "activity_regularizer": null, "activation": "linear", "padding": "same", "kernel_constraint": null, "data_format": "channels_last", "kernel_initializer": {"class_name": "VarianceScaling", "config": {"seed": null, "distribution": "uniform", "dtype": "float32", "scale": 1.0, "mode": "fan_avg"}}, "kernel_size": [1, 1], "kernel_regularizer": null, "dtype": "float32", "strides": [1, 1], "bias_initializer": {"class_name": "Zeros", "config": {"dtype": "float32"}}}, "name": "conv2d_30"}, {"inbound_nodes": [[["activation_81", 0, 0, {}]]], "class_name": "Conv2D", "config": {"bias_regularizer": null, "bias_constraint": null, "trainable": true, "name": "conv2d_33", "dilation_rate": [1, 1], "use_bias": false, "filters": 192, "activity_regularizer": null, "activation": "linear", "padding": "same", "kernel_constraint": null, "data_format": "channels_last", "kernel_initializer": {"class_name": "VarianceScaling", "config": {"seed": null, "distribution": "uniform", "dtype": "float32", "scale": 1.0, "mode": "fan_avg"}}, "kernel_size": [7, 1], "kernel_regularizer": null, "dtype": "float32", "strides": [1, 1], "bias_initializer": {"class_name": "Zeros", "config": {"dtype": "float32"}}}, "name": "conv2d_33"}, {"inbound_nodes": [[["activation_86", 0, 0, {}]]], "class_name": "Conv2D", "config": {"bias_regularizer": null, "bias_constraint": null, "trainable": true, "name": "conv2d_38", "dilation_rate": [1, 1], "use_bias": false, "filters": 192, "activity_regularizer": null, "activation": "linear", "padding": "same", "kernel_constraint": null, "data_format": "channels_last", "kernel_initializer": {"class_name": "VarianceScaling", "config": {"seed": null, "distribution": "uniform", "dtype": "float32", "scale": 1.0, "mode": "fan_avg"}}, "kernel_size": [1, 7], "kernel_regularizer": null, "dtype": "float32", "strides": [1, 1], "bias_initializer": {"class_name": "Zeros", "config": {"dtype": "float32"}}}, "name": "conv2d_38"}, {"inbound_nodes": [[["average_pooling2d_3", 0, 0, {}]]], "class_name": "Conv2D", "config": {"bias_regularizer": null, "bias_constraint": null, "trainable": true, "name": "conv2d_39", "dilation_rate": [1, 1], "use_bias": false, "filters": 192, "activity_regularizer": null, "activation": "linear", "padding": "same", "kernel_constraint": null, "data_format": "channels_last", "kernel_initializer": {"class_name": "VarianceScaling", "config": {"seed": null, "distribution": "uniform", "dtype": "float32", "scale": 1.0, "mode": "fan_avg"}}, "kernel_size": [1, 1], "kernel_regularizer": null, "dtype": "float32", "strides": [1, 1], "bias_initializer": {"class_name": "Zeros", "config": {"dtype": "float32"}}}, "name": "conv2d_39"}, {"inbound_nodes": [[["conv2d_30", 0, 0, {}]]], "class_name": "BatchNormalization", "config": {"moving_mean_initializer": {"class_name": "Zeros", "config": {"dtype": "float32"}}, "trainable": true, "name": "batch_normalization_30", "beta_regularizer": null, "gamma_regularizer": null, "moving_variance_initializer": {"class_name": "Ones", "config": {"dtype": "float32"}}, "gamma_initializer": {"class_name": "Ones", "config": {"dtype": "float32"}}, "beta_initializer": {"class_name": "Zeros", "config": {"dtype": "float32"}}, "epsilon": 0.001, "axis": [3], "gamma_constraint": null, "dtype": "float32", "scale": false, "center": true, "momentum": 0.99, "beta_constraint": null}, "name": "batch_normalization_30"}, {"inbound_nodes": [[["conv2d_33", 0, 0, {}]]], "class_name": "BatchNormalization", "config": {"moving_mean_initializer": {"class_name": "Zeros", "config": {"dtype": "float32"}}, "trainable": true, "name": "batch_normalization_33", "beta_regularizer": null, "gamma_regularizer": null, "moving_variance_initializer": {"class_name": "Ones", "config": {"dtype": "float32"}}, "gamma_initializer": {"class_name": "Ones", "config": {"dtype": "float32"}}, "beta_initializer": {"class_name": "Zeros", "config": {"dtype": "float32"}}, "epsilon": 0.001, "axis": [3], "gamma_constraint": null, "dtype": "float32", "scale": false, "center": true, "momentum": 0.99, "beta_constraint": null}, "name": "batch_normalization_33"}, {"inbound_nodes": [[["conv2d_38", 0, 0, {}]]], "class_name": "BatchNormalization", "config": {"moving_mean_initializer": {"class_name": "Zeros", "config": {"dtype": "float32"}}, "trainable": true, "name": "batch_normalization_38", "beta_regularizer": null, "gamma_regularizer": null, "moving_variance_initializer": {"class_name": "Ones", "config": {"dtype": "float32"}}, "gamma_initializer": {"class_name": "Ones", "config": {"dtype": "float32"}}, "beta_initializer": {"class_name": "Zeros", "config": {"dtype": "float32"}}, "epsilon": 0.001, "axis": [3], "gamma_constraint": null, "dtype": "float32", "scale": false, "center": true, "momentum": 0.99, "beta_constraint": null}, "name": "batch_normalization_38"}, {"inbound_nodes": [[["conv2d_39", 0, 0, {}]]], "class_name": "BatchNormalization", "config": {"moving_mean_initializer": {"class_name": "Zeros", "config": {"dtype": "float32"}}, "trainable": true, "name": "batch_normalization_39", "beta_regularizer": null, "gamma_regularizer": null, "moving_variance_initializer": {"class_name": "Ones", "config": {"dtype": "float32"}}, "gamma_initializer": {"class_name": "Ones", "config": {"dtype": "float32"}}, "beta_initializer": {"class_name": "Zeros", "config": {"dtype": "float32"}}, "epsilon": 0.001, "axis": [3], "gamma_constraint": null, "dtype": "float32", "scale": false, "center": true, "momentum": 0.99, "beta_constraint": null}, "name": "batch_normalization_39"}, {"inbound_nodes": [[["batch_normalization_30", 0, 0, {}]]], "class_name": "Activation", "config": {"trainable": true, "name": "activation_79", "activation": "relu", "dtype": "float32"}, "name": "activation_79"}, {"inbound_nodes": [[["batch_normalization_33", 0, 0, {}]]], "class_name": "Activation", "config": {"trainable": true, "name": "activation_82", "activation": "relu", "dtype": "float32"}, "name": "activation_82"}, {"inbound_nodes": [[["batch_normalization_38", 0, 0, {}]]], "class_name": "Activation", "config": {"trainable": true, "name": "activation_87", "activation": "relu", "dtype": "float32"}, "name": "activation_87"}, {"inbound_nodes": [[["batch_normalization_39", 0, 0, {}]]], "class_name": "Activation", "config": {"trainable": true, "name": "activation_88", "activation": "relu", "dtype": "float32"}, "name": "activation_88"}, {"inbound_nodes": [[["activation_79", 0, 0, {}], ["activation_82", 0, 0, {}], ["activation_87", 0, 0, {}], ["activation_88", 0, 0, {}]]], "class_name": "Concatenate", "config": {"trainable": true, "name": "mixed4", "axis": 3, "dtype": "float32"}, "name": "mixed4"}, {"inbound_nodes": [[["mixed4", 0, 0, {}]]], "class_name": "Conv2D", "config": {"bias_regularizer": null, "bias_constraint": null, "trainable": true, "name": "conv2d_44", "dilation_rate": [1, 1], "use_bias": false, "filters": 160, "activity_regularizer": null, "activation": "linear", "padding": "same", "kernel_constraint": null, "data_format": "channels_last", "kernel_initializer": {"class_name": "VarianceScaling", "config": {"seed": null, "distribution": "uniform", "dtype": "float32", "scale": 1.0, "mode": "fan_avg"}}, "kernel_size": [1, 1], "kernel_regularizer": null, "dtype": "float32", "strides": [1, 1], "bias_initializer": {"class_name": "Zeros", "config": {"dtype": "float32"}}}, "name": "conv2d_44"}, {"inbound_nodes": [[["conv2d_44", 0, 0, {}]]], "class_name": "BatchNormalization", "config": {"moving_mean_initializer": {"class_name": "Zeros", "config": {"dtype": "float32"}}, "trainable": true, "name": "batch_normalization_44", "beta_regularizer": null, "gamma_regularizer": null, "moving_variance_initializer": {"class_name": "Ones", "config": {"dtype": "float32"}}, "gamma_initializer": {"class_name": "Ones", "config": {"dtype": "float32"}}, "beta_initializer": {"class_name": "Zeros", "config": {"dtype": "float32"}}, "epsilon": 0.001, "axis": [3], "gamma_constraint": null, "dtype": "float32", "scale": false, "center": true, "momentum": 0.99, "beta_constraint": null}, "name": "batch_normalization_44"}, {"inbound_nodes": [[["batch_normalization_44", 0, 0, {}]]], "class_name": "Activation", "config": {"trainable": true, "name": "activation_93", "activation": "relu", "dtype": "float32"}, "name": "activation_93"}, {"inbound_nodes": [[["activation_93", 0, 0, {}]]], "class_name": "Conv2D", "config": {"bias_regularizer": null, "bias_constraint": null, "trainable": true, "name": "conv2d_45", "dilation_rate": [1, 1], "use_bias": false, "filters": 160, "activity_regularizer": null, "activation": "linear", "padding": "same", "kernel_constraint": null, "data_format": "channels_last", "kernel_initializer": {"class_name": "VarianceScaling", "config": {"seed": null, "distribution": "uniform", "dtype": "float32", "scale": 1.0, "mode": "fan_avg"}}, "kernel_size": [7, 1], "kernel_regularizer": null, "dtype": "float32", "strides": [1, 1], "bias_initializer": {"class_name": "Zeros", "config": {"dtype": "float32"}}}, "name": "conv2d_45"}, {"inbound_nodes": [[["conv2d_45", 0, 0, {}]]], "class_name": "BatchNormalization", "config": {"moving_mean_initializer": {"class_name": "Zeros", "config": {"dtype": "float32"}}, "trainable": true, "name": "batch_normalization_45", "beta_regularizer": null, "gamma_regularizer": null, "moving_variance_initializer": {"class_name": "Ones", "config": {"dtype": "float32"}}, "gamma_initializer": {"class_name": "Ones", "config": {"dtype": "float32"}}, "beta_initializer": {"class_name": "Zeros", "config": {"dtype": "float32"}}, "epsilon": 0.001, "axis": [3], "gamma_constraint": null, "dtype": "float32", "scale": false, "center": true, "momentum": 0.99, "beta_constraint": null}, "name": "batch_normalization_45"}, {"inbound_nodes": [[["batch_normalization_45", 0, 0, {}]]], "class_name": "Activation", "config": {"trainable": true, "name": "activation_94", "activation": "relu", "dtype": "float32"}, "name": "activation_94"}, {"inbound_nodes": [[["mixed4", 0, 0, {}]]], "class_name": "Conv2D", "config": {"bias_regularizer": null, "bias_constraint": null, "trainable": true, "name": "conv2d_41", "dilation_rate": [1, 1], "use_bias": false, "filters": 160, "activity_regularizer": null, "activation": "linear", "padding": "same", "kernel_constraint": null, "data_format": "channels_last", "kernel_initializer": {"class_name": "VarianceScaling", "config": {"seed": null, "distribution": "uniform", "dtype": "float32", "scale": 1.0, "mode": "fan_avg"}}, "kernel_size": [1, 1], "kernel_regularizer": null, "dtype": "float32", "strides": [1, 1], "bias_initializer": {"class_name": "Zeros", "config": {"dtype": "float32"}}}, "name": "conv2d_41"}, {"inbound_nodes": [[["activation_94", 0, 0, {}]]], "class_name": "Conv2D", "config": {"bias_regularizer": null, "bias_constraint": null, "trainable": true, "name": "conv2d_46", "dilation_rate": [1, 1], "use_bias": false, "filters": 160, "activity_regularizer": null, "activation": "linear", "padding": "same", "kernel_constraint": null, "data_format": "channels_last", "kernel_initializer": {"class_name": "VarianceScaling", "config": {"seed": null, "distribution": "uniform", "dtype": "float32", "scale": 1.0, "mode": "fan_avg"}}, "kernel_size": [1, 7], "kernel_regularizer": null, "dtype": "float32", "strides": [1, 1], "bias_initializer": {"class_name": "Zeros", "config": {"dtype": "float32"}}}, "name": "conv2d_46"}, {"inbound_nodes": [[["conv2d_41", 0, 0, {}]]], "class_name": "BatchNormalization", "config": {"moving_mean_initializer": {"class_name": "Zeros", "config": {"dtype": "float32"}}, "trainable": true, "name": "batch_normalization_41", "beta_regularizer": null, "gamma_regularizer": null, "moving_variance_initializer": {"class_name": "Ones", "config": {"dtype": "float32"}}, "gamma_initializer": {"class_name": "Ones", "config": {"dtype": "float32"}}, "beta_initializer": {"class_name": "Zeros", "config": {"dtype": "float32"}}, "epsilon": 0.001, "axis": [3], "gamma_constraint": null, "dtype": "float32", "scale": false, "center": true, "momentum": 0.99, "beta_constraint": null}, "name": "batch_normalization_41"}, {"inbound_nodes": [[["conv2d_46", 0, 0, {}]]], "class_name": "BatchNormalization", "config": {"moving_mean_initializer": {"class_name": "Zeros", "config": {"dtype": "float32"}}, "trainable": true, "name": "batch_normalization_46", "beta_regularizer": null, "gamma_regularizer": null, "moving_variance_initializer": {"class_name": "Ones", "config": {"dtype": "float32"}}, "gamma_initializer": {"class_name": "Ones", "config": {"dtype": "float32"}}, "beta_initializer": {"class_name": "Zeros", "config": {"dtype": "float32"}}, "epsilon": 0.001, "axis": [3], "gamma_constraint": null, "dtype": "float32", "scale": false, "center": true, "momentum": 0.99, "beta_constraint": null}, "name": "batch_normalization_46"}, {"inbound_nodes": [[["batch_normalization_41", 0, 0, {}]]], "class_name": "Activation", "config": {"trainable": true, "name": "activation_90", "activation": "relu", "dtype": "float32"}, "name": "activation_90"}, {"inbound_nodes": [[["batch_normalization_46", 0, 0, {}]]], "class_name": "Activation", "config": {"trainable": true, "name": "activation_95", "activation": "relu", "dtype": "float32"}, "name": "activation_95"}, {"inbound_nodes": [[["activation_90", 0, 0, {}]]], "class_name": "Conv2D", "config": {"bias_regularizer": null, "bias_constraint": null, "trainable": true, "name": "conv2d_42", "dilation_rate": [1, 1], "use_bias": false, "filters": 160, "activity_regularizer": null, "activation": "linear", "padding": "same", "kernel_constraint": null, "data_format": "channels_last", "kernel_initializer": {"class_name": "VarianceScaling", "config": {"seed": null, "distribution": "uniform", "dtype": "float32", "scale": 1.0, "mode": "fan_avg"}}, "kernel_size": [1, 7], "kernel_regularizer": null, "dtype": "float32", "strides": [1, 1], "bias_initializer": {"class_name": "Zeros", "config": {"dtype": "float32"}}}, "name": "conv2d_42"}, {"inbound_nodes": [[["activation_95", 0, 0, {}]]], "class_name": "Conv2D", "config": {"bias_regularizer": null, "bias_constraint": null, "trainable": true, "name": "conv2d_47", "dilation_rate": [1, 1], "use_bias": false, "filters": 160, "activity_regularizer": null, "activation": "linear", "padding": "same", "kernel_constraint": null, "data_format": "channels_last", "kernel_initializer": {"class_name": "VarianceScaling", "config": {"seed": null, "distribution": "uniform", "dtype": "float32", "scale": 1.0, "mode": "fan_avg"}}, "kernel_size": [7, 1], "kernel_regularizer": null, "dtype": "float32", "strides": [1, 1], "bias_initializer": {"class_name": "Zeros", "config": {"dtype": "float32"}}}, "name": "conv2d_47"}, {"inbound_nodes": [[["conv2d_42", 0, 0, {}]]], "class_name": "BatchNormalization", "config": {"moving_mean_initializer": {"class_name": "Zeros", "config": {"dtype": "float32"}}, "trainable": true, "name": "batch_normalization_42", "beta_regularizer": null, "gamma_regularizer": null, "moving_variance_initializer": {"class_name": "Ones", "config": {"dtype": "float32"}}, "gamma_initializer": {"class_name": "Ones", "config": {"dtype": "float32"}}, "beta_initializer": {"class_name": "Zeros", "config": {"dtype": "float32"}}, "epsilon": 0.001, "axis": [3], "gamma_constraint": null, "dtype": "float32", "scale": false, "center": true, "momentum": 0.99, "beta_constraint": null}, "name": "batch_normalization_42"}, {"inbound_nodes": [[["conv2d_47", 0, 0, {}]]], "class_name": "BatchNormalization", "config": {"moving_mean_initializer": {"class_name": "Zeros", "config": {"dtype": "float32"}}, "trainable": true, "name": "batch_normalization_47", "beta_regularizer": null, "gamma_regularizer": null, "moving_variance_initializer": {"class_name": "Ones", "config": {"dtype": "float32"}}, "gamma_initializer": {"class_name": "Ones", "config": {"dtype": "float32"}}, "beta_initializer": {"class_name": "Zeros", "config": {"dtype": "float32"}}, "epsilon": 0.001, "axis": [3], "gamma_constraint": null, "dtype": "float32", "scale": false, "center": true, "momentum": 0.99, "beta_constraint": null}, "name": "batch_normalization_47"}, {"inbound_nodes": [[["batch_normalization_42", 0, 0, {}]]], "class_name": "Activation", "config": {"trainable": true, "name": "activation_91", "activation": "relu", "dtype": "float32"}, "name": "activation_91"}, {"inbound_nodes": [[["batch_normalization_47", 0, 0, {}]]], "class_name": "Activation", "config": {"trainable": true, "name": "activation_96", "activation": "relu", "dtype": "float32"}, "name": "activation_96"}, {"inbound_nodes": [[["mixed4", 0, 0, {}]]], "class_name": "AveragePooling2D", "config": {"trainable": true, "name": "average_pooling2d_4", "pool_size": [3, 3], "data_format": "channels_last", "strides": [1, 1], "dtype": "float32", "padding": "same"}, "name": "average_pooling2d_4"}, {"inbound_nodes": [[["mixed4", 0, 0, {}]]], "class_name": "Conv2D", "config": {"bias_regularizer": null, "bias_constraint": null, "trainable": true, "name": "conv2d_40", "dilation_rate": [1, 1], "use_bias": false, "filters": 192, "activity_regularizer": null, "activation": "linear", "padding": "same", "kernel_constraint": null, "data_format": "channels_last", "kernel_initializer": {"class_name": "VarianceScaling", "config": {"seed": null, "distribution": "uniform", "dtype": "float32", "scale": 1.0, "mode": "fan_avg"}}, "kernel_size": [1, 1], "kernel_regularizer": null, "dtype": "float32", "strides": [1, 1], "bias_initializer": {"class_name": "Zeros", "config": {"dtype": "float32"}}}, "name": "conv2d_40"}, {"inbound_nodes": [[["activation_91", 0, 0, {}]]], "class_name": "Conv2D", "config": {"bias_regularizer": null, "bias_constraint": null, "trainable": true, "name": "conv2d_43", "dilation_rate": [1, 1], "use_bias": false, "filters": 192, "activity_regularizer": null, "activation": "linear", "padding": "same", "kernel_constraint": null, "data_format": "channels_last", "kernel_initializer": {"class_name": "VarianceScaling", "config": {"seed": null, "distribution": "uniform", "dtype": "float32", "scale": 1.0, "mode": "fan_avg"}}, "kernel_size": [7, 1], "kernel_regularizer": null, "dtype": "float32", "strides": [1, 1], "bias_initializer": {"class_name": "Zeros", "config": {"dtype": "float32"}}}, "name": "conv2d_43"}, {"inbound_nodes": [[["activation_96", 0, 0, {}]]], "class_name": "Conv2D", "config": {"bias_regularizer": null, "bias_constraint": null, "trainable": true, "name": "conv2d_48", "dilation_rate": [1, 1], "use_bias": false, "filters": 192, "activity_regularizer": null, "activation": "linear", "padding": "same", "kernel_constraint": null, "data_format": "channels_last", "kernel_initializer": {"class_name": "VarianceScaling", "config": {"seed": null, "distribution": "uniform", "dtype": "float32", "scale": 1.0, "mode": "fan_avg"}}, "kernel_size": [1, 7], "kernel_regularizer": null, "dtype": "float32", "strides": [1, 1], "bias_initializer": {"class_name": "Zeros", "config": {"dtype": "float32"}}}, "name": "conv2d_48"}, {"inbound_nodes": [[["average_pooling2d_4", 0, 0, {}]]], "class_name": "Conv2D", "config": {"bias_regularizer": null, "bias_constraint": null, "trainable": true, "name": "conv2d_49", "dilation_rate": [1, 1], "use_bias": false, "filters": 192, "activity_regularizer": null, "activation": "linear", "padding": "same", "kernel_constraint": null, "data_format": "channels_last", "kernel_initializer": {"class_name": "VarianceScaling", "config": {"seed": null, "distribution": "uniform", "dtype": "float32", "scale": 1.0, "mode": "fan_avg"}}, "kernel_size": [1, 1], "kernel_regularizer": null, "dtype": "float32", "strides": [1, 1], "bias_initializer": {"class_name": "Zeros", "config": {"dtype": "float32"}}}, "name": "conv2d_49"}, {"inbound_nodes": [[["conv2d_40", 0, 0, {}]]], "class_name": "BatchNormalization", "config": {"moving_mean_initializer": {"class_name": "Zeros", "config": {"dtype": "float32"}}, "trainable": true, "name": "batch_normalization_40", "beta_regularizer": null, "gamma_regularizer": null, "moving_variance_initializer": {"class_name": "Ones", "config": {"dtype": "float32"}}, "gamma_initializer": {"class_name": "Ones", "config": {"dtype": "float32"}}, "beta_initializer": {"class_name": "Zeros", "config": {"dtype": "float32"}}, "epsilon": 0.001, "axis": [3], "gamma_constraint": null, "dtype": "float32", "scale": false, "center": true, "momentum": 0.99, "beta_constraint": null}, "name": "batch_normalization_40"}, {"inbound_nodes": [[["conv2d_43", 0, 0, {}]]], "class_name": "BatchNormalization", "config": {"moving_mean_initializer": {"class_name": "Zeros", "config": {"dtype": "float32"}}, "trainable": true, "name": "batch_normalization_43", "beta_regularizer": null, "gamma_regularizer": null, "moving_variance_initializer": {"class_name": "Ones", "config": {"dtype": "float32"}}, "gamma_initializer": {"class_name": "Ones", "config": {"dtype": "float32"}}, "beta_initializer": {"class_name": "Zeros", "config": {"dtype": "float32"}}, "epsilon": 0.001, "axis": [3], "gamma_constraint": null, "dtype": "float32", "scale": false, "center": true, "momentum": 0.99, "beta_constraint": null}, "name": "batch_normalization_43"}, {"inbound_nodes": [[["conv2d_48", 0, 0, {}]]], "class_name": "BatchNormalization", "config": {"moving_mean_initializer": {"class_name": "Zeros", "config": {"dtype": "float32"}}, "trainable": true, "name": "batch_normalization_48", "beta_regularizer": null, "gamma_regularizer": null, "moving_variance_initializer": {"class_name": "Ones", "config": {"dtype": "float32"}}, "gamma_initializer": {"class_name": "Ones", "config": {"dtype": "float32"}}, "beta_initializer": {"class_name": "Zeros", "config": {"dtype": "float32"}}, "epsilon": 0.001, "axis": [3], "gamma_constraint": null, "dtype": "float32", "scale": false, "center": true, "momentum": 0.99, "beta_constraint": null}, "name": "batch_normalization_48"}, {"inbound_nodes": [[["conv2d_49", 0, 0, {}]]], "class_name": "BatchNormalization", "config": {"moving_mean_initializer": {"class_name": "Zeros", "config": {"dtype": "float32"}}, "trainable": true, "name": "batch_normalization_49", "beta_regularizer": null, "gamma_regularizer": null, "moving_variance_initializer": {"class_name": "Ones", "config": {"dtype": "float32"}}, "gamma_initializer": {"class_name": "Ones", "config": {"dtype": "float32"}}, "beta_initializer": {"class_name": "Zeros", "config": {"dtype": "float32"}}, "epsilon": 0.001, "axis": [3], "gamma_constraint": null, "dtype": "float32", "scale": false, "center": true, "momentum": 0.99, "beta_constraint": null}, "name": "batch_normalization_49"}, {"inbound_nodes": [[["batch_normalization_40", 0, 0, {}]]], "class_name": "Activation", "config": {"trainable": true, "name": "activation_89", "activation": "relu", "dtype": "float32"}, "name": "activation_89"}, {"inbound_nodes": [[["batch_normalization_43", 0, 0, {}]]], "class_name": "Activation", "config": {"trainable": true, "name": "activation_92", "activation": "relu", "dtype": "float32"}, "name": "activation_92"}, {"inbound_nodes": [[["batch_normalization_48", 0, 0, {}]]], "class_name": "Activation", "config": {"trainable": true, "name": "activation_97", "activation": "relu", "dtype": "float32"}, "name": "activation_97"}, {"inbound_nodes": [[["batch_normalization_49", 0, 0, {}]]], "class_name": "Activation", "config": {"trainable": true, "name": "activation_98", "activation": "relu", "dtype": "float32"}, "name": "activation_98"}, {"inbound_nodes": [[["activation_89", 0, 0, {}], ["activation_92", 0, 0, {}], ["activation_97", 0, 0, {}], ["activation_98", 0, 0, {}]]], "class_name": "Concatenate", "config": {"trainable": true, "name": "mixed5", "axis": 3, "dtype": "float32"}, "name": "mixed5"}, {"inbound_nodes": [[["mixed5", 0, 0, {}]]], "class_name": "Conv2D", "config": {"bias_regularizer": null, "bias_constraint": null, "trainable": true, "name": "conv2d_54", "dilation_rate": [1, 1], "use_bias": false, "filters": 160, "activity_regularizer": null, "activation": "linear", "padding": "same", "kernel_constraint": null, "data_format": "channels_last", "kernel_initializer": {"class_name": "VarianceScaling", "config": {"seed": null, "distribution": "uniform", "dtype": "float32", "scale": 1.0, "mode": "fan_avg"}}, "kernel_size": [1, 1], "kernel_regularizer": null, "dtype": "float32", "strides": [1, 1], "bias_initializer": {"class_name": "Zeros", "config": {"dtype": "float32"}}}, "name": "conv2d_54"}, {"inbound_nodes": [[["conv2d_54", 0, 0, {}]]], "class_name": "BatchNormalization", "config": {"moving_mean_initializer": {"class_name": "Zeros", "config": {"dtype": "float32"}}, "trainable": true, "name": "batch_normalization_54", "beta_regularizer": null, "gamma_regularizer": null, "moving_variance_initializer": {"class_name": "Ones", "config": {"dtype": "float32"}}, "gamma_initializer": {"class_name": "Ones", "config": {"dtype": "float32"}}, "beta_initializer": {"class_name": "Zeros", "config": {"dtype": "float32"}}, "epsilon": 0.001, "axis": [3], "gamma_constraint": null, "dtype": "float32", "scale": false, "center": true, "momentum": 0.99, "beta_constraint": null}, "name": "batch_normalization_54"}, {"inbound_nodes": [[["batch_normalization_54", 0, 0, {}]]], "class_name": "Activation", "config": {"trainable": true, "name": "activation_103", "activation": "relu", "dtype": "float32"}, "name": "activation_103"}, {"inbound_nodes": [[["activation_103", 0, 0, {}]]], "class_name": "Conv2D", "config": {"bias_regularizer": null, "bias_constraint": null, "trainable": true, "name": "conv2d_55", "dilation_rate": [1, 1], "use_bias": false, "filters": 160, "activity_regularizer": null, "activation": "linear", "padding": "same", "kernel_constraint": null, "data_format": "channels_last", "kernel_initializer": {"class_name": "VarianceScaling", "config": {"seed": null, "distribution": "uniform", "dtype": "float32", "scale": 1.0, "mode": "fan_avg"}}, "kernel_size": [7, 1], "kernel_regularizer": null, "dtype": "float32", "strides": [1, 1], "bias_initializer": {"class_name": "Zeros", "config": {"dtype": "float32"}}}, "name": "conv2d_55"}, {"inbound_nodes": [[["conv2d_55", 0, 0, {}]]], "class_name": "BatchNormalization", "config": {"moving_mean_initializer": {"class_name": "Zeros", "config": {"dtype": "float32"}}, "trainable": true, "name": "batch_normalization_55", "beta_regularizer": null, "gamma_regularizer": null, "moving_variance_initializer": {"class_name": "Ones", "config": {"dtype": "float32"}}, "gamma_initializer": {"class_name": "Ones", "config": {"dtype": "float32"}}, "beta_initializer": {"class_name": "Zeros", "config": {"dtype": "float32"}}, "epsilon": 0.001, "axis": [3], "gamma_constraint": null, "dtype": "float32", "scale": false, "center": true, "momentum": 0.99, "beta_constraint": null}, "name": "batch_normalization_55"}, {"inbound_nodes": [[["batch_normalization_55", 0, 0, {}]]], "class_name": "Activation", "config": {"trainable": true, "name": "activation_104", "activation": "relu", "dtype": "float32"}, "name": "activation_104"}, {"inbound_nodes": [[["mixed5", 0, 0, {}]]], "class_name": "Conv2D", "config": {"bias_regularizer": null, "bias_constraint": null, "trainable": true, "name": "conv2d_51", "dilation_rate": [1, 1], "use_bias": false, "filters": 160, "activity_regularizer": null, "activation": "linear", "padding": "same", "kernel_constraint": null, "data_format": "channels_last", "kernel_initializer": {"class_name": "VarianceScaling", "config": {"seed": null, "distribution": "uniform", "dtype": "float32", "scale": 1.0, "mode": "fan_avg"}}, "kernel_size": [1, 1], "kernel_regularizer": null, "dtype": "float32", "strides": [1, 1], "bias_initializer": {"class_name": "Zeros", "config": {"dtype": "float32"}}}, "name": "conv2d_51"}, {"inbound_nodes": [[["activation_104", 0, 0, {}]]], "class_name": "Conv2D", "config": {"bias_regularizer": null, "bias_constraint": null, "trainable": true, "name": "conv2d_56", "dilation_rate": [1, 1], "use_bias": false, "filters": 160, "activity_regularizer": null, "activation": "linear", "padding": "same", "kernel_constraint": null, "data_format": "channels_last", "kernel_initializer": {"class_name": "VarianceScaling", "config": {"seed": null, "distribution": "uniform", "dtype": "float32", "scale": 1.0, "mode": "fan_avg"}}, "kernel_size": [1, 7], "kernel_regularizer": null, "dtype": "float32", "strides": [1, 1], "bias_initializer": {"class_name": "Zeros", "config": {"dtype": "float32"}}}, "name": "conv2d_56"}, {"inbound_nodes": [[["conv2d_51", 0, 0, {}]]], "class_name": "BatchNormalization", "config": {"moving_mean_initializer": {"class_name": "Zeros", "config": {"dtype": "float32"}}, "trainable": true, "name": "batch_normalization_51", "beta_regularizer": null, "gamma_regularizer": null, "moving_variance_initializer": {"class_name": "Ones", "config": {"dtype": "float32"}}, "gamma_initializer": {"class_name": "Ones", "config": {"dtype": "float32"}}, "beta_initializer": {"class_name": "Zeros", "config": {"dtype": "float32"}}, "epsilon": 0.001, "axis": [3], "gamma_constraint": null, "dtype": "float32", "scale": false, "center": true, "momentum": 0.99, "beta_constraint": null}, "name": "batch_normalization_51"}, {"inbound_nodes": [[["conv2d_56", 0, 0, {}]]], "class_name": "BatchNormalization", "config": {"moving_mean_initializer": {"class_name": "Zeros", "config": {"dtype": "float32"}}, "trainable": true, "name": "batch_normalization_56", "beta_regularizer": null, "gamma_regularizer": null, "moving_variance_initializer": {"class_name": "Ones", "config": {"dtype": "float32"}}, "gamma_initializer": {"class_name": "Ones", "config": {"dtype": "float32"}}, "beta_initializer": {"class_name": "Zeros", "config": {"dtype": "float32"}}, "epsilon": 0.001, "axis": [3], "gamma_constraint": null, "dtype": "float32", "scale": false, "center": true, "momentum": 0.99, "beta_constraint": null}, "name": "batch_normalization_56"}, {"inbound_nodes": [[["batch_normalization_51", 0, 0, {}]]], "class_name": "Activation", "config": {"trainable": true, "name": "activation_100", "activation": "relu", "dtype": "float32"}, "name": "activation_100"}, {"inbound_nodes": [[["batch_normalization_56", 0, 0, {}]]], "class_name": "Activation", "config": {"trainable": true, "name": "activation_105", "activation": "relu", "dtype": "float32"}, "name": "activation_105"}, {"inbound_nodes": [[["activation_100", 0, 0, {}]]], "class_name": "Conv2D", "config": {"bias_regularizer": null, "bias_constraint": null, "trainable": true, "name": "conv2d_52", "dilation_rate": [1, 1], "use_bias": false, "filters": 160, "activity_regularizer": null, "activation": "linear", "padding": "same", "kernel_constraint": null, "data_format": "channels_last", "kernel_initializer": {"class_name": "VarianceScaling", "config": {"seed": null, "distribution": "uniform", "dtype": "float32", "scale": 1.0, "mode": "fan_avg"}}, "kernel_size": [1, 7], "kernel_regularizer": null, "dtype": "float32", "strides": [1, 1], "bias_initializer": {"class_name": "Zeros", "config": {"dtype": "float32"}}}, "name": "conv2d_52"}, {"inbound_nodes": [[["activation_105", 0, 0, {}]]], "class_name": "Conv2D", "config": {"bias_regularizer": null, "bias_constraint": null, "trainable": true, "name": "conv2d_57", "dilation_rate": [1, 1], "use_bias": false, "filters": 160, "activity_regularizer": null, "activation": "linear", "padding": "same", "kernel_constraint": null, "data_format": "channels_last", "kernel_initializer": {"class_name": "VarianceScaling", "config": {"seed": null, "distribution": "uniform", "dtype": "float32", "scale": 1.0, "mode": "fan_avg"}}, "kernel_size": [7, 1], "kernel_regularizer": null, "dtype": "float32", "strides": [1, 1], "bias_initializer": {"class_name": "Zeros", "config": {"dtype": "float32"}}}, "name": "conv2d_57"}, {"inbound_nodes": [[["conv2d_52", 0, 0, {}]]], "class_name": "BatchNormalization", "config": {"moving_mean_initializer": {"class_name": "Zeros", "config": {"dtype": "float32"}}, "trainable": true, "name": "batch_normalization_52", "beta_regularizer": null, "gamma_regularizer": null, "moving_variance_initializer": {"class_name": "Ones", "config": {"dtype": "float32"}}, "gamma_initializer": {"class_name": "Ones", "config": {"dtype": "float32"}}, "beta_initializer": {"class_name": "Zeros", "config": {"dtype": "float32"}}, "epsilon": 0.001, "axis": [3], "gamma_constraint": null, "dtype": "float32", "scale": false, "center": true, "momentum": 0.99, "beta_constraint": null}, "name": "batch_normalization_52"}, {"inbound_nodes": [[["conv2d_57", 0, 0, {}]]], "class_name": "BatchNormalization", "config": {"moving_mean_initializer": {"class_name": "Zeros", "config": {"dtype": "float32"}}, "trainable": true, "name": "batch_normalization_57", "beta_regularizer": null, "gamma_regularizer": null, "moving_variance_initializer": {"class_name": "Ones", "config": {"dtype": "float32"}}, "gamma_initializer": {"class_name": "Ones", "config": {"dtype": "float32"}}, "beta_initializer": {"class_name": "Zeros", "config": {"dtype": "float32"}}, "epsilon": 0.001, "axis": [3], "gamma_constraint": null, "dtype": "float32", "scale": false, "center": true, "momentum": 0.99, "beta_constraint": null}, "name": "batch_normalization_57"}, {"inbound_nodes": [[["batch_normalization_52", 0, 0, {}]]], "class_name": "Activation", "config": {"trainable": true, "name": "activation_101", "activation": "relu", "dtype": "float32"}, "name": "activation_101"}, {"inbound_nodes": [[["batch_normalization_57", 0, 0, {}]]], "class_name": "Activation", "config": {"trainable": true, "name": "activation_106", "activation": "relu", "dtype": "float32"}, "name": "activation_106"}, {"inbound_nodes": [[["mixed5", 0, 0, {}]]], "class_name": "AveragePooling2D", "config": {"trainable": true, "name": "average_pooling2d_5", "pool_size": [3, 3], "data_format": "channels_last", "strides": [1, 1], "dtype": "float32", "padding": "same"}, "name": "average_pooling2d_5"}, {"inbound_nodes": [[["mixed5", 0, 0, {}]]], "class_name": "Conv2D", "config": {"bias_regularizer": null, "bias_constraint": null, "trainable": true, "name": "conv2d_50", "dilation_rate": [1, 1], "use_bias": false, "filters": 192, "activity_regularizer": null, "activation": "linear", "padding": "same", "kernel_constraint": null, "data_format": "channels_last", "kernel_initializer": {"class_name": "VarianceScaling", "config": {"seed": null, "distribution": "uniform", "dtype": "float32", "scale": 1.0, "mode": "fan_avg"}}, "kernel_size": [1, 1], "kernel_regularizer": null, "dtype": "float32", "strides": [1, 1], "bias_initializer": {"class_name": "Zeros", "config": {"dtype": "float32"}}}, "name": "conv2d_50"}, {"inbound_nodes": [[["activation_101", 0, 0, {}]]], "class_name": "Conv2D", "config": {"bias_regularizer": null, "bias_constraint": null, "trainable": true, "name": "conv2d_53", "dilation_rate": [1, 1], "use_bias": false, "filters": 192, "activity_regularizer": null, "activation": "linear", "padding": "same", "kernel_constraint": null, "data_format": "channels_last", "kernel_initializer": {"class_name": "VarianceScaling", "config": {"seed": null, "distribution": "uniform", "dtype": "float32", "scale": 1.0, "mode": "fan_avg"}}, "kernel_size": [7, 1], "kernel_regularizer": null, "dtype": "float32", "strides": [1, 1], "bias_initializer": {"class_name": "Zeros", "config": {"dtype": "float32"}}}, "name": "conv2d_53"}, {"inbound_nodes": [[["activation_106", 0, 0, {}]]], "class_name": "Conv2D", "config": {"bias_regularizer": null, "bias_constraint": null, "trainable": true, "name": "conv2d_58", "dilation_rate": [1, 1], "use_bias": false, "filters": 192, "activity_regularizer": null, "activation": "linear", "padding": "same", "kernel_constraint": null, "data_format": "channels_last", "kernel_initializer": {"class_name": "VarianceScaling", "config": {"seed": null, "distribution": "uniform", "dtype": "float32", "scale": 1.0, "mode": "fan_avg"}}, "kernel_size": [1, 7], "kernel_regularizer": null, "dtype": "float32", "strides": [1, 1], "bias_initializer": {"class_name": "Zeros", "config": {"dtype": "float32"}}}, "name": "conv2d_58"}, {"inbound_nodes": [[["average_pooling2d_5", 0, 0, {}]]], "class_name": "Conv2D", "config": {"bias_regularizer": null, "bias_constraint": null, "trainable": true, "name": "conv2d_59", "dilation_rate": [1, 1], "use_bias": false, "filters": 192, "activity_regularizer": null, "activation": "linear", "padding": "same", "kernel_constraint": null, "data_format": "channels_last", "kernel_initializer": {"class_name": "VarianceScaling", "config": {"seed": null, "distribution": "uniform", "dtype": "float32", "scale": 1.0, "mode": "fan_avg"}}, "kernel_size": [1, 1], "kernel_regularizer": null, "dtype": "float32", "strides": [1, 1], "bias_initializer": {"class_name": "Zeros", "config": {"dtype": "float32"}}}, "name": "conv2d_59"}, {"inbound_nodes": [[["conv2d_50", 0, 0, {}]]], "class_name": "BatchNormalization", "config": {"moving_mean_initializer": {"class_name": "Zeros", "config": {"dtype": "float32"}}, "trainable": true, "name": "batch_normalization_50", "beta_regularizer": null, "gamma_regularizer": null, "moving_variance_initializer": {"class_name": "Ones", "config": {"dtype": "float32"}}, "gamma_initializer": {"class_name": "Ones", "config": {"dtype": "float32"}}, "beta_initializer": {"class_name": "Zeros", "config": {"dtype": "float32"}}, "epsilon": 0.001, "axis": [3], "gamma_constraint": null, "dtype": "float32", "scale": false, "center": true, "momentum": 0.99, "beta_constraint": null}, "name": "batch_normalization_50"}, {"inbound_nodes": [[["conv2d_53", 0, 0, {}]]], "class_name": "BatchNormalization", "config": {"moving_mean_initializer": {"class_name": "Zeros", "config": {"dtype": "float32"}}, "trainable": true, "name": "batch_normalization_53", "beta_regularizer": null, "gamma_regularizer": null, "moving_variance_initializer": {"class_name": "Ones", "config": {"dtype": "float32"}}, "gamma_initializer": {"class_name": "Ones", "config": {"dtype": "float32"}}, "beta_initializer": {"class_name": "Zeros", "config": {"dtype": "float32"}}, "epsilon": 0.001, "axis": [3], "gamma_constraint": null, "dtype": "float32", "scale": false, "center": true, "momentum": 0.99, "beta_constraint": null}, "name": "batch_normalization_53"}, {"inbound_nodes": [[["conv2d_58", 0, 0, {}]]], "class_name": "BatchNormalization", "config": {"moving_mean_initializer": {"class_name": "Zeros", "config": {"dtype": "float32"}}, "trainable": true, "name": "batch_normalization_58", "beta_regularizer": null, "gamma_regularizer": null, "moving_variance_initializer": {"class_name": "Ones", "config": {"dtype": "float32"}}, "gamma_initializer": {"class_name": "Ones", "config": {"dtype": "float32"}}, "beta_initializer": {"class_name": "Zeros", "config": {"dtype": "float32"}}, "epsilon": 0.001, "axis": [3], "gamma_constraint": null, "dtype": "float32", "scale": false, "center": true, "momentum": 0.99, "beta_constraint": null}, "name": "batch_normalization_58"}, {"inbound_nodes": [[["conv2d_59", 0, 0, {}]]], "class_name": "BatchNormalization", "config": {"moving_mean_initializer": {"class_name": "Zeros", "config": {"dtype": "float32"}}, "trainable": true, "name": "batch_normalization_59", "beta_regularizer": null, "gamma_regularizer": null, "moving_variance_initializer": {"class_name": "Ones", "config": {"dtype": "float32"}}, "gamma_initializer": {"class_name": "Ones", "config": {"dtype": "float32"}}, "beta_initializer": {"class_name": "Zeros", "config": {"dtype": "float32"}}, "epsilon": 0.001, "axis": [3], "gamma_constraint": null, "dtype": "float32", "scale": false, "center": true, "momentum": 0.99, "beta_constraint": null}, "name": "batch_normalization_59"}, {"inbound_nodes": [[["batch_normalization_50", 0, 0, {}]]], "class_name": "Activation", "config": {"trainable": true, "name": "activation_99", "activation": "relu", "dtype": "float32"}, "name": "activation_99"}, {"inbound_nodes": [[["batch_normalization_53", 0, 0, {}]]], "class_name": "Activation", "config": {"trainable": true, "name": "activation_102", "activation": "relu", "dtype": "float32"}, "name": "activation_102"}, {"inbound_nodes": [[["batch_normalization_58", 0, 0, {}]]], "class_name": "Activation", "config": {"trainable": true, "name": "activation_107", "activation": "relu", "dtype": "float32"}, "name": "activation_107"}, {"inbound_nodes": [[["batch_normalization_59", 0, 0, {}]]], "class_name": "Activation", "config": {"trainable": true, "name": "activation_108", "activation": "relu", "dtype": "float32"}, "name": "activation_108"}, {"inbound_nodes": [[["activation_99", 0, 0, {}], ["activation_102", 0, 0, {}], ["activation_107", 0, 0, {}], ["activation_108", 0, 0, {}]]], "class_name": "Concatenate", "config": {"trainable": true, "name": "mixed6", "axis": 3, "dtype": "float32"}, "name": "mixed6"}, {"inbound_nodes": [[["mixed6", 0, 0, {}]]], "class_name": "Conv2D", "config": {"bias_regularizer": null, "bias_constraint": null, "trainable": true, "name": "conv2d_64", "dilation_rate": [1, 1], "use_bias": false, "filters": 192, "activity_regularizer": null, "activation": "linear", "padding": "same", "kernel_constraint": null, "data_format": "channels_last", "kernel_initializer": {"class_name": "VarianceScaling", "config": {"seed": null, "distribution": "uniform", "dtype": "float32", "scale": 1.0, "mode": "fan_avg"}}, "kernel_size": [1, 1], "kernel_regularizer": null, "dtype": "float32", "strides": [1, 1], "bias_initializer": {"class_name": "Zeros", "config": {"dtype": "float32"}}}, "name": "conv2d_64"}, {"inbound_nodes": [[["conv2d_64", 0, 0, {}]]], "class_name": "BatchNormalization", "config": {"moving_mean_initializer": {"class_name": "Zeros", "config": {"dtype": "float32"}}, "trainable": true, "name": "batch_normalization_64", "beta_regularizer": null, "gamma_regularizer": null, "moving_variance_initializer": {"class_name": "Ones", "config": {"dtype": "float32"}}, "gamma_initializer": {"class_name": "Ones", "config": {"dtype": "float32"}}, "beta_initializer": {"class_name": "Zeros", "config": {"dtype": "float32"}}, "epsilon": 0.001, "axis": [3], "gamma_constraint": null, "dtype": "float32", "scale": false, "center": true, "momentum": 0.99, "beta_constraint": null}, "name": "batch_normalization_64"}, {"inbound_nodes": [[["batch_normalization_64", 0, 0, {}]]], "class_name": "Activation", "config": {"trainable": true, "name": "activation_113", "activation": "relu", "dtype": "float32"}, "name": "activation_113"}, {"inbound_nodes": [[["activation_113", 0, 0, {}]]], "class_name": "Conv2D", "config": {"bias_regularizer": null, "bias_constraint": null, "trainable": true, "name": "conv2d_65", "dilation_rate": [1, 1], "use_bias": false, "filters": 192, "activity_regularizer": null, "activation": "linear", "padding": "same", "kernel_constraint": null, "data_format": "channels_last", "kernel_initializer": {"class_name": "VarianceScaling", "config": {"seed": null, "distribution": "uniform", "dtype": "float32", "scale": 1.0, "mode": "fan_avg"}}, "kernel_size": [7, 1], "kernel_regularizer": null, "dtype": "float32", "strides": [1, 1], "bias_initializer": {"class_name": "Zeros", "config": {"dtype": "float32"}}}, "name": "conv2d_65"}, {"inbound_nodes": [[["conv2d_65", 0, 0, {}]]], "class_name": "BatchNormalization", "config": {"moving_mean_initializer": {"class_name": "Zeros", "config": {"dtype": "float32"}}, "trainable": true, "name": "batch_normalization_65", "beta_regularizer": null, "gamma_regularizer": null, "moving_variance_initializer": {"class_name": "Ones", "config": {"dtype": "float32"}}, "gamma_initializer": {"class_name": "Ones", "config": {"dtype": "float32"}}, "beta_initializer": {"class_name": "Zeros", "config": {"dtype": "float32"}}, "epsilon": 0.001, "axis": [3], "gamma_constraint": null, "dtype": "float32", "scale": false, "center": true, "momentum": 0.99, "beta_constraint": null}, "name": "batch_normalization_65"}, {"inbound_nodes": [[["batch_normalization_65", 0, 0, {}]]], "class_name": "Activation", "config": {"trainable": true, "name": "activation_114", "activation": "relu", "dtype": "float32"}, "name": "activation_114"}, {"inbound_nodes": [[["mixed6", 0, 0, {}]]], "class_name": "Conv2D", "config": {"bias_regularizer": null, "bias_constraint": null, "trainable": true, "name": "conv2d_61", "dilation_rate": [1, 1], "use_bias": false, "filters": 192, "activity_regularizer": null, "activation": "linear", "padding": "same", "kernel_constraint": null, "data_format": "channels_last", "kernel_initializer": {"class_name": "VarianceScaling", "config": {"seed": null, "distribution": "uniform", "dtype": "float32", "scale": 1.0, "mode": "fan_avg"}}, "kernel_size": [1, 1], "kernel_regularizer": null, "dtype": "float32", "strides": [1, 1], "bias_initializer": {"class_name": "Zeros", "config": {"dtype": "float32"}}}, "name": "conv2d_61"}, {"inbound_nodes": [[["activation_114", 0, 0, {}]]], "class_name": "Conv2D", "config": {"bias_regularizer": null, "bias_constraint": null, "trainable": true, "name": "conv2d_66", "dilation_rate": [1, 1], "use_bias": false, "filters": 192, "activity_regularizer": null, "activation": "linear", "padding": "same", "kernel_constraint": null, "data_format": "channels_last", "kernel_initializer": {"class_name": "VarianceScaling", "config": {"seed": null, "distribution": "uniform", "dtype": "float32", "scale": 1.0, "mode": "fan_avg"}}, "kernel_size": [1, 7], "kernel_regularizer": null, "dtype": "float32", "strides": [1, 1], "bias_initializer": {"class_name": "Zeros", "config": {"dtype": "float32"}}}, "name": "conv2d_66"}, {"inbound_nodes": [[["conv2d_61", 0, 0, {}]]], "class_name": "BatchNormalization", "config": {"moving_mean_initializer": {"class_name": "Zeros", "config": {"dtype": "float32"}}, "trainable": true, "name": "batch_normalization_61", "beta_regularizer": null, "gamma_regularizer": null, "moving_variance_initializer": {"class_name": "Ones", "config": {"dtype": "float32"}}, "gamma_initializer": {"class_name": "Ones", "config": {"dtype": "float32"}}, "beta_initializer": {"class_name": "Zeros", "config": {"dtype": "float32"}}, "epsilon": 0.001, "axis": [3], "gamma_constraint": null, "dtype": "float32", "scale": false, "center": true, "momentum": 0.99, "beta_constraint": null}, "name": "batch_normalization_61"}, {"inbound_nodes": [[["conv2d_66", 0, 0, {}]]], "class_name": "BatchNormalization", "config": {"moving_mean_initializer": {"class_name": "Zeros", "config": {"dtype": "float32"}}, "trainable": true, "name": "batch_normalization_66", "beta_regularizer": null, "gamma_regularizer": null, "moving_variance_initializer": {"class_name": "Ones", "config": {"dtype": "float32"}}, "gamma_initializer": {"class_name": "Ones", "config": {"dtype": "float32"}}, "beta_initializer": {"class_name": "Zeros", "config": {"dtype": "float32"}}, "epsilon": 0.001, "axis": [3], "gamma_constraint": null, "dtype": "float32", "scale": false, "center": true, "momentum": 0.99, "beta_constraint": null}, "name": "batch_normalization_66"}, {"inbound_nodes": [[["batch_normalization_61", 0, 0, {}]]], "class_name": "Activation", "config": {"trainable": true, "name": "activation_110", "activation": "relu", "dtype": "float32"}, "name": "activation_110"}, {"inbound_nodes": [[["batch_normalization_66", 0, 0, {}]]], "class_name": "Activation", "config": {"trainable": true, "name": "activation_115", "activation": "relu", "dtype": "float32"}, "name": "activation_115"}, {"inbound_nodes": [[["activation_110", 0, 0, {}]]], "class_name": "Conv2D", "config": {"bias_regularizer": null, "bias_constraint": null, "trainable": true, "name": "conv2d_62", "dilation_rate": [1, 1], "use_bias": false, "filters": 192, "activity_regularizer": null, "activation": "linear", "padding": "same", "kernel_constraint": null, "data_format": "channels_last", "kernel_initializer": {"class_name": "VarianceScaling", "config": {"seed": null, "distribution": "uniform", "dtype": "float32", "scale": 1.0, "mode": "fan_avg"}}, "kernel_size": [1, 7], "kernel_regularizer": null, "dtype": "float32", "strides": [1, 1], "bias_initializer": {"class_name": "Zeros", "config": {"dtype": "float32"}}}, "name": "conv2d_62"}, {"inbound_nodes": [[["activation_115", 0, 0, {}]]], "class_name": "Conv2D", "config": {"bias_regularizer": null, "bias_constraint": null, "trainable": true, "name": "conv2d_67", "dilation_rate": [1, 1], "use_bias": false, "filters": 192, "activity_regularizer": null, "activation": "linear", "padding": "same", "kernel_constraint": null, "data_format": "channels_last", "kernel_initializer": {"class_name": "VarianceScaling", "config": {"seed": null, "distribution": "uniform", "dtype": "float32", "scale": 1.0, "mode": "fan_avg"}}, "kernel_size": [7, 1], "kernel_regularizer": null, "dtype": "float32", "strides": [1, 1], "bias_initializer": {"class_name": "Zeros", "config": {"dtype": "float32"}}}, "name": "conv2d_67"}, {"inbound_nodes": [[["conv2d_62", 0, 0, {}]]], "class_name": "BatchNormalization", "config": {"moving_mean_initializer": {"class_name": "Zeros", "config": {"dtype": "float32"}}, "trainable": true, "name": "batch_normalization_62", "beta_regularizer": null, "gamma_regularizer": null, "moving_variance_initializer": {"class_name": "Ones", "config": {"dtype": "float32"}}, "gamma_initializer": {"class_name": "Ones", "config": {"dtype": "float32"}}, "beta_initializer": {"class_name": "Zeros", "config": {"dtype": "float32"}}, "epsilon": 0.001, "axis": [3], "gamma_constraint": null, "dtype": "float32", "scale": false, "center": true, "momentum": 0.99, "beta_constraint": null}, "name": "batch_normalization_62"}, {"inbound_nodes": [[["conv2d_67", 0, 0, {}]]], "class_name": "BatchNormalization", "config": {"moving_mean_initializer": {"class_name": "Zeros", "config": {"dtype": "float32"}}, "trainable": true, "name": "batch_normalization_67", "beta_regularizer": null, "gamma_regularizer": null, "moving_variance_initializer": {"class_name": "Ones", "config": {"dtype": "float32"}}, "gamma_initializer": {"class_name": "Ones", "config": {"dtype": "float32"}}, "beta_initializer": {"class_name": "Zeros", "config": {"dtype": "float32"}}, "epsilon": 0.001, "axis": [3], "gamma_constraint": null, "dtype": "float32", "scale": false, "center": true, "momentum": 0.99, "beta_constraint": null}, "name": "batch_normalization_67"}, {"inbound_nodes": [[["batch_normalization_62", 0, 0, {}]]], "class_name": "Activation", "config": {"trainable": true, "name": "activation_111", "activation": "relu", "dtype": "float32"}, "name": "activation_111"}, {"inbound_nodes": [[["batch_normalization_67", 0, 0, {}]]], "class_name": "Activation", "config": {"trainable": true, "name": "activation_116", "activation": "relu", "dtype": "float32"}, "name": "activation_116"}, {"inbound_nodes": [[["mixed6", 0, 0, {}]]], "class_name": "AveragePooling2D", "config": {"trainable": true, "name": "average_pooling2d_6", "pool_size": [3, 3], "data_format": "channels_last", "strides": [1, 1], "dtype": "float32", "padding": "same"}, "name": "average_pooling2d_6"}, {"inbound_nodes": [[["mixed6", 0, 0, {}]]], "class_name": "Conv2D", "config": {"bias_regularizer": null, "bias_constraint": null, "trainable": true, "name": "conv2d_60", "dilation_rate": [1, 1], "use_bias": false, "filters": 192, "activity_regularizer": null, "activation": "linear", "padding": "same", "kernel_constraint": null, "data_format": "channels_last", "kernel_initializer": {"class_name": "VarianceScaling", "config": {"seed": null, "distribution": "uniform", "dtype": "float32", "scale": 1.0, "mode": "fan_avg"}}, "kernel_size": [1, 1], "kernel_regularizer": null, "dtype": "float32", "strides": [1, 1], "bias_initializer": {"class_name": "Zeros", "config": {"dtype": "float32"}}}, "name": "conv2d_60"}, {"inbound_nodes": [[["activation_111", 0, 0, {}]]], "class_name": "Conv2D", "config": {"bias_regularizer": null, "bias_constraint": null, "trainable": true, "name": "conv2d_63", "dilation_rate": [1, 1], "use_bias": false, "filters": 192, "activity_regularizer": null, "activation": "linear", "padding": "same", "kernel_constraint": null, "data_format": "channels_last", "kernel_initializer": {"class_name": "VarianceScaling", "config": {"seed": null, "distribution": "uniform", "dtype": "float32", "scale": 1.0, "mode": "fan_avg"}}, "kernel_size": [7, 1], "kernel_regularizer": null, "dtype": "float32", "strides": [1, 1], "bias_initializer": {"class_name": "Zeros", "config": {"dtype": "float32"}}}, "name": "conv2d_63"}, {"inbound_nodes": [[["activation_116", 0, 0, {}]]], "class_name": "Conv2D", "config": {"bias_regularizer": null, "bias_constraint": null, "trainable": true, "name": "conv2d_68", "dilation_rate": [1, 1], "use_bias": false, "filters": 192, "activity_regularizer": null, "activation": "linear", "padding": "same", "kernel_constraint": null, "data_format": "channels_last", "kernel_initializer": {"class_name": "VarianceScaling", "config": {"seed": null, "distribution": "uniform", "dtype": "float32", "scale": 1.0, "mode": "fan_avg"}}, "kernel_size": [1, 7], "kernel_regularizer": null, "dtype": "float32", "strides": [1, 1], "bias_initializer": {"class_name": "Zeros", "config": {"dtype": "float32"}}}, "name": "conv2d_68"}, {"inbound_nodes": [[["average_pooling2d_6", 0, 0, {}]]], "class_name": "Conv2D", "config": {"bias_regularizer": null, "bias_constraint": null, "trainable": true, "name": "conv2d_69", "dilation_rate": [1, 1], "use_bias": false, "filters": 192, "activity_regularizer": null, "activation": "linear", "padding": "same", "kernel_constraint": null, "data_format": "channels_last", "kernel_initializer": {"class_name": "VarianceScaling", "config": {"seed": null, "distribution": "uniform", "dtype": "float32", "scale": 1.0, "mode": "fan_avg"}}, "kernel_size": [1, 1], "kernel_regularizer": null, "dtype": "float32", "strides": [1, 1], "bias_initializer": {"class_name": "Zeros", "config": {"dtype": "float32"}}}, "name": "conv2d_69"}, {"inbound_nodes": [[["conv2d_60", 0, 0, {}]]], "class_name": "BatchNormalization", "config": {"moving_mean_initializer": {"class_name": "Zeros", "config": {"dtype": "float32"}}, "trainable": true, "name": "batch_normalization_60", "beta_regularizer": null, "gamma_regularizer": null, "moving_variance_initializer": {"class_name": "Ones", "config": {"dtype": "float32"}}, "gamma_initializer": {"class_name": "Ones", "config": {"dtype": "float32"}}, "beta_initializer": {"class_name": "Zeros", "config": {"dtype": "float32"}}, "epsilon": 0.001, "axis": [3], "gamma_constraint": null, "dtype": "float32", "scale": false, "center": true, "momentum": 0.99, "beta_constraint": null}, "name": "batch_normalization_60"}, {"inbound_nodes": [[["conv2d_63", 0, 0, {}]]], "class_name": "BatchNormalization", "config": {"moving_mean_initializer": {"class_name": "Zeros", "config": {"dtype": "float32"}}, "trainable": true, "name": "batch_normalization_63", "beta_regularizer": null, "gamma_regularizer": null, "moving_variance_initializer": {"class_name": "Ones", "config": {"dtype": "float32"}}, "gamma_initializer": {"class_name": "Ones", "config": {"dtype": "float32"}}, "beta_initializer": {"class_name": "Zeros", "config": {"dtype": "float32"}}, "epsilon": 0.001, "axis": [3], "gamma_constraint": null, "dtype": "float32", "scale": false, "center": true, "momentum": 0.99, "beta_constraint": null}, "name": "batch_normalization_63"}, {"inbound_nodes": [[["conv2d_68", 0, 0, {}]]], "class_name": "BatchNormalization", "config": {"moving_mean_initializer": {"class_name": "Zeros", "config": {"dtype": "float32"}}, "trainable": true, "name": "batch_normalization_68", "beta_regularizer": null, "gamma_regularizer": null, "moving_variance_initializer": {"class_name": "Ones", "config": {"dtype": "float32"}}, "gamma_initializer": {"class_name": "Ones", "config": {"dtype": "float32"}}, "beta_initializer": {"class_name": "Zeros", "config": {"dtype": "float32"}}, "epsilon": 0.001, "axis": [3], "gamma_constraint": null, "dtype": "float32", "scale": false, "center": true, "momentum": 0.99, "beta_constraint": null}, "name": "batch_normalization_68"}, {"inbound_nodes": [[["conv2d_69", 0, 0, {}]]], "class_name": "BatchNormalization", "config": {"moving_mean_initializer": {"class_name": "Zeros", "config": {"dtype": "float32"}}, "trainable": true, "name": "batch_normalization_69", "beta_regularizer": null, "gamma_regularizer": null, "moving_variance_initializer": {"class_name": "Ones", "config": {"dtype": "float32"}}, "gamma_initializer": {"class_name": "Ones", "config": {"dtype": "float32"}}, "beta_initializer": {"class_name": "Zeros", "config": {"dtype": "float32"}}, "epsilon": 0.001, "axis": [3], "gamma_constraint": null, "dtype": "float32", "scale": false, "center": true, "momentum": 0.99, "beta_constraint": null}, "name": "batch_normalization_69"}, {"inbound_nodes": [[["batch_normalization_60", 0, 0, {}]]], "class_name": "Activation", "config": {"trainable": true, "name": "activation_109", "activation": "relu", "dtype": "float32"}, "name": "activation_109"}, {"inbound_nodes": [[["batch_normalization_63", 0, 0, {}]]], "class_name": "Activation", "config": {"trainable": true, "name": "activation_112", "activation": "relu", "dtype": "float32"}, "name": "activation_112"}, {"inbound_nodes": [[["batch_normalization_68", 0, 0, {}]]], "class_name": "Activation", "config": {"trainable": true, "name": "activation_117", "activation": "relu", "dtype": "float32"}, "name": "activation_117"}, {"inbound_nodes": [[["batch_normalization_69", 0, 0, {}]]], "class_name": "Activation", "config": {"trainable": true, "name": "activation_118", "activation": "relu", "dtype": "float32"}, "name": "activation_118"}, {"inbound_nodes": [[["activation_109", 0, 0, {}], ["activation_112", 0, 0, {}], ["activation_117", 0, 0, {}], ["activation_118", 0, 0, {}]]], "class_name": "Concatenate", "config": {"trainable": true, "name": "mixed7", "axis": 3, "dtype": "float32"}, "name": "mixed7"}, {"inbound_nodes": [[["mixed7", 0, 0, {}]]], "class_name": "Conv2D", "config": {"bias_regularizer": null, "bias_constraint": null, "trainable": true, "name": "conv2d_72", "dilation_rate": [1, 1], "use_bias": false, "filters": 192, "activity_regularizer": null, "activation": "linear", "padding": "same", "kernel_constraint": null, "data_format": "channels_last", "kernel_initializer": {"class_name": "VarianceScaling", "config": {"seed": null, "distribution": "uniform", "dtype": "float32", "scale": 1.0, "mode": "fan_avg"}}, "kernel_size": [1, 1], "kernel_regularizer": null, "dtype": "float32", "strides": [1, 1], "bias_initializer": {"class_name": "Zeros", "config": {"dtype": "float32"}}}, "name": "conv2d_72"}, {"inbound_nodes": [[["conv2d_72", 0, 0, {}]]], "class_name": "BatchNormalization", "config": {"moving_mean_initializer": {"class_name": "Zeros", "config": {"dtype": "float32"}}, "trainable": true, "name": "batch_normalization_72", "beta_regularizer": null, "gamma_regularizer": null, "moving_variance_initializer": {"class_name": "Ones", "config": {"dtype": "float32"}}, "gamma_initializer": {"class_name": "Ones", "config": {"dtype": "float32"}}, "beta_initializer": {"class_name": "Zeros", "config": {"dtype": "float32"}}, "epsilon": 0.001, "axis": [3], "gamma_constraint": null, "dtype": "float32", "scale": false, "center": true, "momentum": 0.99, "beta_constraint": null}, "name": "batch_normalization_72"}, {"inbound_nodes": [[["batch_normalization_72", 0, 0, {}]]], "class_name": "Activation", "config": {"trainable": true, "name": "activation_121", "activation": "relu", "dtype": "float32"}, "name": "activation_121"}, {"inbound_nodes": [[["activation_121", 0, 0, {}]]], "class_name": "Conv2D", "config": {"bias_regularizer": null, "bias_constraint": null, "trainable": true, "name": "conv2d_73", "dilation_rate": [1, 1], "use_bias": false, "filters": 192, "activity_regularizer": null, "activation": "linear", "padding": "same", "kernel_constraint": null, "data_format": "channels_last", "kernel_initializer": {"class_name": "VarianceScaling", "config": {"seed": null, "distribution": "uniform", "dtype": "float32", "scale": 1.0, "mode": "fan_avg"}}, "kernel_size": [1, 7], "kernel_regularizer": null, "dtype": "float32", "strides": [1, 1], "bias_initializer": {"class_name": "Zeros", "config": {"dtype": "float32"}}}, "name": "conv2d_73"}, {"inbound_nodes": [[["conv2d_73", 0, 0, {}]]], "class_name": "BatchNormalization", "config": {"moving_mean_initializer": {"class_name": "Zeros", "config": {"dtype": "float32"}}, "trainable": true, "name": "batch_normalization_73", "beta_regularizer": null, "gamma_regularizer": null, "moving_variance_initializer": {"class_name": "Ones", "config": {"dtype": "float32"}}, "gamma_initializer": {"class_name": "Ones", "config": {"dtype": "float32"}}, "beta_initializer": {"class_name": "Zeros", "config": {"dtype": "float32"}}, "epsilon": 0.001, "axis": [3], "gamma_constraint": null, "dtype": "float32", "scale": false, "center": true, "momentum": 0.99, "beta_constraint": null}, "name": "batch_normalization_73"}, {"inbound_nodes": [[["batch_normalization_73", 0, 0, {}]]], "class_name": "Activation", "config": {"trainable": true, "name": "activation_122", "activation": "relu", "dtype": "float32"}, "name": "activation_122"}, {"inbound_nodes": [[["mixed7", 0, 0, {}]]], "class_name": "Conv2D", "config": {"bias_regularizer": null, "bias_constraint": null, "trainable": true, "name": "conv2d_70", "dilation_rate": [1, 1], "use_bias": false, "filters": 192, "activity_regularizer": null, "activation": "linear", "padding": "same", "kernel_constraint": null, "data_format": "channels_last", "kernel_initializer": {"class_name": "VarianceScaling", "config": {"seed": null, "distribution": "uniform", "dtype": "float32", "scale": 1.0, "mode": "fan_avg"}}, "kernel_size": [1, 1], "kernel_regularizer": null, "dtype": "float32", "strides": [1, 1], "bias_initializer": {"class_name": "Zeros", "config": {"dtype": "float32"}}}, "name": "conv2d_70"}, {"inbound_nodes": [[["activation_122", 0, 0, {}]]], "class_name": "Conv2D", "config": {"bias_regularizer": null, "bias_constraint": null, "trainable": true, "name": "conv2d_74", "dilation_rate": [1, 1], "use_bias": false, "filters": 192, "activity_regularizer": null, "activation": "linear", "padding": "same", "kernel_constraint": null, "data_format": "channels_last", "kernel_initializer": {"class_name": "VarianceScaling", "config": {"seed": null, "distribution": "uniform", "dtype": "float32", "scale": 1.0, "mode": "fan_avg"}}, "kernel_size": [7, 1], "kernel_regularizer": null, "dtype": "float32", "strides": [1, 1], "bias_initializer": {"class_name": "Zeros", "config": {"dtype": "float32"}}}, "name": "conv2d_74"}, {"inbound_nodes": [[["conv2d_70", 0, 0, {}]]], "class_name": "BatchNormalization", "config": {"moving_mean_initializer": {"class_name": "Zeros", "config": {"dtype": "float32"}}, "trainable": true, "name": "batch_normalization_70", "beta_regularizer": null, "gamma_regularizer": null, "moving_variance_initializer": {"class_name": "Ones", "config": {"dtype": "float32"}}, "gamma_initializer": {"class_name": "Ones", "config": {"dtype": "float32"}}, "beta_initializer": {"class_name": "Zeros", "config": {"dtype": "float32"}}, "epsilon": 0.001, "axis": [3], "gamma_constraint": null, "dtype": "float32", "scale": false, "center": true, "momentum": 0.99, "beta_constraint": null}, "name": "batch_normalization_70"}, {"inbound_nodes": [[["conv2d_74", 0, 0, {}]]], "class_name": "BatchNormalization", "config": {"moving_mean_initializer": {"class_name": "Zeros", "config": {"dtype": "float32"}}, "trainable": true, "name": "batch_normalization_74", "beta_regularizer": null, "gamma_regularizer": null, "moving_variance_initializer": {"class_name": "Ones", "config": {"dtype": "float32"}}, "gamma_initializer": {"class_name": "Ones", "config": {"dtype": "float32"}}, "beta_initializer": {"class_name": "Zeros", "config": {"dtype": "float32"}}, "epsilon": 0.001, "axis": [3], "gamma_constraint": null, "dtype": "float32", "scale": false, "center": true, "momentum": 0.99, "beta_constraint": null}, "name": "batch_normalization_74"}, {"inbound_nodes": [[["batch_normalization_70", 0, 0, {}]]], "class_name": "Activation", "config": {"trainable": true, "name": "activation_119", "activation": "relu", "dtype": "float32"}, "name": "activation_119"}, {"inbound_nodes": [[["batch_normalization_74", 0, 0, {}]]], "class_name": "Activation", "config": {"trainable": true, "name": "activation_123", "activation": "relu", "dtype": "float32"}, "name": "activation_123"}, {"inbound_nodes": [[["activation_119", 0, 0, {}]]], "class_name": "Conv2D", "config": {"bias_regularizer": null, "bias_constraint": null, "trainable": true, "name": "conv2d_71", "dilation_rate": [1, 1], "use_bias": false, "filters": 320, "activity_regularizer": null, "activation": "linear", "padding": "valid", "kernel_constraint": null, "data_format": "channels_last", "kernel_initializer": {"class_name": "VarianceScaling", "config": {"seed": null, "distribution": "uniform", "dtype": "float32", "scale": 1.0, "mode": "fan_avg"}}, "kernel_size": [3, 3], "kernel_regularizer": null, "dtype": "float32", "strides": [2, 2], "bias_initializer": {"class_name": "Zeros", "config": {"dtype": "float32"}}}, "name": "conv2d_71"}, {"inbound_nodes": [[["activation_123", 0, 0, {}]]], "class_name": "Conv2D", "config": {"bias_regularizer": null, "bias_constraint": null, "trainable": true, "name": "conv2d_75", "dilation_rate": [1, 1], "use_bias": false, "filters": 192, "activity_regularizer": null, "activation": "linear", "padding": "valid", "kernel_constraint": null, "data_format": "channels_last", "kernel_initializer": {"class_name": "VarianceScaling", "config": {"seed": null, "distribution": "uniform", "dtype": "float32", "scale": 1.0, "mode": "fan_avg"}}, "kernel_size": [3, 3], "kernel_regularizer": null, "dtype": "float32", "strides": [2, 2], "bias_initializer": {"class_name": "Zeros", "config": {"dtype": "float32"}}}, "name": "conv2d_75"}, {"inbound_nodes": [[["conv2d_71", 0, 0, {}]]], "class_name": "BatchNormalization", "config": {"moving_mean_initializer": {"class_name": "Zeros", "config": {"dtype": "float32"}}, "trainable": true, "name": "batch_normalization_71", "beta_regularizer": null, "gamma_regularizer": null, "moving_variance_initializer": {"class_name": "Ones", "config": {"dtype": "float32"}}, "gamma_initializer": {"class_name": "Ones", "config": {"dtype": "float32"}}, "beta_initializer": {"class_name": "Zeros", "config": {"dtype": "float32"}}, "epsilon": 0.001, "axis": [3], "gamma_constraint": null, "dtype": "float32", "scale": false, "center": true, "momentum": 0.99, "beta_constraint": null}, "name": "batch_normalization_71"}, {"inbound_nodes": [[["conv2d_75", 0, 0, {}]]], "class_name": "BatchNormalization", "config": {"moving_mean_initializer": {"class_name": "Zeros", "config": {"dtype": "float32"}}, "trainable": true, "name": "batch_normalization_75", "beta_regularizer": null, "gamma_regularizer": null, "moving_variance_initializer": {"class_name": "Ones", "config": {"dtype": "float32"}}, "gamma_initializer": {"class_name": "Ones", "config": {"dtype": "float32"}}, "beta_initializer": {"class_name": "Zeros", "config": {"dtype": "float32"}}, "epsilon": 0.001, "axis": [3], "gamma_constraint": null, "dtype": "float32", "scale": false, "center": true, "momentum": 0.99, "beta_constraint": null}, "name": "batch_normalization_75"}, {"inbound_nodes": [[["batch_normalization_71", 0, 0, {}]]], "class_name": "Activation", "config": {"trainable": true, "name": "activation_120", "activation": "relu", "dtype": "float32"}, "name": "activation_120"}, {"inbound_nodes": [[["batch_normalization_75", 0, 0, {}]]], "class_name": "Activation", "config": {"trainable": true, "name": "activation_124", "activation": "relu", "dtype": "float32"}, "name": "activation_124"}, {"inbound_nodes": [[["mixed7", 0, 0, {}]]], "class_name": "MaxPooling2D", "config": {"trainable": true, "name": "max_pooling2d_4", "pool_size": [3, 3], "data_format": "channels_last", "strides": [2, 2], "dtype": "float32", "padding": "valid"}, "name": "max_pooling2d_4"}, {"inbound_nodes": [[["activation_120", 0, 0, {}], ["activation_124", 0, 0, {}], ["max_pooling2d_4", 0, 0, {}]]], "class_name": "Concatenate", "config": {"trainable": true, "name": "mixed8", "axis": 3, "dtype": "float32"}, "name": "mixed8"}, {"inbound_nodes": [[["mixed8", 0, 0, {}]]], "class_name": "Conv2D", "config": {"bias_regularizer": null, "bias_constraint": null, "trainable": true, "name": "conv2d_80", "dilation_rate": [1, 1], "use_bias": false, "filters": 448, "activity_regularizer": null, "activation": "linear", "padding": "same", "kernel_constraint": null, "data_format": "channels_last", "kernel_initializer": {"class_name": "VarianceScaling", "config": {"seed": null, "distribution": "uniform", "dtype": "float32", "scale": 1.0, "mode": "fan_avg"}}, "kernel_size": [1, 1], "kernel_regularizer": null, "dtype": "float32", "strides": [1, 1], "bias_initializer": {"class_name": "Zeros", "config": {"dtype": "float32"}}}, "name": "conv2d_80"}, {"inbound_nodes": [[["conv2d_80", 0, 0, {}]]], "class_name": "BatchNormalization", "config": {"moving_mean_initializer": {"class_name": "Zeros", "config": {"dtype": "float32"}}, "trainable": true, "name": "batch_normalization_80", "beta_regularizer": null, "gamma_regularizer": null, "moving_variance_initializer": {"class_name": "Ones", "config": {"dtype": "float32"}}, "gamma_initializer": {"class_name": "Ones", "config": {"dtype": "float32"}}, "beta_initializer": {"class_name": "Zeros", "config": {"dtype": "float32"}}, "epsilon": 0.001, "axis": [3], "gamma_constraint": null, "dtype": "float32", "scale": false, "center": true, "momentum": 0.99, "beta_constraint": null}, "name": "batch_normalization_80"}, {"inbound_nodes": [[["batch_normalization_80", 0, 0, {}]]], "class_name": "Activation", "config": {"trainable": true, "name": "activation_129", "activation": "relu", "dtype": "float32"}, "name": "activation_129"}, {"inbound_nodes": [[["mixed8", 0, 0, {}]]], "class_name": "Conv2D", "config": {"bias_regularizer": null, "bias_constraint": null, "trainable": true, "name": "conv2d_77", "dilation_rate": [1, 1], "use_bias": false, "filters": 384, "activity_regularizer": null, "activation": "linear", "padding": "same", "kernel_constraint": null, "data_format": "channels_last", "kernel_initializer": {"class_name": "VarianceScaling", "config": {"seed": null, "distribution": "uniform", "dtype": "float32", "scale": 1.0, "mode": "fan_avg"}}, "kernel_size": [1, 1], "kernel_regularizer": null, "dtype": "float32", "strides": [1, 1], "bias_initializer": {"class_name": "Zeros", "config": {"dtype": "float32"}}}, "name": "conv2d_77"}, {"inbound_nodes": [[["activation_129", 0, 0, {}]]], "class_name": "Conv2D", "config": {"bias_regularizer": null, "bias_constraint": null, "trainable": true, "name": "conv2d_81", "dilation_rate": [1, 1], "use_bias": false, "filters": 384, "activity_regularizer": null, "activation": "linear", "padding": "same", "kernel_constraint": null, "data_format": "channels_last", "kernel_initializer": {"class_name": "VarianceScaling", "config": {"seed": null, "distribution": "uniform", "dtype": "float32", "scale": 1.0, "mode": "fan_avg"}}, "kernel_size": [3, 3], "kernel_regularizer": null, "dtype": "float32", "strides": [1, 1], "bias_initializer": {"class_name": "Zeros", "config": {"dtype": "float32"}}}, "name": "conv2d_81"}, {"inbound_nodes": [[["conv2d_77", 0, 0, {}]]], "class_name": "BatchNormalization", "config": {"moving_mean_initializer": {"class_name": "Zeros", "config": {"dtype": "float32"}}, "trainable": true, "name": "batch_normalization_77", "beta_regularizer": null, "gamma_regularizer": null, "moving_variance_initializer": {"class_name": "Ones", "config": {"dtype": "float32"}}, "gamma_initializer": {"class_name": "Ones", "config": {"dtype": "float32"}}, "beta_initializer": {"class_name": "Zeros", "config": {"dtype": "float32"}}, "epsilon": 0.001, "axis": [3], "gamma_constraint": null, "dtype": "float32", "scale": false, "center": true, "momentum": 0.99, "beta_constraint": null}, "name": "batch_normalization_77"}, {"inbound_nodes": [[["conv2d_81", 0, 0, {}]]], "class_name": "BatchNormalization", "config": {"moving_mean_initializer": {"class_name": "Zeros", "config": {"dtype": "float32"}}, "trainable": true, "name": "batch_normalization_81", "beta_regularizer": null, "gamma_regularizer": null, "moving_variance_initializer": {"class_name": "Ones", "config": {"dtype": "float32"}}, "gamma_initializer": {"class_name": "Ones", "config": {"dtype": "float32"}}, "beta_initializer": {"class_name": "Zeros", "config": {"dtype": "float32"}}, "epsilon": 0.001, "axis": [3], "gamma_constraint": null, "dtype": "float32", "scale": false, "center": true, "momentum": 0.99, "beta_constraint": null}, "name": "batch_normalization_81"}, {"inbound_nodes": [[["batch_normalization_77", 0, 0, {}]]], "class_name": "Activation", "config": {"trainable": true, "name": "activation_126", "activation": "relu", "dtype": "float32"}, "name": "activation_126"}, {"inbound_nodes": [[["batch_normalization_81", 0, 0, {}]]], "class_name": "Activation", "config": {"trainable": true, "name": "activation_130", "activation": "relu", "dtype": "float32"}, "name": "activation_130"}, {"inbound_nodes": [[["activation_126", 0, 0, {}]]], "class_name": "Conv2D", "config": {"bias_regularizer": null, "bias_constraint": null, "trainable": true, "name": "conv2d_78", "dilation_rate": [1, 1], "use_bias": false, "filters": 384, "activity_regularizer": null, "activation": "linear", "padding": "same", "kernel_constraint": null, "data_format": "channels_last", "kernel_initializer": {"class_name": "VarianceScaling", "config": {"seed": null, "distribution": "uniform", "dtype": "float32", "scale": 1.0, "mode": "fan_avg"}}, "kernel_size": [1, 3], "kernel_regularizer": null, "dtype": "float32", "strides": [1, 1], "bias_initializer": {"class_name": "Zeros", "config": {"dtype": "float32"}}}, "name": "conv2d_78"}, {"inbound_nodes": [[["activation_126", 0, 0, {}]]], "class_name": "Conv2D", "config": {"bias_regularizer": null, "bias_constraint": null, "trainable": true, "name": "conv2d_79", "dilation_rate": [1, 1], "use_bias": false, "filters": 384, "activity_regularizer": null, "activation": "linear", "padding": "same", "kernel_constraint": null, "data_format": "channels_last", "kernel_initializer": {"class_name": "VarianceScaling", "config": {"seed": null, "distribution": "uniform", "dtype": "float32", "scale": 1.0, "mode": "fan_avg"}}, "kernel_size": [3, 1], "kernel_regularizer": null, "dtype": "float32", "strides": [1, 1], "bias_initializer": {"class_name": "Zeros", "config": {"dtype": "float32"}}}, "name": "conv2d_79"}, {"inbound_nodes": [[["activation_130", 0, 0, {}]]], "class_name": "Conv2D", "config": {"bias_regularizer": null, "bias_constraint": null, "trainable": true, "name": "conv2d_82", "dilation_rate": [1, 1], "use_bias": false, "filters": 384, "activity_regularizer": null, "activation": "linear", "padding": "same", "kernel_constraint": null, "data_format": "channels_last", "kernel_initializer": {"class_name": "VarianceScaling", "config": {"seed": null, "distribution": "uniform", "dtype": "float32", "scale": 1.0, "mode": "fan_avg"}}, "kernel_size": [1, 3], "kernel_regularizer": null, "dtype": "float32", "strides": [1, 1], "bias_initializer": {"class_name": "Zeros", "config": {"dtype": "float32"}}}, "name": "conv2d_82"}, {"inbound_nodes": [[["activation_130", 0, 0, {}]]], "class_name": "Conv2D", "config": {"bias_regularizer": null, "bias_constraint": null, "trainable": true, "name": "conv2d_83", "dilation_rate": [1, 1], "use_bias": false, "filters": 384, "activity_regularizer": null, "activation": "linear", "padding": "same", "kernel_constraint": null, "data_format": "channels_last", "kernel_initializer": {"class_name": "VarianceScaling", "config": {"seed": null, "distribution": "uniform", "dtype": "float32", "scale": 1.0, "mode": "fan_avg"}}, "kernel_size": [3, 1], "kernel_regularizer": null, "dtype": "float32", "strides": [1, 1], "bias_initializer": {"class_name": "Zeros", "config": {"dtype": "float32"}}}, "name": "conv2d_83"}, {"inbound_nodes": [[["mixed8", 0, 0, {}]]], "class_name": "AveragePooling2D", "config": {"trainable": true, "name": "average_pooling2d_7", "pool_size": [3, 3], "data_format": "channels_last", "strides": [1, 1], "dtype": "float32", "padding": "same"}, "name": "average_pooling2d_7"}, {"inbound_nodes": [[["mixed8", 0, 0, {}]]], "class_name": "Conv2D", "config": {"bias_regularizer": null, "bias_constraint": null, "trainable": true, "name": "conv2d_76", "dilation_rate": [1, 1], "use_bias": false, "filters": 320, "activity_regularizer": null, "activation": "linear", "padding": "same", "kernel_constraint": null, "data_format": "channels_last", "kernel_initializer": {"class_name": "VarianceScaling", "config": {"seed": null, "distribution": "uniform", "dtype": "float32", "scale": 1.0, "mode": "fan_avg"}}, "kernel_size": [1, 1], "kernel_regularizer": null, "dtype": "float32", "strides": [1, 1], "bias_initializer": {"class_name": "Zeros", "config": {"dtype": "float32"}}}, "name": "conv2d_76"}, {"inbound_nodes": [[["conv2d_78", 0, 0, {}]]], "class_name": "BatchNormalization", "config": {"moving_mean_initializer": {"class_name": "Zeros", "config": {"dtype": "float32"}}, "trainable": true, "name": "batch_normalization_78", "beta_regularizer": null, "gamma_regularizer": null, "moving_variance_initializer": {"class_name": "Ones", "config": {"dtype": "float32"}}, "gamma_initializer": {"class_name": "Ones", "config": {"dtype": "float32"}}, "beta_initializer": {"class_name": "Zeros", "config": {"dtype": "float32"}}, "epsilon": 0.001, "axis": [3], "gamma_constraint": null, "dtype": "float32", "scale": false, "center": true, "momentum": 0.99, "beta_constraint": null}, "name": "batch_normalization_78"}, {"inbound_nodes": [[["conv2d_79", 0, 0, {}]]], "class_name": "BatchNormalization", "config": {"moving_mean_initializer": {"class_name": "Zeros", "config": {"dtype": "float32"}}, "trainable": true, "name": "batch_normalization_79", "beta_regularizer": null, "gamma_regularizer": null, "moving_variance_initializer": {"class_name": "Ones", "config": {"dtype": "float32"}}, "gamma_initializer": {"class_name": "Ones", "config": {"dtype": "float32"}}, "beta_initializer": {"class_name": "Zeros", "config": {"dtype": "float32"}}, "epsilon": 0.001, "axis": [3], "gamma_constraint": null, "dtype": "float32", "scale": false, "center": true, "momentum": 0.99, "beta_constraint": null}, "name": "batch_normalization_79"}, {"inbound_nodes": [[["conv2d_82", 0, 0, {}]]], "class_name": "BatchNormalization", "config": {"moving_mean_initializer": {"class_name": "Zeros", "config": {"dtype": "float32"}}, "trainable": true, "name": "batch_normalization_82", "beta_regularizer": null, "gamma_regularizer": null, "moving_variance_initializer": {"class_name": "Ones", "config": {"dtype": "float32"}}, "gamma_initializer": {"class_name": "Ones", "config": {"dtype": "float32"}}, "beta_initializer": {"class_name": "Zeros", "config": {"dtype": "float32"}}, "epsilon": 0.001, "axis": [3], "gamma_constraint": null, "dtype": "float32", "scale": false, "center": true, "momentum": 0.99, "beta_constraint": null}, "name": "batch_normalization_82"}, {"inbound_nodes": [[["conv2d_83", 0, 0, {}]]], "class_name": "BatchNormalization", "config": {"moving_mean_initializer": {"class_name": "Zeros", "config": {"dtype": "float32"}}, "trainable": true, "name": "batch_normalization_83", "beta_regularizer": null, "gamma_regularizer": null, "moving_variance_initializer": {"class_name": "Ones", "config": {"dtype": "float32"}}, "gamma_initializer": {"class_name": "Ones", "config": {"dtype": "float32"}}, "beta_initializer": {"class_name": "Zeros", "config": {"dtype": "float32"}}, "epsilon": 0.001, "axis": [3], "gamma_constraint": null, "dtype": "float32", "scale": false, "center": true, "momentum": 0.99, "beta_constraint": null}, "name": "batch_normalization_83"}, {"inbound_nodes": [[["average_pooling2d_7", 0, 0, {}]]], "class_name": "Conv2D", "config": {"bias_regularizer": null, "bias_constraint": null, "trainable": true, "name": "conv2d_84", "dilation_rate": [1, 1], "use_bias": false, "filters": 192, "activity_regularizer": null, "activation": "linear", "padding": "same", "kernel_constraint": null, "data_format": "channels_last", "kernel_initializer": {"class_name": "VarianceScaling", "config": {"seed": null, "distribution": "uniform", "dtype": "float32", "scale": 1.0, "mode": "fan_avg"}}, "kernel_size": [1, 1], "kernel_regularizer": null, "dtype": "float32", "strides": [1, 1], "bias_initializer": {"class_name": "Zeros", "config": {"dtype": "float32"}}}, "name": "conv2d_84"}, {"inbound_nodes": [[["conv2d_76", 0, 0, {}]]], "class_name": "BatchNormalization", "config": {"moving_mean_initializer": {"class_name": "Zeros", "config": {"dtype": "float32"}}, "trainable": true, "name": "batch_normalization_76", "beta_regularizer": null, "gamma_regularizer": null, "moving_variance_initializer": {"class_name": "Ones", "config": {"dtype": "float32"}}, "gamma_initializer": {"class_name": "Ones", "config": {"dtype": "float32"}}, "beta_initializer": {"class_name": "Zeros", "config": {"dtype": "float32"}}, "epsilon": 0.001, "axis": [3], "gamma_constraint": null, "dtype": "float32", "scale": false, "center": true, "momentum": 0.99, "beta_constraint": null}, "name": "batch_normalization_76"}, {"inbound_nodes": [[["batch_normalization_78", 0, 0, {}]]], "class_name": "Activation", "config": {"trainable": true, "name": "activation_127", "activation": "relu", "dtype": "float32"}, "name": "activation_127"}, {"inbound_nodes": [[["batch_normalization_79", 0, 0, {}]]], "class_name": "Activation", "config": {"trainable": true, "name": "activation_128", "activation": "relu", "dtype": "float32"}, "name": "activation_128"}, {"inbound_nodes": [[["batch_normalization_82", 0, 0, {}]]], "class_name": "Activation", "config": {"trainable": true, "name": "activation_131", "activation": "relu", "dtype": "float32"}, "name": "activation_131"}, {"inbound_nodes": [[["batch_normalization_83", 0, 0, {}]]], "class_name": "Activation", "config": {"trainable": true, "name": "activation_132", "activation": "relu", "dtype": "float32"}, "name": "activation_132"}, {"inbound_nodes": [[["conv2d_84", 0, 0, {}]]], "class_name": "BatchNormalization", "config": {"moving_mean_initializer": {"class_name": "Zeros", "config": {"dtype": "float32"}}, "trainable": true, "name": "batch_normalization_84", "beta_regularizer": null, "gamma_regularizer": null, "moving_variance_initializer": {"class_name": "Ones", "config": {"dtype": "float32"}}, "gamma_initializer": {"class_name": "Ones", "config": {"dtype": "float32"}}, "beta_initializer": {"class_name": "Zeros", "config": {"dtype": "float32"}}, "epsilon": 0.001, "axis": [3], "gamma_constraint": null, "dtype": "float32", "scale": false, "center": true, "momentum": 0.99, "beta_constraint": null}, "name": "batch_normalization_84"}, {"inbound_nodes": [[["batch_normalization_76", 0, 0, {}]]], "class_name": "Activation", "config": {"trainable": true, "name": "activation_125", "activation": "relu", "dtype": "float32"}, "name": "activation_125"}, {"inbound_nodes": [[["activation_127", 0, 0, {}], ["activation_128", 0, 0, {}]]], "class_name": "Concatenate", "config": {"trainable": true, "name": "mixed9_0", "axis": 3, "dtype": "float32"}, "name": "mixed9_0"}, {"inbound_nodes": [[["activation_131", 0, 0, {}], ["activation_132", 0, 0, {}]]], "class_name": "Concatenate", "config": {"trainable": true, "name": "concatenate", "axis": 3, "dtype": "float32"}, "name": "concatenate"}, {"inbound_nodes": [[["batch_normalization_84", 0, 0, {}]]], "class_name": "Activation", "config": {"trainable": true, "name": "activation_133", "activation": "relu", "dtype": "float32"}, "name": "activation_133"}, {"inbound_nodes": [[["activation_125", 0, 0, {}], ["mixed9_0", 0, 0, {}], ["concatenate", 0, 0, {}], ["activation_133", 0, 0, {}]]], "class_name": "Concatenate", "config": {"trainable": true, "name": "mixed9", "axis": 3, "dtype": "float32"}, "name": "mixed9"}, {"inbound_nodes": [[["mixed9", 0, 0, {}]]], "class_name": "Conv2D", "config": {"bias_regularizer": null, "bias_constraint": null, "trainable": true, "name": "conv2d_89", "dilation_rate": [1, 1], "use_bias": false, "filters": 448, "activity_regularizer": null, "activation": "linear", "padding": "same", "kernel_constraint": null, "data_format": "channels_last", "kernel_initializer": {"class_name": "VarianceScaling", "config": {"seed": null, "distribution": "uniform", "dtype": "float32", "scale": 1.0, "mode": "fan_avg"}}, "kernel_size": [1, 1], "kernel_regularizer": null, "dtype": "float32", "strides": [1, 1], "bias_initializer": {"class_name": "Zeros", "config": {"dtype": "float32"}}}, "name": "conv2d_89"}, {"inbound_nodes": [[["conv2d_89", 0, 0, {}]]], "class_name": "BatchNormalization", "config": {"moving_mean_initializer": {"class_name": "Zeros", "config": {"dtype": "float32"}}, "trainable": true, "name": "batch_normalization_89", "beta_regularizer": null, "gamma_regularizer": null, "moving_variance_initializer": {"class_name": "Ones", "config": {"dtype": "float32"}}, "gamma_initializer": {"class_name": "Ones", "config": {"dtype": "float32"}}, "beta_initializer": {"class_name": "Zeros", "config": {"dtype": "float32"}}, "epsilon": 0.001, "axis": [3], "gamma_constraint": null, "dtype": "float32", "scale": false, "center": true, "momentum": 0.99, "beta_constraint": null}, "name": "batch_normalization_89"}, {"inbound_nodes": [[["batch_normalization_89", 0, 0, {}]]], "class_name": "Activation", "config": {"trainable": true, "name": "activation_138", "activation": "relu", "dtype": "float32"}, "name": "activation_138"}, {"inbound_nodes": [[["mixed9", 0, 0, {}]]], "class_name": "Conv2D", "config": {"bias_regularizer": null, "bias_constraint": null, "trainable": true, "name": "conv2d_86", "dilation_rate": [1, 1], "use_bias": false, "filters": 384, "activity_regularizer": null, "activation": "linear", "padding": "same", "kernel_constraint": null, "data_format": "channels_last", "kernel_initializer": {"class_name": "VarianceScaling", "config": {"seed": null, "distribution": "uniform", "dtype": "float32", "scale": 1.0, "mode": "fan_avg"}}, "kernel_size": [1, 1], "kernel_regularizer": null, "dtype": "float32", "strides": [1, 1], "bias_initializer": {"class_name": "Zeros", "config": {"dtype": "float32"}}}, "name": "conv2d_86"}, {"inbound_nodes": [[["activation_138", 0, 0, {}]]], "class_name": "Conv2D", "config": {"bias_regularizer": null, "bias_constraint": null, "trainable": true, "name": "conv2d_90", "dilation_rate": [1, 1], "use_bias": false, "filters": 384, "activity_regularizer": null, "activation": "linear", "padding": "same", "kernel_constraint": null, "data_format": "channels_last", "kernel_initializer": {"class_name": "VarianceScaling", "config": {"seed": null, "distribution": "uniform", "dtype": "float32", "scale": 1.0, "mode": "fan_avg"}}, "kernel_size": [3, 3], "kernel_regularizer": null, "dtype": "float32", "strides": [1, 1], "bias_initializer": {"class_name": "Zeros", "config": {"dtype": "float32"}}}, "name": "conv2d_90"}, {"inbound_nodes": [[["conv2d_86", 0, 0, {}]]], "class_name": "BatchNormalization", "config": {"moving_mean_initializer": {"class_name": "Zeros", "config": {"dtype": "float32"}}, "trainable": true, "name": "batch_normalization_86", "beta_regularizer": null, "gamma_regularizer": null, "moving_variance_initializer": {"class_name": "Ones", "config": {"dtype": "float32"}}, "gamma_initializer": {"class_name": "Ones", "config": {"dtype": "float32"}}, "beta_initializer": {"class_name": "Zeros", "config": {"dtype": "float32"}}, "epsilon": 0.001, "axis": [3], "gamma_constraint": null, "dtype": "float32", "scale": false, "center": true, "momentum": 0.99, "beta_constraint": null}, "name": "batch_normalization_86"}, {"inbound_nodes": [[["conv2d_90", 0, 0, {}]]], "class_name": "BatchNormalization", "config": {"moving_mean_initializer": {"class_name": "Zeros", "config": {"dtype": "float32"}}, "trainable": true, "name": "batch_normalization_90", "beta_regularizer": null, "gamma_regularizer": null, "moving_variance_initializer": {"class_name": "Ones", "config": {"dtype": "float32"}}, "gamma_initializer": {"class_name": "Ones", "config": {"dtype": "float32"}}, "beta_initializer": {"class_name": "Zeros", "config": {"dtype": "float32"}}, "epsilon": 0.001, "axis": [3], "gamma_constraint": null, "dtype": "float32", "scale": false, "center": true, "momentum": 0.99, "beta_constraint": null}, "name": "batch_normalization_90"}, {"inbound_nodes": [[["batch_normalization_86", 0, 0, {}]]], "class_name": "Activation", "config": {"trainable": true, "name": "activation_135", "activation": "relu", "dtype": "float32"}, "name": "activation_135"}, {"inbound_nodes": [[["batch_normalization_90", 0, 0, {}]]], "class_name": "Activation", "config": {"trainable": true, "name": "activation_139", "activation": "relu", "dtype": "float32"}, "name": "activation_139"}, {"inbound_nodes": [[["activation_135", 0, 0, {}]]], "class_name": "Conv2D", "config": {"bias_regularizer": null, "bias_constraint": null, "trainable": true, "name": "conv2d_87", "dilation_rate": [1, 1], "use_bias": false, "filters": 384, "activity_regularizer": null, "activation": "linear", "padding": "same", "kernel_constraint": null, "data_format": "channels_last", "kernel_initializer": {"class_name": "VarianceScaling", "config": {"seed": null, "distribution": "uniform", "dtype": "float32", "scale": 1.0, "mode": "fan_avg"}}, "kernel_size": [1, 3], "kernel_regularizer": null, "dtype": "float32", "strides": [1, 1], "bias_initializer": {"class_name": "Zeros", "config": {"dtype": "float32"}}}, "name": "conv2d_87"}, {"inbound_nodes": [[["activation_135", 0, 0, {}]]], "class_name": "Conv2D", "config": {"bias_regularizer": null, "bias_constraint": null, "trainable": true, "name": "conv2d_88", "dilation_rate": [1, 1], "use_bias": false, "filters": 384, "activity_regularizer": null, "activation": "linear", "padding": "same", "kernel_constraint": null, "data_format": "channels_last", "kernel_initializer": {"class_name": "VarianceScaling", "config": {"seed": null, "distribution": "uniform", "dtype": "float32", "scale": 1.0, "mode": "fan_avg"}}, "kernel_size": [3, 1], "kernel_regularizer": null, "dtype": "float32", "strides": [1, 1], "bias_initializer": {"class_name": "Zeros", "config": {"dtype": "float32"}}}, "name": "conv2d_88"}, {"inbound_nodes": [[["activation_139", 0, 0, {}]]], "class_name": "Conv2D", "config": {"bias_regularizer": null, "bias_constraint": null, "trainable": true, "name": "conv2d_91", "dilation_rate": [1, 1], "use_bias": false, "filters": 384, "activity_regularizer": null, "activation": "linear", "padding": "same", "kernel_constraint": null, "data_format": "channels_last", "kernel_initializer": {"class_name": "VarianceScaling", "config": {"seed": null, "distribution": "uniform", "dtype": "float32", "scale": 1.0, "mode": "fan_avg"}}, "kernel_size": [1, 3], "kernel_regularizer": null, "dtype": "float32", "strides": [1, 1], "bias_initializer": {"class_name": "Zeros", "config": {"dtype": "float32"}}}, "name": "conv2d_91"}, {"inbound_nodes": [[["activation_139", 0, 0, {}]]], "class_name": "Conv2D", "config": {"bias_regularizer": null, "bias_constraint": null, "trainable": true, "name": "conv2d_92", "dilation_rate": [1, 1], "use_bias": false, "filters": 384, "activity_regularizer": null, "activation": "linear", "padding": "same", "kernel_constraint": null, "data_format": "channels_last", "kernel_initializer": {"class_name": "VarianceScaling", "config": {"seed": null, "distribution": "uniform", "dtype": "float32", "scale": 1.0, "mode": "fan_avg"}}, "kernel_size": [3, 1], "kernel_regularizer": null, "dtype": "float32", "strides": [1, 1], "bias_initializer": {"class_name": "Zeros", "config": {"dtype": "float32"}}}, "name": "conv2d_92"}, {"inbound_nodes": [[["mixed9", 0, 0, {}]]], "class_name": "AveragePooling2D", "config": {"trainable": true, "name": "average_pooling2d_8", "pool_size": [3, 3], "data_format": "channels_last", "strides": [1, 1], "dtype": "float32", "padding": "same"}, "name": "average_pooling2d_8"}, {"inbound_nodes": [[["mixed9", 0, 0, {}]]], "class_name": "Conv2D", "config": {"bias_regularizer": null, "bias_constraint": null, "trainable": true, "name": "conv2d_85", "dilation_rate": [1, 1], "use_bias": false, "filters": 320, "activity_regularizer": null, "activation": "linear", "padding": "same", "kernel_constraint": null, "data_format": "channels_last", "kernel_initializer": {"class_name": "VarianceScaling", "config": {"seed": null, "distribution": "uniform", "dtype": "float32", "scale": 1.0, "mode": "fan_avg"}}, "kernel_size": [1, 1], "kernel_regularizer": null, "dtype": "float32", "strides": [1, 1], "bias_initializer": {"class_name": "Zeros", "config": {"dtype": "float32"}}}, "name": "conv2d_85"}, {"inbound_nodes": [[["conv2d_87", 0, 0, {}]]], "class_name": "BatchNormalization", "config": {"moving_mean_initializer": {"class_name": "Zeros", "config": {"dtype": "float32"}}, "trainable": true, "name": "batch_normalization_87", "beta_regularizer": null, "gamma_regularizer": null, "moving_variance_initializer": {"class_name": "Ones", "config": {"dtype": "float32"}}, "gamma_initializer": {"class_name": "Ones", "config": {"dtype": "float32"}}, "beta_initializer": {"class_name": "Zeros", "config": {"dtype": "float32"}}, "epsilon": 0.001, "axis": [3], "gamma_constraint": null, "dtype": "float32", "scale": false, "center": true, "momentum": 0.99, "beta_constraint": null}, "name": "batch_normalization_87"}, {"inbound_nodes": [[["conv2d_88", 0, 0, {}]]], "class_name": "BatchNormalization", "config": {"moving_mean_initializer": {"class_name": "Zeros", "config": {"dtype": "float32"}}, "trainable": true, "name": "batch_normalization_88", "beta_regularizer": null, "gamma_regularizer": null, "moving_variance_initializer": {"class_name": "Ones", "config": {"dtype": "float32"}}, "gamma_initializer": {"class_name": "Ones", "config": {"dtype": "float32"}}, "beta_initializer": {"class_name": "Zeros", "config": {"dtype": "float32"}}, "epsilon": 0.001, "axis": [3], "gamma_constraint": null, "dtype": "float32", "scale": false, "center": true, "momentum": 0.99, "beta_constraint": null}, "name": "batch_normalization_88"}, {"inbound_nodes": [[["conv2d_91", 0, 0, {}]]], "class_name": "BatchNormalization", "config": {"moving_mean_initializer": {"class_name": "Zeros", "config": {"dtype": "float32"}}, "trainable": true, "name": "batch_normalization_91", "beta_regularizer": null, "gamma_regularizer": null, "moving_variance_initializer": {"class_name": "Ones", "config": {"dtype": "float32"}}, "gamma_initializer": {"class_name": "Ones", "config": {"dtype": "float32"}}, "beta_initializer": {"class_name": "Zeros", "config": {"dtype": "float32"}}, "epsilon": 0.001, "axis": [3], "gamma_constraint": null, "dtype": "float32", "scale": false, "center": true, "momentum": 0.99, "beta_constraint": null}, "name": "batch_normalization_91"}, {"inbound_nodes": [[["conv2d_92", 0, 0, {}]]], "class_name": "BatchNormalization", "config": {"moving_mean_initializer": {"class_name": "Zeros", "config": {"dtype": "float32"}}, "trainable": true, "name": "batch_normalization_92", "beta_regularizer": null, "gamma_regularizer": null, "moving_variance_initializer": {"class_name": "Ones", "config": {"dtype": "float32"}}, "gamma_initializer": {"class_name": "Ones", "config": {"dtype": "float32"}}, "beta_initializer": {"class_name": "Zeros", "config": {"dtype": "float32"}}, "epsilon": 0.001, "axis": [3], "gamma_constraint": null, "dtype": "float32", "scale": false, "center": true, "momentum": 0.99, "beta_constraint": null}, "name": "batch_normalization_92"}, {"inbound_nodes": [[["average_pooling2d_8", 0, 0, {}]]], "class_name": "Conv2D", "config": {"bias_regularizer": null, "bias_constraint": null, "trainable": true, "name": "conv2d_93", "dilation_rate": [1, 1], "use_bias": false, "filters": 192, "activity_regularizer": null, "activation": "linear", "padding": "same", "kernel_constraint": null, "data_format": "channels_last", "kernel_initializer": {"class_name": "VarianceScaling", "config": {"seed": null, "distribution": "uniform", "dtype": "float32", "scale": 1.0, "mode": "fan_avg"}}, "kernel_size": [1, 1], "kernel_regularizer": null, "dtype": "float32", "strides": [1, 1], "bias_initializer": {"class_name": "Zeros", "config": {"dtype": "float32"}}}, "name": "conv2d_93"}, {"inbound_nodes": [[["conv2d_85", 0, 0, {}]]], "class_name": "BatchNormalization", "config": {"moving_mean_initializer": {"class_name": "Zeros", "config": {"dtype": "float32"}}, "trainable": true, "name": "batch_normalization_85", "beta_regularizer": null, "gamma_regularizer": null, "moving_variance_initializer": {"class_name": "Ones", "config": {"dtype": "float32"}}, "gamma_initializer": {"class_name": "Ones", "config": {"dtype": "float32"}}, "beta_initializer": {"class_name": "Zeros", "config": {"dtype": "float32"}}, "epsilon": 0.001, "axis": [3], "gamma_constraint": null, "dtype": "float32", "scale": false, "center": true, "momentum": 0.99, "beta_constraint": null}, "name": "batch_normalization_85"}, {"inbound_nodes": [[["batch_normalization_87", 0, 0, {}]]], "class_name": "Activation", "config": {"trainable": true, "name": "activation_136", "activation": "relu", "dtype": "float32"}, "name": "activation_136"}, {"inbound_nodes": [[["batch_normalization_88", 0, 0, {}]]], "class_name": "Activation", "config": {"trainable": true, "name": "activation_137", "activation": "relu", "dtype": "float32"}, "name": "activation_137"}, {"inbound_nodes": [[["batch_normalization_91", 0, 0, {}]]], "class_name": "Activation", "config": {"trainable": true, "name": "activation_140", "activation": "relu", "dtype": "float32"}, "name": "activation_140"}, {"inbound_nodes": [[["batch_normalization_92", 0, 0, {}]]], "class_name": "Activation", "config": {"trainable": true, "name": "activation_141", "activation": "relu", "dtype": "float32"}, "name": "activation_141"}, {"inbound_nodes": [[["conv2d_93", 0, 0, {}]]], "class_name": "BatchNormalization", "config": {"moving_mean_initializer": {"class_name": "Zeros", "config": {"dtype": "float32"}}, "trainable": true, "name": "batch_normalization_93", "beta_regularizer": null, "gamma_regularizer": null, "moving_variance_initializer": {"class_name": "Ones", "config": {"dtype": "float32"}}, "gamma_initializer": {"class_name": "Ones", "config": {"dtype": "float32"}}, "beta_initializer": {"class_name": "Zeros", "config": {"dtype": "float32"}}, "epsilon": 0.001, "axis": [3], "gamma_constraint": null, "dtype": "float32", "scale": false, "center": true, "momentum": 0.99, "beta_constraint": null}, "name": "batch_normalization_93"}, {"inbound_nodes": [[["batch_normalization_85", 0, 0, {}]]], "class_name": "Activation", "config": {"trainable": true, "name": "activation_134", "activation": "relu", "dtype": "float32"}, "name": "activation_134"}, {"inbound_nodes": [[["activation_136", 0, 0, {}], ["activation_137", 0, 0, {}]]], "class_name": "Concatenate", "config": {"trainable": true, "name": "mixed9_1", "axis": 3, "dtype": "float32"}, "name": "mixed9_1"}, {"inbound_nodes": [[["activation_140", 0, 0, {}], ["activation_141", 0, 0, {}]]], "class_name": "Concatenate", "config": {"trainable": true, "name": "concatenate_1", "axis": 3, "dtype": "float32"}, "name": "concatenate_1"}, {"inbound_nodes": [[["batch_normalization_93", 0, 0, {}]]], "class_name": "Activation", "config": {"trainable": true, "name": "activation_142", "activation": "relu", "dtype": "float32"}, "name": "activation_142"}, {"inbound_nodes": [[["activation_134", 0, 0, {}], ["mixed9_1", 0, 0, {}], ["concatenate_1", 0, 0, {}], ["activation_142", 0, 0, {}]]], "class_name": "Concatenate", "config": {"trainable": true, "name": "mixed10", "axis": 3, "dtype": "float32"}, "name": "mixed10"}, {"inbound_nodes": [[["mixed10", 0, 0, {}]]], "class_name": "GlobalAveragePooling2D", "config": {"name": "avg_pool", "trainable": true, "data_format": "channels_last", "dtype": "float32"}, "name": "avg_pool"}, {"inbound_nodes": [[["avg_pool", 0, 0, {}]]], "class_name": "Dense", "config": {"bias_regularizer": null, "bias_constraint": null, "trainable": true, "name": "predictions", "use_bias": true, "activity_regularizer": null, "activation": "softmax", "kernel_constraint": null, "units": 1000, "kernel_initializer": {"class_name": "VarianceScaling", "config": {"seed": null, "distribution": "uniform", "dtype": "float32", "scale": 1.0, "mode": "fan_avg"}}, "kernel_regularizer": null, "dtype": "float32", "bias_initializer": {"class_name": "Zeros", "config": {"dtype": "float32"}}}, "name": "predictions"}], "input_layers": [["input_4", 0, 0]], "output_layers": [["predictions", 0, 0]]}, "keras_version": "2.1.6-tf", "backend": "tensorflow"}