{"config": {"name": "mobilenet_1.00_224", "input_layers": [["input_3", 0, 0]], "output_layers": [["reshape_2", 0, 0]], "layers": [{"name": "input_3", "config": {"name": "input_3", "sparse": false, "batch_input_shape": [null, 224, 224, 3], "dtype": "float32"}, "class_name": "InputLayer", "inbound_nodes": []}, {"name": "conv1_pad", "config": {"name": "conv1_pad", "data_format": "channels_last", "trainable": true, "padding": [[0, 1], [0, 1]], "dtype": "float32"}, "class_name": "ZeroPadding2D", "inbound_nodes": [[["input_3", 0, 0, {}]]]}, {"name": "conv1", "config": {"bias_regularizer": null, "padding": "valid", "strides": [2, 2], "kernel_size": [3, 3], "kernel_initializer": {"config": {"seed": null, "dtype": "float32"}, "class_name": "GlorotUniform"}, "dilation_rate": [1, 1], "dtype": "float32", "activation": "linear", "name": "conv1", "bias_constraint": null, "trainable": true, "kernel_constraint": null, "use_bias": false, "kernel_regularizer": null, "bias_initializer": {"config": {"dtype": "float32"}, "class_name": "Zeros"}, "activity_regularizer": null, "data_format": "channels_last", "filters": 32}, "class_name": "Conv2D", "inbound_nodes": [[["conv1_pad", 0, 0, {}]]]}, {"name": "conv1_bn", "config": {"gamma_regularizer": null, "gamma_initializer": {"config": {"dtype": "float32"}, "class_name": "Ones"}, "momentum": 0.99, "center": true, "axis": [3], "beta_regularizer": null, "dtype": "float32", "scale": true, "name": "conv1_bn", "trainable": true, "gamma_constraint": null, "beta_constraint": null, "beta_initializer": {"config": {"dtype": "float32"}, "class_name": "Zeros"}, "moving_variance_initializer": {"config": {"dtype": "float32"}, "class_name": "Ones"}, "epsilon": 0.001, "moving_mean_initializer": {"config": {"dtype": "float32"}, "class_name": "Zeros"}}, "class_name": "BatchNormalization", "inbound_nodes": [[["conv1", 0, 0, {}]]]}, {"name": "conv1_relu", "config": {"trainable": true, "threshold": 0.0, "max_value": 6.0, "name": "conv1_relu", "negative_slope": 0.0, "dtype": "float32"}, "class_name": "ReLU", "inbound_nodes": [[["conv1_bn", 0, 0, {}]]]}, {"name": "conv_dw_1", "config": {"depthwise_constraint": null, "kernel_size": [3, 3], "bias_regularizer": null, "padding": "same", "strides": [1, 1], "activation": "linear", "depthwise_initializer": {"config": {"seed": null, "dtype": "float32"}, "class_name": "GlorotUniform"}, "name": "conv_dw_1", "dtype": "float32", "dilation_rate": [1, 1], "depthwise_regularizer": null, "bias_constraint": null, "trainable": true, "use_bias": false, "depth_multiplier": 1, "bias_initializer": {"config": {"dtype": "float32"}, "class_name": "Zeros"}, "activity_regularizer": null, "data_format": "channels_last"}, "class_name": "DepthwiseConv2D", "inbound_nodes": [[["conv1_relu", 0, 0, {}]]]}, {"name": "conv_dw_1_bn", "config": {"gamma_regularizer": null, "gamma_initializer": {"config": {"dtype": "float32"}, "class_name": "Ones"}, "momentum": 0.99, "center": true, "axis": [3], "beta_regularizer": null, "dtype": "float32", "scale": true, "name": "conv_dw_1_bn", "trainable": true, "gamma_constraint": null, "beta_constraint": null, "beta_initializer": {"config": {"dtype": "float32"}, "class_name": "Zeros"}, "moving_variance_initializer": {"config": {"dtype": "float32"}, "class_name": "Ones"}, "epsilon": 0.001, "moving_mean_initializer": {"config": {"dtype": "float32"}, "class_name": "Zeros"}}, "class_name": "BatchNormalization", "inbound_nodes": [[["conv_dw_1", 0, 0, {}]]]}, {"name": "conv_dw_1_relu", "config": {"trainable": true, "threshold": 0.0, "max_value": 6.0, "name": "conv_dw_1_relu", "negative_slope": 0.0, "dtype": "float32"}, "class_name": "ReLU", "inbound_nodes": [[["conv_dw_1_bn", 0, 0, {}]]]}, {"name": "conv_pw_1", "config": {"bias_regularizer": null, "padding": "same", "strides": [1, 1], "kernel_size": [1, 1], "kernel_initializer": {"config": {"seed": null, "dtype": "float32"}, "class_name": "GlorotUniform"}, "dilation_rate": [1, 1], "dtype": "float32", "activation": "linear", "name": "conv_pw_1", "bias_constraint": null, "trainable": true, "kernel_constraint": null, "use_bias": false, "kernel_regularizer": null, "bias_initializer": {"config": {"dtype": "float32"}, "class_name": "Zeros"}, "activity_regularizer": null, "data_format": "channels_last", "filters": 64}, "class_name": "Conv2D", "inbound_nodes": [[["conv_dw_1_relu", 0, 0, {}]]]}, {"name": "conv_pw_1_bn", "config": {"gamma_regularizer": null, "gamma_initializer": {"config": {"dtype": "float32"}, "class_name": "Ones"}, "momentum": 0.99, "center": true, "axis": [3], "beta_regularizer": null, "dtype": "float32", "scale": true, "name": "conv_pw_1_bn", "trainable": true, "gamma_constraint": null, "beta_constraint": null, "beta_initializer": {"config": {"dtype": "float32"}, "class_name": "Zeros"}, "moving_variance_initializer": {"config": {"dtype": "float32"}, "class_name": "Ones"}, "epsilon": 0.001, "moving_mean_initializer": {"config": {"dtype": "float32"}, "class_name": "Zeros"}}, "class_name": "BatchNormalization", "inbound_nodes": [[["conv_pw_1", 0, 0, {}]]]}, {"name": "conv_pw_1_relu", "config": {"trainable": true, "threshold": 0.0, "max_value": 6.0, "name": "conv_pw_1_relu", "negative_slope": 0.0, "dtype": "float32"}, "class_name": "ReLU", "inbound_nodes": [[["conv_pw_1_bn", 0, 0, {}]]]}, {"name": "conv_pad_2", "config": {"name": "conv_pad_2", "data_format": "channels_last", "trainable": true, "padding": [[0, 1], [0, 1]], "dtype": "float32"}, "class_name": "ZeroPadding2D", "inbound_nodes": [[["conv_pw_1_relu", 0, 0, {}]]]}, {"name": "conv_dw_2", "config": {"depthwise_constraint": null, "kernel_size": [3, 3], "bias_regularizer": null, "padding": "valid", "strides": [2, 2], "activation": "linear", "depthwise_initializer": {"config": {"seed": null, "dtype": "float32"}, "class_name": "GlorotUniform"}, "name": "conv_dw_2", "dtype": "float32", "dilation_rate": [1, 1], "depthwise_regularizer": null, "bias_constraint": null, "trainable": true, "use_bias": false, "depth_multiplier": 1, "bias_initializer": {"config": {"dtype": "float32"}, "class_name": "Zeros"}, "activity_regularizer": null, "data_format": "channels_last"}, "class_name": "DepthwiseConv2D", "inbound_nodes": [[["conv_pad_2", 0, 0, {}]]]}, {"name": "conv_dw_2_bn", "config": {"gamma_regularizer": null, "gamma_initializer": {"config": {"dtype": "float32"}, "class_name": "Ones"}, "momentum": 0.99, "center": true, "axis": [3], "beta_regularizer": null, "dtype": "float32", "scale": true, "name": "conv_dw_2_bn", "trainable": true, "gamma_constraint": null, "beta_constraint": null, "beta_initializer": {"config": {"dtype": "float32"}, "class_name": "Zeros"}, "moving_variance_initializer": {"config": {"dtype": "float32"}, "class_name": "Ones"}, "epsilon": 0.001, "moving_mean_initializer": {"config": {"dtype": "float32"}, "class_name": "Zeros"}}, "class_name": "BatchNormalization", "inbound_nodes": [[["conv_dw_2", 0, 0, {}]]]}, {"name": "conv_dw_2_relu", "config": {"trainable": true, "threshold": 0.0, "max_value": 6.0, "name": "conv_dw_2_relu", "negative_slope": 0.0, "dtype": "float32"}, "class_name": "ReLU", "inbound_nodes": [[["conv_dw_2_bn", 0, 0, {}]]]}, {"name": "conv_pw_2", "config": {"bias_regularizer": null, "padding": "same", "strides": [1, 1], "kernel_size": [1, 1], "kernel_initializer": {"config": {"seed": null, "dtype": "float32"}, "class_name": "GlorotUniform"}, "dilation_rate": [1, 1], "dtype": "float32", "activation": "linear", "name": "conv_pw_2", "bias_constraint": null, "trainable": true, "kernel_constraint": null, "use_bias": false, "kernel_regularizer": null, "bias_initializer": {"config": {"dtype": "float32"}, "class_name": "Zeros"}, "activity_regularizer": null, "data_format": "channels_last", "filters": 128}, "class_name": "Conv2D", "inbound_nodes": [[["conv_dw_2_relu", 0, 0, {}]]]}, {"name": "conv_pw_2_bn", "config": {"gamma_regularizer": null, "gamma_initializer": {"config": {"dtype": "float32"}, "class_name": "Ones"}, "momentum": 0.99, "center": true, "axis": [3], "beta_regularizer": null, "dtype": "float32", "scale": true, "name": "conv_pw_2_bn", "trainable": true, "gamma_constraint": null, "beta_constraint": null, "beta_initializer": {"config": {"dtype": "float32"}, "class_name": "Zeros"}, "moving_variance_initializer": {"config": {"dtype": "float32"}, "class_name": "Ones"}, "epsilon": 0.001, "moving_mean_initializer": {"config": {"dtype": "float32"}, "class_name": "Zeros"}}, "class_name": "BatchNormalization", "inbound_nodes": [[["conv_pw_2", 0, 0, {}]]]}, {"name": "conv_pw_2_relu", "config": {"trainable": true, "threshold": 0.0, "max_value": 6.0, "name": "conv_pw_2_relu", "negative_slope": 0.0, "dtype": "float32"}, "class_name": "ReLU", "inbound_nodes": [[["conv_pw_2_bn", 0, 0, {}]]]}, {"name": "conv_dw_3", "config": {"depthwise_constraint": null, "kernel_size": [3, 3], "bias_regularizer": null, "padding": "same", "strides": [1, 1], "activation": "linear", "depthwise_initializer": {"config": {"seed": null, "dtype": "float32"}, "class_name": "GlorotUniform"}, "name": "conv_dw_3", "dtype": "float32", "dilation_rate": [1, 1], "depthwise_regularizer": null, "bias_constraint": null, "trainable": true, "use_bias": false, "depth_multiplier": 1, "bias_initializer": {"config": {"dtype": "float32"}, "class_name": "Zeros"}, "activity_regularizer": null, "data_format": "channels_last"}, "class_name": "DepthwiseConv2D", "inbound_nodes": [[["conv_pw_2_relu", 0, 0, {}]]]}, {"name": "conv_dw_3_bn", "config": {"gamma_regularizer": null, "gamma_initializer": {"config": {"dtype": "float32"}, "class_name": "Ones"}, "momentum": 0.99, "center": true, "axis": [3], "beta_regularizer": null, "dtype": "float32", "scale": true, "name": "conv_dw_3_bn", "trainable": true, "gamma_constraint": null, "beta_constraint": null, "beta_initializer": {"config": {"dtype": "float32"}, "class_name": "Zeros"}, "moving_variance_initializer": {"config": {"dtype": "float32"}, "class_name": "Ones"}, "epsilon": 0.001, "moving_mean_initializer": {"config": {"dtype": "float32"}, "class_name": "Zeros"}}, "class_name": "BatchNormalization", "inbound_nodes": [[["conv_dw_3", 0, 0, {}]]]}, {"name": "conv_dw_3_relu", "config": {"trainable": true, "threshold": 0.0, "max_value": 6.0, "name": "conv_dw_3_relu", "negative_slope": 0.0, "dtype": "float32"}, "class_name": "ReLU", "inbound_nodes": [[["conv_dw_3_bn", 0, 0, {}]]]}, {"name": "conv_pw_3", "config": {"bias_regularizer": null, "padding": "same", "strides": [1, 1], "kernel_size": [1, 1], "kernel_initializer": {"config": {"seed": null, "dtype": "float32"}, "class_name": "GlorotUniform"}, "dilation_rate": [1, 1], "dtype": "float32", "activation": "linear", "name": "conv_pw_3", "bias_constraint": null, "trainable": true, "kernel_constraint": null, "use_bias": false, "kernel_regularizer": null, "bias_initializer": {"config": {"dtype": "float32"}, "class_name": "Zeros"}, "activity_regularizer": null, "data_format": "channels_last", "filters": 128}, "class_name": "Conv2D", "inbound_nodes": [[["conv_dw_3_relu", 0, 0, {}]]]}, {"name": "conv_pw_3_bn", "config": {"gamma_regularizer": null, "gamma_initializer": {"config": {"dtype": "float32"}, "class_name": "Ones"}, "momentum": 0.99, "center": true, "axis": [3], "beta_regularizer": null, "dtype": "float32", "scale": true, "name": "conv_pw_3_bn", "trainable": true, "gamma_constraint": null, "beta_constraint": null, "beta_initializer": {"config": {"dtype": "float32"}, "class_name": "Zeros"}, "moving_variance_initializer": {"config": {"dtype": "float32"}, "class_name": "Ones"}, "epsilon": 0.001, "moving_mean_initializer": {"config": {"dtype": "float32"}, "class_name": "Zeros"}}, "class_name": "BatchNormalization", "inbound_nodes": [[["conv_pw_3", 0, 0, {}]]]}, {"name": "conv_pw_3_relu", "config": {"trainable": true, "threshold": 0.0, "max_value": 6.0, "name": "conv_pw_3_relu", "negative_slope": 0.0, "dtype": "float32"}, "class_name": "ReLU", "inbound_nodes": [[["conv_pw_3_bn", 0, 0, {}]]]}, {"name": "conv_pad_4", "config": {"name": "conv_pad_4", "data_format": "channels_last", "trainable": true, "padding": [[0, 1], [0, 1]], "dtype": "float32"}, "class_name": "ZeroPadding2D", "inbound_nodes": [[["conv_pw_3_relu", 0, 0, {}]]]}, {"name": "conv_dw_4", "config": {"depthwise_constraint": null, "kernel_size": [3, 3], "bias_regularizer": null, "padding": "valid", "strides": [2, 2], "activation": "linear", "depthwise_initializer": {"config": {"seed": null, "dtype": "float32"}, "class_name": "GlorotUniform"}, "name": "conv_dw_4", "dtype": "float32", "dilation_rate": [1, 1], "depthwise_regularizer": null, "bias_constraint": null, "trainable": true, "use_bias": false, "depth_multiplier": 1, "bias_initializer": {"config": {"dtype": "float32"}, "class_name": "Zeros"}, "activity_regularizer": null, "data_format": "channels_last"}, "class_name": "DepthwiseConv2D", "inbound_nodes": [[["conv_pad_4", 0, 0, {}]]]}, {"name": "conv_dw_4_bn", "config": {"gamma_regularizer": null, "gamma_initializer": {"config": {"dtype": "float32"}, "class_name": "Ones"}, "momentum": 0.99, "center": true, "axis": [3], "beta_regularizer": null, "dtype": "float32", "scale": true, "name": "conv_dw_4_bn", "trainable": true, "gamma_constraint": null, "beta_constraint": null, "beta_initializer": {"config": {"dtype": "float32"}, "class_name": "Zeros"}, "moving_variance_initializer": {"config": {"dtype": "float32"}, "class_name": "Ones"}, "epsilon": 0.001, "moving_mean_initializer": {"config": {"dtype": "float32"}, "class_name": "Zeros"}}, "class_name": "BatchNormalization", "inbound_nodes": [[["conv_dw_4", 0, 0, {}]]]}, {"name": "conv_dw_4_relu", "config": {"trainable": true, "threshold": 0.0, "max_value": 6.0, "name": "conv_dw_4_relu", "negative_slope": 0.0, "dtype": "float32"}, "class_name": "ReLU", "inbound_nodes": [[["conv_dw_4_bn", 0, 0, {}]]]}, {"name": "conv_pw_4", "config": {"bias_regularizer": null, "padding": "same", "strides": [1, 1], "kernel_size": [1, 1], "kernel_initializer": {"config": {"seed": null, "dtype": "float32"}, "class_name": "GlorotUniform"}, "dilation_rate": [1, 1], "dtype": "float32", "activation": "linear", "name": "conv_pw_4", "bias_constraint": null, "trainable": true, "kernel_constraint": null, "use_bias": false, "kernel_regularizer": null, "bias_initializer": {"config": {"dtype": "float32"}, "class_name": "Zeros"}, "activity_regularizer": null, "data_format": "channels_last", "filters": 256}, "class_name": "Conv2D", "inbound_nodes": [[["conv_dw_4_relu", 0, 0, {}]]]}, {"name": "conv_pw_4_bn", "config": {"gamma_regularizer": null, "gamma_initializer": {"config": {"dtype": "float32"}, "class_name": "Ones"}, "momentum": 0.99, "center": true, "axis": [3], "beta_regularizer": null, "dtype": "float32", "scale": true, "name": "conv_pw_4_bn", "trainable": true, "gamma_constraint": null, "beta_constraint": null, "beta_initializer": {"config": {"dtype": "float32"}, "class_name": "Zeros"}, "moving_variance_initializer": {"config": {"dtype": "float32"}, "class_name": "Ones"}, "epsilon": 0.001, "moving_mean_initializer": {"config": {"dtype": "float32"}, "class_name": "Zeros"}}, "class_name": "BatchNormalization", "inbound_nodes": [[["conv_pw_4", 0, 0, {}]]]}, {"name": "conv_pw_4_relu", "config": {"trainable": true, "threshold": 0.0, "max_value": 6.0, "name": "conv_pw_4_relu", "negative_slope": 0.0, "dtype": "float32"}, "class_name": "ReLU", "inbound_nodes": [[["conv_pw_4_bn", 0, 0, {}]]]}, {"name": "conv_dw_5", "config": {"depthwise_constraint": null, "kernel_size": [3, 3], "bias_regularizer": null, "padding": "same", "strides": [1, 1], "activation": "linear", "depthwise_initializer": {"config": {"seed": null, "dtype": "float32"}, "class_name": "GlorotUniform"}, "name": "conv_dw_5", "dtype": "float32", "dilation_rate": [1, 1], "depthwise_regularizer": null, "bias_constraint": null, "trainable": true, "use_bias": false, "depth_multiplier": 1, "bias_initializer": {"config": {"dtype": "float32"}, "class_name": "Zeros"}, "activity_regularizer": null, "data_format": "channels_last"}, "class_name": "DepthwiseConv2D", "inbound_nodes": [[["conv_pw_4_relu", 0, 0, {}]]]}, {"name": "conv_dw_5_bn", "config": {"gamma_regularizer": null, "gamma_initializer": {"config": {"dtype": "float32"}, "class_name": "Ones"}, "momentum": 0.99, "center": true, "axis": [3], "beta_regularizer": null, "dtype": "float32", "scale": true, "name": "conv_dw_5_bn", "trainable": true, "gamma_constraint": null, "beta_constraint": null, "beta_initializer": {"config": {"dtype": "float32"}, "class_name": "Zeros"}, "moving_variance_initializer": {"config": {"dtype": "float32"}, "class_name": "Ones"}, "epsilon": 0.001, "moving_mean_initializer": {"config": {"dtype": "float32"}, "class_name": "Zeros"}}, "class_name": "BatchNormalization", "inbound_nodes": [[["conv_dw_5", 0, 0, {}]]]}, {"name": "conv_dw_5_relu", "config": {"trainable": true, "threshold": 0.0, "max_value": 6.0, "name": "conv_dw_5_relu", "negative_slope": 0.0, "dtype": "float32"}, "class_name": "ReLU", "inbound_nodes": [[["conv_dw_5_bn", 0, 0, {}]]]}, {"name": "conv_pw_5", "config": {"bias_regularizer": null, "padding": "same", "strides": [1, 1], "kernel_size": [1, 1], "kernel_initializer": {"config": {"seed": null, "dtype": "float32"}, "class_name": "GlorotUniform"}, "dilation_rate": [1, 1], "dtype": "float32", "activation": "linear", "name": "conv_pw_5", "bias_constraint": null, "trainable": true, "kernel_constraint": null, "use_bias": false, "kernel_regularizer": null, "bias_initializer": {"config": {"dtype": "float32"}, "class_name": "Zeros"}, "activity_regularizer": null, "data_format": "channels_last", "filters": 256}, "class_name": "Conv2D", "inbound_nodes": [[["conv_dw_5_relu", 0, 0, {}]]]}, {"name": "conv_pw_5_bn", "config": {"gamma_regularizer": null, "gamma_initializer": {"config": {"dtype": "float32"}, "class_name": "Ones"}, "momentum": 0.99, "center": true, "axis": [3], "beta_regularizer": null, "dtype": "float32", "scale": true, "name": "conv_pw_5_bn", "trainable": true, "gamma_constraint": null, "beta_constraint": null, "beta_initializer": {"config": {"dtype": "float32"}, "class_name": "Zeros"}, "moving_variance_initializer": {"config": {"dtype": "float32"}, "class_name": "Ones"}, "epsilon": 0.001, "moving_mean_initializer": {"config": {"dtype": "float32"}, "class_name": "Zeros"}}, "class_name": "BatchNormalization", "inbound_nodes": [[["conv_pw_5", 0, 0, {}]]]}, {"name": "conv_pw_5_relu", "config": {"trainable": true, "threshold": 0.0, "max_value": 6.0, "name": "conv_pw_5_relu", "negative_slope": 0.0, "dtype": "float32"}, "class_name": "ReLU", "inbound_nodes": [[["conv_pw_5_bn", 0, 0, {}]]]}, {"name": "conv_pad_6", "config": {"name": "conv_pad_6", "data_format": "channels_last", "trainable": true, "padding": [[0, 1], [0, 1]], "dtype": "float32"}, "class_name": "ZeroPadding2D", "inbound_nodes": [[["conv_pw_5_relu", 0, 0, {}]]]}, {"name": "conv_dw_6", "config": {"depthwise_constraint": null, "kernel_size": [3, 3], "bias_regularizer": null, "padding": "valid", "strides": [2, 2], "activation": "linear", "depthwise_initializer": {"config": {"seed": null, "dtype": "float32"}, "class_name": "GlorotUniform"}, "name": "conv_dw_6", "dtype": "float32", "dilation_rate": [1, 1], "depthwise_regularizer": null, "bias_constraint": null, "trainable": true, "use_bias": false, "depth_multiplier": 1, "bias_initializer": {"config": {"dtype": "float32"}, "class_name": "Zeros"}, "activity_regularizer": null, "data_format": "channels_last"}, "class_name": "DepthwiseConv2D", "inbound_nodes": [[["conv_pad_6", 0, 0, {}]]]}, {"name": "conv_dw_6_bn", "config": {"gamma_regularizer": null, "gamma_initializer": {"config": {"dtype": "float32"}, "class_name": "Ones"}, "momentum": 0.99, "center": true, "axis": [3], "beta_regularizer": null, "dtype": "float32", "scale": true, "name": "conv_dw_6_bn", "trainable": true, "gamma_constraint": null, "beta_constraint": null, "beta_initializer": {"config": {"dtype": "float32"}, "class_name": "Zeros"}, "moving_variance_initializer": {"config": {"dtype": "float32"}, "class_name": "Ones"}, "epsilon": 0.001, "moving_mean_initializer": {"config": {"dtype": "float32"}, "class_name": "Zeros"}}, "class_name": "BatchNormalization", "inbound_nodes": [[["conv_dw_6", 0, 0, {}]]]}, {"name": "conv_dw_6_relu", "config": {"trainable": true, "threshold": 0.0, "max_value": 6.0, "name": "conv_dw_6_relu", "negative_slope": 0.0, "dtype": "float32"}, "class_name": "ReLU", "inbound_nodes": [[["conv_dw_6_bn", 0, 0, {}]]]}, {"name": "conv_pw_6", "config": {"bias_regularizer": null, "padding": "same", "strides": [1, 1], "kernel_size": [1, 1], "kernel_initializer": {"config": {"seed": null, "dtype": "float32"}, "class_name": "GlorotUniform"}, "dilation_rate": [1, 1], "dtype": "float32", "activation": "linear", "name": "conv_pw_6", "bias_constraint": null, "trainable": true, "kernel_constraint": null, "use_bias": false, "kernel_regularizer": null, "bias_initializer": {"config": {"dtype": "float32"}, "class_name": "Zeros"}, "activity_regularizer": null, "data_format": "channels_last", "filters": 512}, "class_name": "Conv2D", "inbound_nodes": [[["conv_dw_6_relu", 0, 0, {}]]]}, {"name": "conv_pw_6_bn", "config": {"gamma_regularizer": null, "gamma_initializer": {"config": {"dtype": "float32"}, "class_name": "Ones"}, "momentum": 0.99, "center": true, "axis": [3], "beta_regularizer": null, "dtype": "float32", "scale": true, "name": "conv_pw_6_bn", "trainable": true, "gamma_constraint": null, "beta_constraint": null, "beta_initializer": {"config": {"dtype": "float32"}, "class_name": "Zeros"}, "moving_variance_initializer": {"config": {"dtype": "float32"}, "class_name": "Ones"}, "epsilon": 0.001, "moving_mean_initializer": {"config": {"dtype": "float32"}, "class_name": "Zeros"}}, "class_name": "BatchNormalization", "inbound_nodes": [[["conv_pw_6", 0, 0, {}]]]}, {"name": "conv_pw_6_relu", "config": {"trainable": true, "threshold": 0.0, "max_value": 6.0, "name": "conv_pw_6_relu", "negative_slope": 0.0, "dtype": "float32"}, "class_name": "ReLU", "inbound_nodes": [[["conv_pw_6_bn", 0, 0, {}]]]}, {"name": "conv_dw_7", "config": {"depthwise_constraint": null, "kernel_size": [3, 3], "bias_regularizer": null, "padding": "same", "strides": [1, 1], "activation": "linear", "depthwise_initializer": {"config": {"seed": null, "dtype": "float32"}, "class_name": "GlorotUniform"}, "name": "conv_dw_7", "dtype": "float32", "dilation_rate": [1, 1], "depthwise_regularizer": null, "bias_constraint": null, "trainable": true, "use_bias": false, "depth_multiplier": 1, "bias_initializer": {"config": {"dtype": "float32"}, "class_name": "Zeros"}, "activity_regularizer": null, "data_format": "channels_last"}, "class_name": "DepthwiseConv2D", "inbound_nodes": [[["conv_pw_6_relu", 0, 0, {}]]]}, {"name": "conv_dw_7_bn", "config": {"gamma_regularizer": null, "gamma_initializer": {"config": {"dtype": "float32"}, "class_name": "Ones"}, "momentum": 0.99, "center": true, "axis": [3], "beta_regularizer": null, "dtype": "float32", "scale": true, "name": "conv_dw_7_bn", "trainable": true, "gamma_constraint": null, "beta_constraint": null, "beta_initializer": {"config": {"dtype": "float32"}, "class_name": "Zeros"}, "moving_variance_initializer": {"config": {"dtype": "float32"}, "class_name": "Ones"}, "epsilon": 0.001, "moving_mean_initializer": {"config": {"dtype": "float32"}, "class_name": "Zeros"}}, "class_name": "BatchNormalization", "inbound_nodes": [[["conv_dw_7", 0, 0, {}]]]}, {"name": "conv_dw_7_relu", "config": {"trainable": true, "threshold": 0.0, "max_value": 6.0, "name": "conv_dw_7_relu", "negative_slope": 0.0, "dtype": "float32"}, "class_name": "ReLU", "inbound_nodes": [[["conv_dw_7_bn", 0, 0, {}]]]}, {"name": "conv_pw_7", "config": {"bias_regularizer": null, "padding": "same", "strides": [1, 1], "kernel_size": [1, 1], "kernel_initializer": {"config": {"seed": null, "dtype": "float32"}, "class_name": "GlorotUniform"}, "dilation_rate": [1, 1], "dtype": "float32", "activation": "linear", "name": "conv_pw_7", "bias_constraint": null, "trainable": true, "kernel_constraint": null, "use_bias": false, "kernel_regularizer": null, "bias_initializer": {"config": {"dtype": "float32"}, "class_name": "Zeros"}, "activity_regularizer": null, "data_format": "channels_last", "filters": 512}, "class_name": "Conv2D", "inbound_nodes": [[["conv_dw_7_relu", 0, 0, {}]]]}, {"name": "conv_pw_7_bn", "config": {"gamma_regularizer": null, "gamma_initializer": {"config": {"dtype": "float32"}, "class_name": "Ones"}, "momentum": 0.99, "center": true, "axis": [3], "beta_regularizer": null, "dtype": "float32", "scale": true, "name": "conv_pw_7_bn", "trainable": true, "gamma_constraint": null, "beta_constraint": null, "beta_initializer": {"config": {"dtype": "float32"}, "class_name": "Zeros"}, "moving_variance_initializer": {"config": {"dtype": "float32"}, "class_name": "Ones"}, "epsilon": 0.001, "moving_mean_initializer": {"config": {"dtype": "float32"}, "class_name": "Zeros"}}, "class_name": "BatchNormalization", "inbound_nodes": [[["conv_pw_7", 0, 0, {}]]]}, {"name": "conv_pw_7_relu", "config": {"trainable": true, "threshold": 0.0, "max_value": 6.0, "name": "conv_pw_7_relu", "negative_slope": 0.0, "dtype": "float32"}, "class_name": "ReLU", "inbound_nodes": [[["conv_pw_7_bn", 0, 0, {}]]]}, {"name": "conv_dw_8", "config": {"depthwise_constraint": null, "kernel_size": [3, 3], "bias_regularizer": null, "padding": "same", "strides": [1, 1], "activation": "linear", "depthwise_initializer": {"config": {"seed": null, "dtype": "float32"}, "class_name": "GlorotUniform"}, "name": "conv_dw_8", "dtype": "float32", "dilation_rate": [1, 1], "depthwise_regularizer": null, "bias_constraint": null, "trainable": true, "use_bias": false, "depth_multiplier": 1, "bias_initializer": {"config": {"dtype": "float32"}, "class_name": "Zeros"}, "activity_regularizer": null, "data_format": "channels_last"}, "class_name": "DepthwiseConv2D", "inbound_nodes": [[["conv_pw_7_relu", 0, 0, {}]]]}, {"name": "conv_dw_8_bn", "config": {"gamma_regularizer": null, "gamma_initializer": {"config": {"dtype": "float32"}, "class_name": "Ones"}, "momentum": 0.99, "center": true, "axis": [3], "beta_regularizer": null, "dtype": "float32", "scale": true, "name": "conv_dw_8_bn", "trainable": true, "gamma_constraint": null, "beta_constraint": null, "beta_initializer": {"config": {"dtype": "float32"}, "class_name": "Zeros"}, "moving_variance_initializer": {"config": {"dtype": "float32"}, "class_name": "Ones"}, "epsilon": 0.001, "moving_mean_initializer": {"config": {"dtype": "float32"}, "class_name": "Zeros"}}, "class_name": "BatchNormalization", "inbound_nodes": [[["conv_dw_8", 0, 0, {}]]]}, {"name": "conv_dw_8_relu", "config": {"trainable": true, "threshold": 0.0, "max_value": 6.0, "name": "conv_dw_8_relu", "negative_slope": 0.0, "dtype": "float32"}, "class_name": "ReLU", "inbound_nodes": [[["conv_dw_8_bn", 0, 0, {}]]]}, {"name": "conv_pw_8", "config": {"bias_regularizer": null, "padding": "same", "strides": [1, 1], "kernel_size": [1, 1], "kernel_initializer": {"config": {"seed": null, "dtype": "float32"}, "class_name": "GlorotUniform"}, "dilation_rate": [1, 1], "dtype": "float32", "activation": "linear", "name": "conv_pw_8", "bias_constraint": null, "trainable": true, "kernel_constraint": null, "use_bias": false, "kernel_regularizer": null, "bias_initializer": {"config": {"dtype": "float32"}, "class_name": "Zeros"}, "activity_regularizer": null, "data_format": "channels_last", "filters": 512}, "class_name": "Conv2D", "inbound_nodes": [[["conv_dw_8_relu", 0, 0, {}]]]}, {"name": "conv_pw_8_bn", "config": {"gamma_regularizer": null, "gamma_initializer": {"config": {"dtype": "float32"}, "class_name": "Ones"}, "momentum": 0.99, "center": true, "axis": [3], "beta_regularizer": null, "dtype": "float32", "scale": true, "name": "conv_pw_8_bn", "trainable": true, "gamma_constraint": null, "beta_constraint": null, "beta_initializer": {"config": {"dtype": "float32"}, "class_name": "Zeros"}, "moving_variance_initializer": {"config": {"dtype": "float32"}, "class_name": "Ones"}, "epsilon": 0.001, "moving_mean_initializer": {"config": {"dtype": "float32"}, "class_name": "Zeros"}}, "class_name": "BatchNormalization", "inbound_nodes": [[["conv_pw_8", 0, 0, {}]]]}, {"name": "conv_pw_8_relu", "config": {"trainable": true, "threshold": 0.0, "max_value": 6.0, "name": "conv_pw_8_relu", "negative_slope": 0.0, "dtype": "float32"}, "class_name": "ReLU", "inbound_nodes": [[["conv_pw_8_bn", 0, 0, {}]]]}, {"name": "conv_dw_9", "config": {"depthwise_constraint": null, "kernel_size": [3, 3], "bias_regularizer": null, "padding": "same", "strides": [1, 1], "activation": "linear", "depthwise_initializer": {"config": {"seed": null, "dtype": "float32"}, "class_name": "GlorotUniform"}, "name": "conv_dw_9", "dtype": "float32", "dilation_rate": [1, 1], "depthwise_regularizer": null, "bias_constraint": null, "trainable": true, "use_bias": false, "depth_multiplier": 1, "bias_initializer": {"config": {"dtype": "float32"}, "class_name": "Zeros"}, "activity_regularizer": null, "data_format": "channels_last"}, "class_name": "DepthwiseConv2D", "inbound_nodes": [[["conv_pw_8_relu", 0, 0, {}]]]}, {"name": "conv_dw_9_bn", "config": {"gamma_regularizer": null, "gamma_initializer": {"config": {"dtype": "float32"}, "class_name": "Ones"}, "momentum": 0.99, "center": true, "axis": [3], "beta_regularizer": null, "dtype": "float32", "scale": true, "name": "conv_dw_9_bn", "trainable": true, "gamma_constraint": null, "beta_constraint": null, "beta_initializer": {"config": {"dtype": "float32"}, "class_name": "Zeros"}, "moving_variance_initializer": {"config": {"dtype": "float32"}, "class_name": "Ones"}, "epsilon": 0.001, "moving_mean_initializer": {"config": {"dtype": "float32"}, "class_name": "Zeros"}}, "class_name": "BatchNormalization", "inbound_nodes": [[["conv_dw_9", 0, 0, {}]]]}, {"name": "conv_dw_9_relu", "config": {"trainable": true, "threshold": 0.0, "max_value": 6.0, "name": "conv_dw_9_relu", "negative_slope": 0.0, "dtype": "float32"}, "class_name": "ReLU", "inbound_nodes": [[["conv_dw_9_bn", 0, 0, {}]]]}, {"name": "conv_pw_9", "config": {"bias_regularizer": null, "padding": "same", "strides": [1, 1], "kernel_size": [1, 1], "kernel_initializer": {"config": {"seed": null, "dtype": "float32"}, "class_name": "GlorotUniform"}, "dilation_rate": [1, 1], "dtype": "float32", "activation": "linear", "name": "conv_pw_9", "bias_constraint": null, "trainable": true, "kernel_constraint": null, "use_bias": false, "kernel_regularizer": null, "bias_initializer": {"config": {"dtype": "float32"}, "class_name": "Zeros"}, "activity_regularizer": null, "data_format": "channels_last", "filters": 512}, "class_name": "Conv2D", "inbound_nodes": [[["conv_dw_9_relu", 0, 0, {}]]]}, {"name": "conv_pw_9_bn", "config": {"gamma_regularizer": null, "gamma_initializer": {"config": {"dtype": "float32"}, "class_name": "Ones"}, "momentum": 0.99, "center": true, "axis": [3], "beta_regularizer": null, "dtype": "float32", "scale": true, "name": "conv_pw_9_bn", "trainable": true, "gamma_constraint": null, "beta_constraint": null, "beta_initializer": {"config": {"dtype": "float32"}, "class_name": "Zeros"}, "moving_variance_initializer": {"config": {"dtype": "float32"}, "class_name": "Ones"}, "epsilon": 0.001, "moving_mean_initializer": {"config": {"dtype": "float32"}, "class_name": "Zeros"}}, "class_name": "BatchNormalization", "inbound_nodes": [[["conv_pw_9", 0, 0, {}]]]}, {"name": "conv_pw_9_relu", "config": {"trainable": true, "threshold": 0.0, "max_value": 6.0, "name": "conv_pw_9_relu", "negative_slope": 0.0, "dtype": "float32"}, "class_name": "ReLU", "inbound_nodes": [[["conv_pw_9_bn", 0, 0, {}]]]}, {"name": "conv_dw_10", "config": {"depthwise_constraint": null, "kernel_size": [3, 3], "bias_regularizer": null, "padding": "same", "strides": [1, 1], "activation": "linear", "depthwise_initializer": {"config": {"seed": null, "dtype": "float32"}, "class_name": "GlorotUniform"}, "name": "conv_dw_10", "dtype": "float32", "dilation_rate": [1, 1], "depthwise_regularizer": null, "bias_constraint": null, "trainable": true, "use_bias": false, "depth_multiplier": 1, "bias_initializer": {"config": {"dtype": "float32"}, "class_name": "Zeros"}, "activity_regularizer": null, "data_format": "channels_last"}, "class_name": "DepthwiseConv2D", "inbound_nodes": [[["conv_pw_9_relu", 0, 0, {}]]]}, {"name": "conv_dw_10_bn", "config": {"gamma_regularizer": null, "gamma_initializer": {"config": {"dtype": "float32"}, "class_name": "Ones"}, "momentum": 0.99, "center": true, "axis": [3], "beta_regularizer": null, "dtype": "float32", "scale": true, "name": "conv_dw_10_bn", "trainable": true, "gamma_constraint": null, "beta_constraint": null, "beta_initializer": {"config": {"dtype": "float32"}, "class_name": "Zeros"}, "moving_variance_initializer": {"config": {"dtype": "float32"}, "class_name": "Ones"}, "epsilon": 0.001, "moving_mean_initializer": {"config": {"dtype": "float32"}, "class_name": "Zeros"}}, "class_name": "BatchNormalization", "inbound_nodes": [[["conv_dw_10", 0, 0, {}]]]}, {"name": "conv_dw_10_relu", "config": {"trainable": true, "threshold": 0.0, "max_value": 6.0, "name": "conv_dw_10_relu", "negative_slope": 0.0, "dtype": "float32"}, "class_name": "ReLU", "inbound_nodes": [[["conv_dw_10_bn", 0, 0, {}]]]}, {"name": "conv_pw_10", "config": {"bias_regularizer": null, "padding": "same", "strides": [1, 1], "kernel_size": [1, 1], "kernel_initializer": {"config": {"seed": null, "dtype": "float32"}, "class_name": "GlorotUniform"}, "dilation_rate": [1, 1], "dtype": "float32", "activation": "linear", "name": "conv_pw_10", "bias_constraint": null, "trainable": true, "kernel_constraint": null, "use_bias": false, "kernel_regularizer": null, "bias_initializer": {"config": {"dtype": "float32"}, "class_name": "Zeros"}, "activity_regularizer": null, "data_format": "channels_last", "filters": 512}, "class_name": "Conv2D", "inbound_nodes": [[["conv_dw_10_relu", 0, 0, {}]]]}, {"name": "conv_pw_10_bn", "config": {"gamma_regularizer": null, "gamma_initializer": {"config": {"dtype": "float32"}, "class_name": "Ones"}, "momentum": 0.99, "center": true, "axis": [3], "beta_regularizer": null, "dtype": "float32", "scale": true, "name": "conv_pw_10_bn", "trainable": true, "gamma_constraint": null, "beta_constraint": null, "beta_initializer": {"config": {"dtype": "float32"}, "class_name": "Zeros"}, "moving_variance_initializer": {"config": {"dtype": "float32"}, "class_name": "Ones"}, "epsilon": 0.001, "moving_mean_initializer": {"config": {"dtype": "float32"}, "class_name": "Zeros"}}, "class_name": "BatchNormalization", "inbound_nodes": [[["conv_pw_10", 0, 0, {}]]]}, {"name": "conv_pw_10_relu", "config": {"trainable": true, "threshold": 0.0, "max_value": 6.0, "name": "conv_pw_10_relu", "negative_slope": 0.0, "dtype": "float32"}, "class_name": "ReLU", "inbound_nodes": [[["conv_pw_10_bn", 0, 0, {}]]]}, {"name": "conv_dw_11", "config": {"depthwise_constraint": null, "kernel_size": [3, 3], "bias_regularizer": null, "padding": "same", "strides": [1, 1], "activation": "linear", "depthwise_initializer": {"config": {"seed": null, "dtype": "float32"}, "class_name": "GlorotUniform"}, "name": "conv_dw_11", "dtype": "float32", "dilation_rate": [1, 1], "depthwise_regularizer": null, "bias_constraint": null, "trainable": true, "use_bias": false, "depth_multiplier": 1, "bias_initializer": {"config": {"dtype": "float32"}, "class_name": "Zeros"}, "activity_regularizer": null, "data_format": "channels_last"}, "class_name": "DepthwiseConv2D", "inbound_nodes": [[["conv_pw_10_relu", 0, 0, {}]]]}, {"name": "conv_dw_11_bn", "config": {"gamma_regularizer": null, "gamma_initializer": {"config": {"dtype": "float32"}, "class_name": "Ones"}, "momentum": 0.99, "center": true, "axis": [3], "beta_regularizer": null, "dtype": "float32", "scale": true, "name": "conv_dw_11_bn", "trainable": true, "gamma_constraint": null, "beta_constraint": null, "beta_initializer": {"config": {"dtype": "float32"}, "class_name": "Zeros"}, "moving_variance_initializer": {"config": {"dtype": "float32"}, "class_name": "Ones"}, "epsilon": 0.001, "moving_mean_initializer": {"config": {"dtype": "float32"}, "class_name": "Zeros"}}, "class_name": "BatchNormalization", "inbound_nodes": [[["conv_dw_11", 0, 0, {}]]]}, {"name": "conv_dw_11_relu", "config": {"trainable": true, "threshold": 0.0, "max_value": 6.0, "name": "conv_dw_11_relu", "negative_slope": 0.0, "dtype": "float32"}, "class_name": "ReLU", "inbound_nodes": [[["conv_dw_11_bn", 0, 0, {}]]]}, {"name": "conv_pw_11", "config": {"bias_regularizer": null, "padding": "same", "strides": [1, 1], "kernel_size": [1, 1], "kernel_initializer": {"config": {"seed": null, "dtype": "float32"}, "class_name": "GlorotUniform"}, "dilation_rate": [1, 1], "dtype": "float32", "activation": "linear", "name": "conv_pw_11", "bias_constraint": null, "trainable": true, "kernel_constraint": null, "use_bias": false, "kernel_regularizer": null, "bias_initializer": {"config": {"dtype": "float32"}, "class_name": "Zeros"}, "activity_regularizer": null, "data_format": "channels_last", "filters": 512}, "class_name": "Conv2D", "inbound_nodes": [[["conv_dw_11_relu", 0, 0, {}]]]}, {"name": "conv_pw_11_bn", "config": {"gamma_regularizer": null, "gamma_initializer": {"config": {"dtype": "float32"}, "class_name": "Ones"}, "momentum": 0.99, "center": true, "axis": [3], "beta_regularizer": null, "dtype": "float32", "scale": true, "name": "conv_pw_11_bn", "trainable": true, "gamma_constraint": null, "beta_constraint": null, "beta_initializer": {"config": {"dtype": "float32"}, "class_name": "Zeros"}, "moving_variance_initializer": {"config": {"dtype": "float32"}, "class_name": "Ones"}, "epsilon": 0.001, "moving_mean_initializer": {"config": {"dtype": "float32"}, "class_name": "Zeros"}}, "class_name": "BatchNormalization", "inbound_nodes": [[["conv_pw_11", 0, 0, {}]]]}, {"name": "conv_pw_11_relu", "config": {"trainable": true, "threshold": 0.0, "max_value": 6.0, "name": "conv_pw_11_relu", "negative_slope": 0.0, "dtype": "float32"}, "class_name": "ReLU", "inbound_nodes": [[["conv_pw_11_bn", 0, 0, {}]]]}, {"name": "conv_pad_12", "config": {"name": "conv_pad_12", "data_format": "channels_last", "trainable": true, "padding": [[0, 1], [0, 1]], "dtype": "float32"}, "class_name": "ZeroPadding2D", "inbound_nodes": [[["conv_pw_11_relu", 0, 0, {}]]]}, {"name": "conv_dw_12", "config": {"depthwise_constraint": null, "kernel_size": [3, 3], "bias_regularizer": null, "padding": "valid", "strides": [2, 2], "activation": "linear", "depthwise_initializer": {"config": {"seed": null, "dtype": "float32"}, "class_name": "GlorotUniform"}, "name": "conv_dw_12", "dtype": "float32", "dilation_rate": [1, 1], "depthwise_regularizer": null, "bias_constraint": null, "trainable": true, "use_bias": false, "depth_multiplier": 1, "bias_initializer": {"config": {"dtype": "float32"}, "class_name": "Zeros"}, "activity_regularizer": null, "data_format": "channels_last"}, "class_name": "DepthwiseConv2D", "inbound_nodes": [[["conv_pad_12", 0, 0, {}]]]}, {"name": "conv_dw_12_bn", "config": {"gamma_regularizer": null, "gamma_initializer": {"config": {"dtype": "float32"}, "class_name": "Ones"}, "momentum": 0.99, "center": true, "axis": [3], "beta_regularizer": null, "dtype": "float32", "scale": true, "name": "conv_dw_12_bn", "trainable": true, "gamma_constraint": null, "beta_constraint": null, "beta_initializer": {"config": {"dtype": "float32"}, "class_name": "Zeros"}, "moving_variance_initializer": {"config": {"dtype": "float32"}, "class_name": "Ones"}, "epsilon": 0.001, "moving_mean_initializer": {"config": {"dtype": "float32"}, "class_name": "Zeros"}}, "class_name": "BatchNormalization", "inbound_nodes": [[["conv_dw_12", 0, 0, {}]]]}, {"name": "conv_dw_12_relu", "config": {"trainable": true, "threshold": 0.0, "max_value": 6.0, "name": "conv_dw_12_relu", "negative_slope": 0.0, "dtype": "float32"}, "class_name": "ReLU", "inbound_nodes": [[["conv_dw_12_bn", 0, 0, {}]]]}, {"name": "conv_pw_12", "config": {"bias_regularizer": null, "padding": "same", "strides": [1, 1], "kernel_size": [1, 1], "kernel_initializer": {"config": {"seed": null, "dtype": "float32"}, "class_name": "GlorotUniform"}, "dilation_rate": [1, 1], "dtype": "float32", "activation": "linear", "name": "conv_pw_12", "bias_constraint": null, "trainable": true, "kernel_constraint": null, "use_bias": false, "kernel_regularizer": null, "bias_initializer": {"config": {"dtype": "float32"}, "class_name": "Zeros"}, "activity_regularizer": null, "data_format": "channels_last", "filters": 1024}, "class_name": "Conv2D", "inbound_nodes": [[["conv_dw_12_relu", 0, 0, {}]]]}, {"name": "conv_pw_12_bn", "config": {"gamma_regularizer": null, "gamma_initializer": {"config": {"dtype": "float32"}, "class_name": "Ones"}, "momentum": 0.99, "center": true, "axis": [3], "beta_regularizer": null, "dtype": "float32", "scale": true, "name": "conv_pw_12_bn", "trainable": true, "gamma_constraint": null, "beta_constraint": null, "beta_initializer": {"config": {"dtype": "float32"}, "class_name": "Zeros"}, "moving_variance_initializer": {"config": {"dtype": "float32"}, "class_name": "Ones"}, "epsilon": 0.001, "moving_mean_initializer": {"config": {"dtype": "float32"}, "class_name": "Zeros"}}, "class_name": "BatchNormalization", "inbound_nodes": [[["conv_pw_12", 0, 0, {}]]]}, {"name": "conv_pw_12_relu", "config": {"trainable": true, "threshold": 0.0, "max_value": 6.0, "name": "conv_pw_12_relu", "negative_slope": 0.0, "dtype": "float32"}, "class_name": "ReLU", "inbound_nodes": [[["conv_pw_12_bn", 0, 0, {}]]]}, {"name": "conv_dw_13", "config": {"depthwise_constraint": null, "kernel_size": [3, 3], "bias_regularizer": null, "padding": "same", "strides": [1, 1], "activation": "linear", "depthwise_initializer": {"config": {"seed": null, "dtype": "float32"}, "class_name": "GlorotUniform"}, "name": "conv_dw_13", "dtype": "float32", "dilation_rate": [1, 1], "depthwise_regularizer": null, "bias_constraint": null, "trainable": true, "use_bias": false, "depth_multiplier": 1, "bias_initializer": {"config": {"dtype": "float32"}, "class_name": "Zeros"}, "activity_regularizer": null, "data_format": "channels_last"}, "class_name": "DepthwiseConv2D", "inbound_nodes": [[["conv_pw_12_relu", 0, 0, {}]]]}, {"name": "conv_dw_13_bn", "config": {"gamma_regularizer": null, "gamma_initializer": {"config": {"dtype": "float32"}, "class_name": "Ones"}, "momentum": 0.99, "center": true, "axis": [3], "beta_regularizer": null, "dtype": "float32", "scale": true, "name": "conv_dw_13_bn", "trainable": true, "gamma_constraint": null, "beta_constraint": null, "beta_initializer": {"config": {"dtype": "float32"}, "class_name": "Zeros"}, "moving_variance_initializer": {"config": {"dtype": "float32"}, "class_name": "Ones"}, "epsilon": 0.001, "moving_mean_initializer": {"config": {"dtype": "float32"}, "class_name": "Zeros"}}, "class_name": "BatchNormalization", "inbound_nodes": [[["conv_dw_13", 0, 0, {}]]]}, {"name": "conv_dw_13_relu", "config": {"trainable": true, "threshold": 0.0, "max_value": 6.0, "name": "conv_dw_13_relu", "negative_slope": 0.0, "dtype": "float32"}, "class_name": "ReLU", "inbound_nodes": [[["conv_dw_13_bn", 0, 0, {}]]]}, {"name": "conv_pw_13", "config": {"bias_regularizer": null, "padding": "same", "strides": [1, 1], "kernel_size": [1, 1], "kernel_initializer": {"config": {"seed": null, "dtype": "float32"}, "class_name": "GlorotUniform"}, "dilation_rate": [1, 1], "dtype": "float32", "activation": "linear", "name": "conv_pw_13", "bias_constraint": null, "trainable": true, "kernel_constraint": null, "use_bias": false, "kernel_regularizer": null, "bias_initializer": {"config": {"dtype": "float32"}, "class_name": "Zeros"}, "activity_regularizer": null, "data_format": "channels_last", "filters": 1024}, "class_name": "Conv2D", "inbound_nodes": [[["conv_dw_13_relu", 0, 0, {}]]]}, {"name": "conv_pw_13_bn", "config": {"gamma_regularizer": null, "gamma_initializer": {"config": {"dtype": "float32"}, "class_name": "Ones"}, "momentum": 0.99, "center": true, "axis": [3], "beta_regularizer": null, "dtype": "float32", "scale": true, "name": "conv_pw_13_bn", "trainable": true, "gamma_constraint": null, "beta_constraint": null, "beta_initializer": {"config": {"dtype": "float32"}, "class_name": "Zeros"}, "moving_variance_initializer": {"config": {"dtype": "float32"}, "class_name": "Ones"}, "epsilon": 0.001, "moving_mean_initializer": {"config": {"dtype": "float32"}, "class_name": "Zeros"}}, "class_name": "BatchNormalization", "inbound_nodes": [[["conv_pw_13", 0, 0, {}]]]}, {"name": "conv_pw_13_relu", "config": {"trainable": true, "threshold": 0.0, "max_value": 6.0, "name": "conv_pw_13_relu", "negative_slope": 0.0, "dtype": "float32"}, "class_name": "ReLU", "inbound_nodes": [[["conv_pw_13_bn", 0, 0, {}]]]}, {"name": "global_average_pooling2d", "config": {"name": "global_average_pooling2d", "data_format": "channels_last", "trainable": true, "dtype": "float32"}, "class_name": "GlobalAveragePooling2D", "inbound_nodes": [[["conv_pw_13_relu", 0, 0, {}]]]}, {"name": "reshape_1", "config": {"name": "reshape_1", "target_shape": [1, 1, 1024], "trainable": true, "dtype": "float32"}, "class_name": "Reshape", "inbound_nodes": [[["global_average_pooling2d", 0, 0, {}]]]}, {"name": "dropout", "config": {"seed": null, "noise_shape": null, "trainable": true, "name": "dropout", "rate": 0.001, "dtype": "float32"}, "class_name": "Dropout", "inbound_nodes": [[["reshape_1", 0, 0, {}]]]}, {"name": "conv_preds", "config": {"bias_regularizer": null, "padding": "same", "strides": [1, 1], "kernel_size": [1, 1], "kernel_initializer": {"config": {"seed": null, "dtype": "float32"}, "class_name": "GlorotUniform"}, "dilation_rate": [1, 1], "dtype": "float32", "activation": "linear", "name": "conv_preds", "bias_constraint": null, "trainable": true, "kernel_constraint": null, "use_bias": true, "kernel_regularizer": null, "bias_initializer": {"config": {"dtype": "float32"}, "class_name": "Zeros"}, "activity_regularizer": null, "data_format": "channels_last", "filters": 1000}, "class_name": "Conv2D", "inbound_nodes": [[["dropout", 0, 0, {}]]]}, {"name": "act_softmax", "config": {"name": "act_softmax", "activation": "softmax", "trainable": true, "dtype": "float32"}, "class_name": "Activation", "inbound_nodes": [[["conv_preds", 0, 0, {}]]]}, {"name": "reshape_2", "config": {"name": "reshape_2", "target_shape": [1000], "trainable": true, "dtype": "float32"}, "class_name": "Reshape", "inbound_nodes": [[["act_softmax", 0, 0, {}]]]}]}, "keras_version": "2.1.6-tf", "class_name": "Model", "backend": "tensorflow"}