{"class_name": "Model", "config": {"name": "resnet50", "layers": [{"inbound_nodes": [], "class_name": "InputLayer", "config": {"sparse": false, "dtype": "float32", "name": "input_1", "batch_input_shape": [null, 224, 224, 3]}, "name": "input_1"}, {"inbound_nodes": [[["input_1", 0, 0, {}]]], "class_name": "Conv2D", "config": {"bias_regularizer": null, "bias_constraint": null, "trainable": true, "name": "conv1", "dilation_rate": [1, 1], "use_bias": true, "filters": 64, "activity_regularizer": null, "activation": "linear", "padding": "same", "kernel_constraint": null, "data_format": "channels_last", "kernel_initializer": {"class_name": "VarianceScaling", "config": {"seed": null, "distribution": "uniform", "dtype": "float32", "scale": 1.0, "mode": "fan_avg"}}, "kernel_size": [7, 7], "kernel_regularizer": null, "dtype": "float32", "strides": [2, 2], "bias_initializer": {"class_name": "Zeros", "config": {"dtype": "float32"}}}, "name": "conv1"}, {"inbound_nodes": [[["conv1", 0, 0, {}]]], "class_name": "BatchNormalization", "config": {"moving_mean_initializer": {"class_name": "Zeros", "config": {"dtype": "float32"}}, "trainable": true, "name": "bn_conv1", "beta_regularizer": null, "gamma_regularizer": null, "moving_variance_initializer": {"class_name": "Ones", "config": {"dtype": "float32"}}, "gamma_initializer": {"class_name": "Ones", "config": {"dtype": "float32"}}, "beta_initializer": {"class_name": "Zeros", "config": {"dtype": "float32"}}, "epsilon": 0.001, "axis": [3], "gamma_constraint": null, "dtype": "float32", "scale": true, "center": true, "momentum": 0.99, "beta_constraint": null}, "name": "bn_conv1"}, {"inbound_nodes": [[["bn_conv1", 0, 0, {}]]], "class_name": "Activation", "config": {"trainable": true, "name": "activation", "activation": "relu", "dtype": "float32"}, "name": "activation"}, {"inbound_nodes": [[["activation", 0, 0, {}]]], "class_name": "MaxPooling2D", "config": {"trainable": true, "name": "max_pooling2d", "pool_size": [3, 3], "data_format": "channels_last", "strides": [2, 2], "dtype": "float32", "padding": "valid"}, "name": "max_pooling2d"}, {"inbound_nodes": [[["max_pooling2d", 0, 0, {}]]], "class_name": "Conv2D", "config": {"bias_regularizer": null, "bias_constraint": null, "trainable": true, "name": "res2a_branch2a", "dilation_rate": [1, 1], "use_bias": true, "filters": 64, "activity_regularizer": null, "activation": "linear", "padding": "valid", "kernel_constraint": null, "data_format": "channels_last", "kernel_initializer": {"class_name": "VarianceScaling", "config": {"seed": null, "distribution": "uniform", "dtype": "float32", "scale": 1.0, "mode": "fan_avg"}}, "kernel_size": [1, 1], "kernel_regularizer": null, "dtype": "float32", "strides": [1, 1], "bias_initializer": {"class_name": "Zeros", "config": {"dtype": "float32"}}}, "name": "res2a_branch2a"}, {"inbound_nodes": [[["res2a_branch2a", 0, 0, {}]]], "class_name": "BatchNormalization", "config": {"moving_mean_initializer": {"class_name": "Zeros", "config": {"dtype": "float32"}}, "trainable": true, "name": "bn2a_branch2a", "beta_regularizer": null, "gamma_regularizer": null, "moving_variance_initializer": {"class_name": "Ones", "config": {"dtype": "float32"}}, "gamma_initializer": {"class_name": "Ones", "config": {"dtype": "float32"}}, "beta_initializer": {"class_name": "Zeros", "config": {"dtype": "float32"}}, "epsilon": 0.001, "axis": [3], "gamma_constraint": null, "dtype": "float32", "scale": true, "center": true, "momentum": 0.99, "beta_constraint": null}, "name": "bn2a_branch2a"}, {"inbound_nodes": [[["bn2a_branch2a", 0, 0, {}]]], "class_name": "Activation", "config": {"trainable": true, "name": "activation_1", "activation": "relu", "dtype": "float32"}, "name": "activation_1"}, {"inbound_nodes": [[["activation_1", 0, 0, {}]]], "class_name": "Conv2D", "config": {"bias_regularizer": null, "bias_constraint": null, "trainable": true, "name": "res2a_branch2b", "dilation_rate": [1, 1], "use_bias": true, "filters": 64, "activity_regularizer": null, "activation": "linear", "padding": "same", "kernel_constraint": null, "data_format": "channels_last", "kernel_initializer": {"class_name": "VarianceScaling", "config": {"seed": null, "distribution": "uniform", "dtype": "float32", "scale": 1.0, "mode": "fan_avg"}}, "kernel_size": [3, 3], "kernel_regularizer": null, "dtype": "float32", "strides": [1, 1], "bias_initializer": {"class_name": "Zeros", "config": {"dtype": "float32"}}}, "name": "res2a_branch2b"}, {"inbound_nodes": [[["res2a_branch2b", 0, 0, {}]]], "class_name": "BatchNormalization", "config": {"moving_mean_initializer": {"class_name": "Zeros", "config": {"dtype": "float32"}}, "trainable": true, "name": "bn2a_branch2b", "beta_regularizer": null, "gamma_regularizer": null, "moving_variance_initializer": {"class_name": "Ones", "config": {"dtype": "float32"}}, "gamma_initializer": {"class_name": "Ones", "config": {"dtype": "float32"}}, "beta_initializer": {"class_name": "Zeros", "config": {"dtype": "float32"}}, "epsilon": 0.001, "axis": [3], "gamma_constraint": null, "dtype": "float32", "scale": true, "center": true, "momentum": 0.99, "beta_constraint": null}, "name": "bn2a_branch2b"}, {"inbound_nodes": [[["bn2a_branch2b", 0, 0, {}]]], "class_name": "Activation", "config": {"trainable": true, "name": "activation_2", "activation": "relu", "dtype": "float32"}, "name": "activation_2"}, {"inbound_nodes": [[["activation_2", 0, 0, {}]]], "class_name": "Conv2D", "config": {"bias_regularizer": null, "bias_constraint": null, "trainable": true, "name": "res2a_branch2c", "dilation_rate": [1, 1], "use_bias": true, "filters": 256, "activity_regularizer": null, "activation": "linear", "padding": "valid", "kernel_constraint": null, "data_format": "channels_last", "kernel_initializer": {"class_name": "VarianceScaling", "config": {"seed": null, "distribution": "uniform", "dtype": "float32", "scale": 1.0, "mode": "fan_avg"}}, "kernel_size": [1, 1], "kernel_regularizer": null, "dtype": "float32", "strides": [1, 1], "bias_initializer": {"class_name": "Zeros", "config": {"dtype": "float32"}}}, "name": "res2a_branch2c"}, {"inbound_nodes": [[["max_pooling2d", 0, 0, {}]]], "class_name": "Conv2D", "config": {"bias_regularizer": null, "bias_constraint": null, "trainable": true, "name": "res2a_branch1", "dilation_rate": [1, 1], "use_bias": true, "filters": 256, "activity_regularizer": null, "activation": "linear", "padding": "valid", "kernel_constraint": null, "data_format": "channels_last", "kernel_initializer": {"class_name": "VarianceScaling", "config": {"seed": null, "distribution": "uniform", "dtype": "float32", "scale": 1.0, "mode": "fan_avg"}}, "kernel_size": [1, 1], "kernel_regularizer": null, "dtype": "float32", "strides": [1, 1], "bias_initializer": {"class_name": "Zeros", "config": {"dtype": "float32"}}}, "name": "res2a_branch1"}, {"inbound_nodes": [[["res2a_branch2c", 0, 0, {}]]], "class_name": "BatchNormalization", "config": {"moving_mean_initializer": {"class_name": "Zeros", "config": {"dtype": "float32"}}, "trainable": true, "name": "bn2a_branch2c", "beta_regularizer": null, "gamma_regularizer": null, "moving_variance_initializer": {"class_name": "Ones", "config": {"dtype": "float32"}}, "gamma_initializer": {"class_name": "Ones", "config": {"dtype": "float32"}}, "beta_initializer": {"class_name": "Zeros", "config": {"dtype": "float32"}}, "epsilon": 0.001, "axis": [3], "gamma_constraint": null, "dtype": "float32", "scale": true, "center": true, "momentum": 0.99, "beta_constraint": null}, "name": "bn2a_branch2c"}, {"inbound_nodes": [[["res2a_branch1", 0, 0, {}]]], "class_name": "BatchNormalization", "config": {"moving_mean_initializer": {"class_name": "Zeros", "config": {"dtype": "float32"}}, "trainable": true, "name": "bn2a_branch1", "beta_regularizer": null, "gamma_regularizer": null, "moving_variance_initializer": {"class_name": "Ones", "config": {"dtype": "float32"}}, "gamma_initializer": {"class_name": "Ones", "config": {"dtype": "float32"}}, "beta_initializer": {"class_name": "Zeros", "config": {"dtype": "float32"}}, "epsilon": 0.001, "axis": [3], "gamma_constraint": null, "dtype": "float32", "scale": true, "center": true, "momentum": 0.99, "beta_constraint": null}, "name": "bn2a_branch1"}, {"inbound_nodes": [[["bn2a_branch2c", 0, 0, {}], ["bn2a_branch1", 0, 0, {}]]], "class_name": "Add", "config": {"trainable": true, "name": "add", "dtype": "float32"}, "name": "add"}, {"inbound_nodes": [[["add", 0, 0, {}]]], "class_name": "Activation", "config": {"trainable": true, "name": "activation_3", "activation": "relu", "dtype": "float32"}, "name": "activation_3"}, {"inbound_nodes": [[["activation_3", 0, 0, {}]]], "class_name": "Conv2D", "config": {"bias_regularizer": null, "bias_constraint": null, "trainable": true, "name": "res2b_branch2a", "dilation_rate": [1, 1], "use_bias": true, "filters": 64, "activity_regularizer": null, "activation": "linear", "padding": "valid", "kernel_constraint": null, "data_format": "channels_last", "kernel_initializer": {"class_name": "VarianceScaling", "config": {"seed": null, "distribution": "uniform", "dtype": "float32", "scale": 1.0, "mode": "fan_avg"}}, "kernel_size": [1, 1], "kernel_regularizer": null, "dtype": "float32", "strides": [1, 1], "bias_initializer": {"class_name": "Zeros", "config": {"dtype": "float32"}}}, "name": "res2b_branch2a"}, {"inbound_nodes": [[["res2b_branch2a", 0, 0, {}]]], "class_name": "BatchNormalization", "config": {"moving_mean_initializer": {"class_name": "Zeros", "config": {"dtype": "float32"}}, "trainable": true, "name": "bn2b_branch2a", "beta_regularizer": null, "gamma_regularizer": null, "moving_variance_initializer": {"class_name": "Ones", "config": {"dtype": "float32"}}, "gamma_initializer": {"class_name": "Ones", "config": {"dtype": "float32"}}, "beta_initializer": {"class_name": "Zeros", "config": {"dtype": "float32"}}, "epsilon": 0.001, "axis": [3], "gamma_constraint": null, "dtype": "float32", "scale": true, "center": true, "momentum": 0.99, "beta_constraint": null}, "name": "bn2b_branch2a"}, {"inbound_nodes": [[["bn2b_branch2a", 0, 0, {}]]], "class_name": "Activation", "config": {"trainable": true, "name": "activation_4", "activation": "relu", "dtype": "float32"}, "name": "activation_4"}, {"inbound_nodes": [[["activation_4", 0, 0, {}]]], "class_name": "Conv2D", "config": {"bias_regularizer": null, "bias_constraint": null, "trainable": true, "name": "res2b_branch2b", "dilation_rate": [1, 1], "use_bias": true, "filters": 64, "activity_regularizer": null, "activation": "linear", "padding": "same", "kernel_constraint": null, "data_format": "channels_last", "kernel_initializer": {"class_name": "VarianceScaling", "config": {"seed": null, "distribution": "uniform", "dtype": "float32", "scale": 1.0, "mode": "fan_avg"}}, "kernel_size": [3, 3], "kernel_regularizer": null, "dtype": "float32", "strides": [1, 1], "bias_initializer": {"class_name": "Zeros", "config": {"dtype": "float32"}}}, "name": "res2b_branch2b"}, {"inbound_nodes": [[["res2b_branch2b", 0, 0, {}]]], "class_name": "BatchNormalization", "config": {"moving_mean_initializer": {"class_name": "Zeros", "config": {"dtype": "float32"}}, "trainable": true, "name": "bn2b_branch2b", "beta_regularizer": null, "gamma_regularizer": null, "moving_variance_initializer": {"class_name": "Ones", "config": {"dtype": "float32"}}, "gamma_initializer": {"class_name": "Ones", "config": {"dtype": "float32"}}, "beta_initializer": {"class_name": "Zeros", "config": {"dtype": "float32"}}, "epsilon": 0.001, "axis": [3], "gamma_constraint": null, "dtype": "float32", "scale": true, "center": true, "momentum": 0.99, "beta_constraint": null}, "name": "bn2b_branch2b"}, {"inbound_nodes": [[["bn2b_branch2b", 0, 0, {}]]], "class_name": "Activation", "config": {"trainable": true, "name": "activation_5", "activation": "relu", "dtype": "float32"}, "name": "activation_5"}, {"inbound_nodes": [[["activation_5", 0, 0, {}]]], "class_name": "Conv2D", "config": {"bias_regularizer": null, "bias_constraint": null, "trainable": true, "name": "res2b_branch2c", "dilation_rate": [1, 1], "use_bias": true, "filters": 256, "activity_regularizer": null, "activation": "linear", "padding": "valid", "kernel_constraint": null, "data_format": "channels_last", "kernel_initializer": {"class_name": "VarianceScaling", "config": {"seed": null, "distribution": "uniform", "dtype": "float32", "scale": 1.0, "mode": "fan_avg"}}, "kernel_size": [1, 1], "kernel_regularizer": null, "dtype": "float32", "strides": [1, 1], "bias_initializer": {"class_name": "Zeros", "config": {"dtype": "float32"}}}, "name": "res2b_branch2c"}, {"inbound_nodes": [[["res2b_branch2c", 0, 0, {}]]], "class_name": "BatchNormalization", "config": {"moving_mean_initializer": {"class_name": "Zeros", "config": {"dtype": "float32"}}, "trainable": true, "name": "bn2b_branch2c", "beta_regularizer": null, "gamma_regularizer": null, "moving_variance_initializer": {"class_name": "Ones", "config": {"dtype": "float32"}}, "gamma_initializer": {"class_name": "Ones", "config": {"dtype": "float32"}}, "beta_initializer": {"class_name": "Zeros", "config": {"dtype": "float32"}}, "epsilon": 0.001, "axis": [3], "gamma_constraint": null, "dtype": "float32", "scale": true, "center": true, "momentum": 0.99, "beta_constraint": null}, "name": "bn2b_branch2c"}, {"inbound_nodes": [[["bn2b_branch2c", 0, 0, {}], ["activation_3", 0, 0, {}]]], "class_name": "Add", "config": {"trainable": true, "name": "add_1", "dtype": "float32"}, "name": "add_1"}, {"inbound_nodes": [[["add_1", 0, 0, {}]]], "class_name": "Activation", "config": {"trainable": true, "name": "activation_6", "activation": "relu", "dtype": "float32"}, "name": "activation_6"}, {"inbound_nodes": [[["activation_6", 0, 0, {}]]], "class_name": "Conv2D", "config": {"bias_regularizer": null, "bias_constraint": null, "trainable": true, "name": "res2c_branch2a", "dilation_rate": [1, 1], "use_bias": true, "filters": 64, "activity_regularizer": null, "activation": "linear", "padding": "valid", "kernel_constraint": null, "data_format": "channels_last", "kernel_initializer": {"class_name": "VarianceScaling", "config": {"seed": null, "distribution": "uniform", "dtype": "float32", "scale": 1.0, "mode": "fan_avg"}}, "kernel_size": [1, 1], "kernel_regularizer": null, "dtype": "float32", "strides": [1, 1], "bias_initializer": {"class_name": "Zeros", "config": {"dtype": "float32"}}}, "name": "res2c_branch2a"}, {"inbound_nodes": [[["res2c_branch2a", 0, 0, {}]]], "class_name": "BatchNormalization", "config": {"moving_mean_initializer": {"class_name": "Zeros", "config": {"dtype": "float32"}}, "trainable": true, "name": "bn2c_branch2a", "beta_regularizer": null, "gamma_regularizer": null, "moving_variance_initializer": {"class_name": "Ones", "config": {"dtype": "float32"}}, "gamma_initializer": {"class_name": "Ones", "config": {"dtype": "float32"}}, "beta_initializer": {"class_name": "Zeros", "config": {"dtype": "float32"}}, "epsilon": 0.001, "axis": [3], "gamma_constraint": null, "dtype": "float32", "scale": true, "center": true, "momentum": 0.99, "beta_constraint": null}, "name": "bn2c_branch2a"}, {"inbound_nodes": [[["bn2c_branch2a", 0, 0, {}]]], "class_name": "Activation", "config": {"trainable": true, "name": "activation_7", "activation": "relu", "dtype": "float32"}, "name": "activation_7"}, {"inbound_nodes": [[["activation_7", 0, 0, {}]]], "class_name": "Conv2D", "config": {"bias_regularizer": null, "bias_constraint": null, "trainable": true, "name": "res2c_branch2b", "dilation_rate": [1, 1], "use_bias": true, "filters": 64, "activity_regularizer": null, "activation": "linear", "padding": "same", "kernel_constraint": null, "data_format": "channels_last", "kernel_initializer": {"class_name": "VarianceScaling", "config": {"seed": null, "distribution": "uniform", "dtype": "float32", "scale": 1.0, "mode": "fan_avg"}}, "kernel_size": [3, 3], "kernel_regularizer": null, "dtype": "float32", "strides": [1, 1], "bias_initializer": {"class_name": "Zeros", "config": {"dtype": "float32"}}}, "name": "res2c_branch2b"}, {"inbound_nodes": [[["res2c_branch2b", 0, 0, {}]]], "class_name": "BatchNormalization", "config": {"moving_mean_initializer": {"class_name": "Zeros", "config": {"dtype": "float32"}}, "trainable": true, "name": "bn2c_branch2b", "beta_regularizer": null, "gamma_regularizer": null, "moving_variance_initializer": {"class_name": "Ones", "config": {"dtype": "float32"}}, "gamma_initializer": {"class_name": "Ones", "config": {"dtype": "float32"}}, "beta_initializer": {"class_name": "Zeros", "config": {"dtype": "float32"}}, "epsilon": 0.001, "axis": [3], "gamma_constraint": null, "dtype": "float32", "scale": true, "center": true, "momentum": 0.99, "beta_constraint": null}, "name": "bn2c_branch2b"}, {"inbound_nodes": [[["bn2c_branch2b", 0, 0, {}]]], "class_name": "Activation", "config": {"trainable": true, "name": "activation_8", "activation": "relu", "dtype": "float32"}, "name": "activation_8"}, {"inbound_nodes": [[["activation_8", 0, 0, {}]]], "class_name": "Conv2D", "config": {"bias_regularizer": null, "bias_constraint": null, "trainable": true, "name": "res2c_branch2c", "dilation_rate": [1, 1], "use_bias": true, "filters": 256, "activity_regularizer": null, "activation": "linear", "padding": "valid", "kernel_constraint": null, "data_format": "channels_last", "kernel_initializer": {"class_name": "VarianceScaling", "config": {"seed": null, "distribution": "uniform", "dtype": "float32", "scale": 1.0, "mode": "fan_avg"}}, "kernel_size": [1, 1], "kernel_regularizer": null, "dtype": "float32", "strides": [1, 1], "bias_initializer": {"class_name": "Zeros", "config": {"dtype": "float32"}}}, "name": "res2c_branch2c"}, {"inbound_nodes": [[["res2c_branch2c", 0, 0, {}]]], "class_name": "BatchNormalization", "config": {"moving_mean_initializer": {"class_name": "Zeros", "config": {"dtype": "float32"}}, "trainable": true, "name": "bn2c_branch2c", "beta_regularizer": null, "gamma_regularizer": null, "moving_variance_initializer": {"class_name": "Ones", "config": {"dtype": "float32"}}, "gamma_initializer": {"class_name": "Ones", "config": {"dtype": "float32"}}, "beta_initializer": {"class_name": "Zeros", "config": {"dtype": "float32"}}, "epsilon": 0.001, "axis": [3], "gamma_constraint": null, "dtype": "float32", "scale": true, "center": true, "momentum": 0.99, "beta_constraint": null}, "name": "bn2c_branch2c"}, {"inbound_nodes": [[["bn2c_branch2c", 0, 0, {}], ["activation_6", 0, 0, {}]]], "class_name": "Add", "config": {"trainable": true, "name": "add_2", "dtype": "float32"}, "name": "add_2"}, {"inbound_nodes": [[["add_2", 0, 0, {}]]], "class_name": "Activation", "config": {"trainable": true, "name": "activation_9", "activation": "relu", "dtype": "float32"}, "name": "activation_9"}, {"inbound_nodes": [[["activation_9", 0, 0, {}]]], "class_name": "Conv2D", "config": {"bias_regularizer": null, "bias_constraint": null, "trainable": true, "name": "res3a_branch2a", "dilation_rate": [1, 1], "use_bias": true, "filters": 128, "activity_regularizer": null, "activation": "linear", "padding": "valid", "kernel_constraint": null, "data_format": "channels_last", "kernel_initializer": {"class_name": "VarianceScaling", "config": {"seed": null, "distribution": "uniform", "dtype": "float32", "scale": 1.0, "mode": "fan_avg"}}, "kernel_size": [1, 1], "kernel_regularizer": null, "dtype": "float32", "strides": [2, 2], "bias_initializer": {"class_name": "Zeros", "config": {"dtype": "float32"}}}, "name": "res3a_branch2a"}, {"inbound_nodes": [[["res3a_branch2a", 0, 0, {}]]], "class_name": "BatchNormalization", "config": {"moving_mean_initializer": {"class_name": "Zeros", "config": {"dtype": "float32"}}, "trainable": true, "name": "bn3a_branch2a", "beta_regularizer": null, "gamma_regularizer": null, "moving_variance_initializer": {"class_name": "Ones", "config": {"dtype": "float32"}}, "gamma_initializer": {"class_name": "Ones", "config": {"dtype": "float32"}}, "beta_initializer": {"class_name": "Zeros", "config": {"dtype": "float32"}}, "epsilon": 0.001, "axis": [3], "gamma_constraint": null, "dtype": "float32", "scale": true, "center": true, "momentum": 0.99, "beta_constraint": null}, "name": "bn3a_branch2a"}, {"inbound_nodes": [[["bn3a_branch2a", 0, 0, {}]]], "class_name": "Activation", "config": {"trainable": true, "name": "activation_10", "activation": "relu", "dtype": "float32"}, "name": "activation_10"}, {"inbound_nodes": [[["activation_10", 0, 0, {}]]], "class_name": "Conv2D", "config": {"bias_regularizer": null, "bias_constraint": null, "trainable": true, "name": "res3a_branch2b", "dilation_rate": [1, 1], "use_bias": true, "filters": 128, "activity_regularizer": null, "activation": "linear", "padding": "same", "kernel_constraint": null, "data_format": "channels_last", "kernel_initializer": {"class_name": "VarianceScaling", "config": {"seed": null, "distribution": "uniform", "dtype": "float32", "scale": 1.0, "mode": "fan_avg"}}, "kernel_size": [3, 3], "kernel_regularizer": null, "dtype": "float32", "strides": [1, 1], "bias_initializer": {"class_name": "Zeros", "config": {"dtype": "float32"}}}, "name": "res3a_branch2b"}, {"inbound_nodes": [[["res3a_branch2b", 0, 0, {}]]], "class_name": "BatchNormalization", "config": {"moving_mean_initializer": {"class_name": "Zeros", "config": {"dtype": "float32"}}, "trainable": true, "name": "bn3a_branch2b", "beta_regularizer": null, "gamma_regularizer": null, "moving_variance_initializer": {"class_name": "Ones", "config": {"dtype": "float32"}}, "gamma_initializer": {"class_name": "Ones", "config": {"dtype": "float32"}}, "beta_initializer": {"class_name": "Zeros", "config": {"dtype": "float32"}}, "epsilon": 0.001, "axis": [3], "gamma_constraint": null, "dtype": "float32", "scale": true, "center": true, "momentum": 0.99, "beta_constraint": null}, "name": "bn3a_branch2b"}, {"inbound_nodes": [[["bn3a_branch2b", 0, 0, {}]]], "class_name": "Activation", "config": {"trainable": true, "name": "activation_11", "activation": "relu", "dtype": "float32"}, "name": "activation_11"}, {"inbound_nodes": [[["activation_11", 0, 0, {}]]], "class_name": "Conv2D", "config": {"bias_regularizer": null, "bias_constraint": null, "trainable": true, "name": "res3a_branch2c", "dilation_rate": [1, 1], "use_bias": true, "filters": 512, "activity_regularizer": null, "activation": "linear", "padding": "valid", "kernel_constraint": null, "data_format": "channels_last", "kernel_initializer": {"class_name": "VarianceScaling", "config": {"seed": null, "distribution": "uniform", "dtype": "float32", "scale": 1.0, "mode": "fan_avg"}}, "kernel_size": [1, 1], "kernel_regularizer": null, "dtype": "float32", "strides": [1, 1], "bias_initializer": {"class_name": "Zeros", "config": {"dtype": "float32"}}}, "name": "res3a_branch2c"}, {"inbound_nodes": [[["activation_9", 0, 0, {}]]], "class_name": "Conv2D", "config": {"bias_regularizer": null, "bias_constraint": null, "trainable": true, "name": "res3a_branch1", "dilation_rate": [1, 1], "use_bias": true, "filters": 512, "activity_regularizer": null, "activation": "linear", "padding": "valid", "kernel_constraint": null, "data_format": "channels_last", "kernel_initializer": {"class_name": "VarianceScaling", "config": {"seed": null, "distribution": "uniform", "dtype": "float32", "scale": 1.0, "mode": "fan_avg"}}, "kernel_size": [1, 1], "kernel_regularizer": null, "dtype": "float32", "strides": [2, 2], "bias_initializer": {"class_name": "Zeros", "config": {"dtype": "float32"}}}, "name": "res3a_branch1"}, {"inbound_nodes": [[["res3a_branch2c", 0, 0, {}]]], "class_name": "BatchNormalization", "config": {"moving_mean_initializer": {"class_name": "Zeros", "config": {"dtype": "float32"}}, "trainable": true, "name": "bn3a_branch2c", "beta_regularizer": null, "gamma_regularizer": null, "moving_variance_initializer": {"class_name": "Ones", "config": {"dtype": "float32"}}, "gamma_initializer": {"class_name": "Ones", "config": {"dtype": "float32"}}, "beta_initializer": {"class_name": "Zeros", "config": {"dtype": "float32"}}, "epsilon": 0.001, "axis": [3], "gamma_constraint": null, "dtype": "float32", "scale": true, "center": true, "momentum": 0.99, "beta_constraint": null}, "name": "bn3a_branch2c"}, {"inbound_nodes": [[["res3a_branch1", 0, 0, {}]]], "class_name": "BatchNormalization", "config": {"moving_mean_initializer": {"class_name": "Zeros", "config": {"dtype": "float32"}}, "trainable": true, "name": "bn3a_branch1", "beta_regularizer": null, "gamma_regularizer": null, "moving_variance_initializer": {"class_name": "Ones", "config": {"dtype": "float32"}}, "gamma_initializer": {"class_name": "Ones", "config": {"dtype": "float32"}}, "beta_initializer": {"class_name": "Zeros", "config": {"dtype": "float32"}}, "epsilon": 0.001, "axis": [3], "gamma_constraint": null, "dtype": "float32", "scale": true, "center": true, "momentum": 0.99, "beta_constraint": null}, "name": "bn3a_branch1"}, {"inbound_nodes": [[["bn3a_branch2c", 0, 0, {}], ["bn3a_branch1", 0, 0, {}]]], "class_name": "Add", "config": {"trainable": true, "name": "add_3", "dtype": "float32"}, "name": "add_3"}, {"inbound_nodes": [[["add_3", 0, 0, {}]]], "class_name": "Activation", "config": {"trainable": true, "name": "activation_12", "activation": "relu", "dtype": "float32"}, "name": "activation_12"}, {"inbound_nodes": [[["activation_12", 0, 0, {}]]], "class_name": "Conv2D", "config": {"bias_regularizer": null, "bias_constraint": null, "trainable": true, "name": "res3b_branch2a", "dilation_rate": [1, 1], "use_bias": true, "filters": 128, "activity_regularizer": null, "activation": "linear", "padding": "valid", "kernel_constraint": null, "data_format": "channels_last", "kernel_initializer": {"class_name": "VarianceScaling", "config": {"seed": null, "distribution": "uniform", "dtype": "float32", "scale": 1.0, "mode": "fan_avg"}}, "kernel_size": [1, 1], "kernel_regularizer": null, "dtype": "float32", "strides": [1, 1], "bias_initializer": {"class_name": "Zeros", "config": {"dtype": "float32"}}}, "name": "res3b_branch2a"}, {"inbound_nodes": [[["res3b_branch2a", 0, 0, {}]]], "class_name": "BatchNormalization", "config": {"moving_mean_initializer": {"class_name": "Zeros", "config": {"dtype": "float32"}}, "trainable": true, "name": "bn3b_branch2a", "beta_regularizer": null, "gamma_regularizer": null, "moving_variance_initializer": {"class_name": "Ones", "config": {"dtype": "float32"}}, "gamma_initializer": {"class_name": "Ones", "config": {"dtype": "float32"}}, "beta_initializer": {"class_name": "Zeros", "config": {"dtype": "float32"}}, "epsilon": 0.001, "axis": [3], "gamma_constraint": null, "dtype": "float32", "scale": true, "center": true, "momentum": 0.99, "beta_constraint": null}, "name": "bn3b_branch2a"}, {"inbound_nodes": [[["bn3b_branch2a", 0, 0, {}]]], "class_name": "Activation", "config": {"trainable": true, "name": "activation_13", "activation": "relu", "dtype": "float32"}, "name": "activation_13"}, {"inbound_nodes": [[["activation_13", 0, 0, {}]]], "class_name": "Conv2D", "config": {"bias_regularizer": null, "bias_constraint": null, "trainable": true, "name": "res3b_branch2b", "dilation_rate": [1, 1], "use_bias": true, "filters": 128, "activity_regularizer": null, "activation": "linear", "padding": "same", "kernel_constraint": null, "data_format": "channels_last", "kernel_initializer": {"class_name": "VarianceScaling", "config": {"seed": null, "distribution": "uniform", "dtype": "float32", "scale": 1.0, "mode": "fan_avg"}}, "kernel_size": [3, 3], "kernel_regularizer": null, "dtype": "float32", "strides": [1, 1], "bias_initializer": {"class_name": "Zeros", "config": {"dtype": "float32"}}}, "name": "res3b_branch2b"}, {"inbound_nodes": [[["res3b_branch2b", 0, 0, {}]]], "class_name": "BatchNormalization", "config": {"moving_mean_initializer": {"class_name": "Zeros", "config": {"dtype": "float32"}}, "trainable": true, "name": "bn3b_branch2b", "beta_regularizer": null, "gamma_regularizer": null, "moving_variance_initializer": {"class_name": "Ones", "config": {"dtype": "float32"}}, "gamma_initializer": {"class_name": "Ones", "config": {"dtype": "float32"}}, "beta_initializer": {"class_name": "Zeros", "config": {"dtype": "float32"}}, "epsilon": 0.001, "axis": [3], "gamma_constraint": null, "dtype": "float32", "scale": true, "center": true, "momentum": 0.99, "beta_constraint": null}, "name": "bn3b_branch2b"}, {"inbound_nodes": [[["bn3b_branch2b", 0, 0, {}]]], "class_name": "Activation", "config": {"trainable": true, "name": "activation_14", "activation": "relu", "dtype": "float32"}, "name": "activation_14"}, {"inbound_nodes": [[["activation_14", 0, 0, {}]]], "class_name": "Conv2D", "config": {"bias_regularizer": null, "bias_constraint": null, "trainable": true, "name": "res3b_branch2c", "dilation_rate": [1, 1], "use_bias": true, "filters": 512, "activity_regularizer": null, "activation": "linear", "padding": "valid", "kernel_constraint": null, "data_format": "channels_last", "kernel_initializer": {"class_name": "VarianceScaling", "config": {"seed": null, "distribution": "uniform", "dtype": "float32", "scale": 1.0, "mode": "fan_avg"}}, "kernel_size": [1, 1], "kernel_regularizer": null, "dtype": "float32", "strides": [1, 1], "bias_initializer": {"class_name": "Zeros", "config": {"dtype": "float32"}}}, "name": "res3b_branch2c"}, {"inbound_nodes": [[["res3b_branch2c", 0, 0, {}]]], "class_name": "BatchNormalization", "config": {"moving_mean_initializer": {"class_name": "Zeros", "config": {"dtype": "float32"}}, "trainable": true, "name": "bn3b_branch2c", "beta_regularizer": null, "gamma_regularizer": null, "moving_variance_initializer": {"class_name": "Ones", "config": {"dtype": "float32"}}, "gamma_initializer": {"class_name": "Ones", "config": {"dtype": "float32"}}, "beta_initializer": {"class_name": "Zeros", "config": {"dtype": "float32"}}, "epsilon": 0.001, "axis": [3], "gamma_constraint": null, "dtype": "float32", "scale": true, "center": true, "momentum": 0.99, "beta_constraint": null}, "name": "bn3b_branch2c"}, {"inbound_nodes": [[["bn3b_branch2c", 0, 0, {}], ["activation_12", 0, 0, {}]]], "class_name": "Add", "config": {"trainable": true, "name": "add_4", "dtype": "float32"}, "name": "add_4"}, {"inbound_nodes": [[["add_4", 0, 0, {}]]], "class_name": "Activation", "config": {"trainable": true, "name": "activation_15", "activation": "relu", "dtype": "float32"}, "name": "activation_15"}, {"inbound_nodes": [[["activation_15", 0, 0, {}]]], "class_name": "Conv2D", "config": {"bias_regularizer": null, "bias_constraint": null, "trainable": true, "name": "res3c_branch2a", "dilation_rate": [1, 1], "use_bias": true, "filters": 128, "activity_regularizer": null, "activation": "linear", "padding": "valid", "kernel_constraint": null, "data_format": "channels_last", "kernel_initializer": {"class_name": "VarianceScaling", "config": {"seed": null, "distribution": "uniform", "dtype": "float32", "scale": 1.0, "mode": "fan_avg"}}, "kernel_size": [1, 1], "kernel_regularizer": null, "dtype": "float32", "strides": [1, 1], "bias_initializer": {"class_name": "Zeros", "config": {"dtype": "float32"}}}, "name": "res3c_branch2a"}, {"inbound_nodes": [[["res3c_branch2a", 0, 0, {}]]], "class_name": "BatchNormalization", "config": {"moving_mean_initializer": {"class_name": "Zeros", "config": {"dtype": "float32"}}, "trainable": true, "name": "bn3c_branch2a", "beta_regularizer": null, "gamma_regularizer": null, "moving_variance_initializer": {"class_name": "Ones", "config": {"dtype": "float32"}}, "gamma_initializer": {"class_name": "Ones", "config": {"dtype": "float32"}}, "beta_initializer": {"class_name": "Zeros", "config": {"dtype": "float32"}}, "epsilon": 0.001, "axis": [3], "gamma_constraint": null, "dtype": "float32", "scale": true, "center": true, "momentum": 0.99, "beta_constraint": null}, "name": "bn3c_branch2a"}, {"inbound_nodes": [[["bn3c_branch2a", 0, 0, {}]]], "class_name": "Activation", "config": {"trainable": true, "name": "activation_16", "activation": "relu", "dtype": "float32"}, "name": "activation_16"}, {"inbound_nodes": [[["activation_16", 0, 0, {}]]], "class_name": "Conv2D", "config": {"bias_regularizer": null, "bias_constraint": null, "trainable": true, "name": "res3c_branch2b", "dilation_rate": [1, 1], "use_bias": true, "filters": 128, "activity_regularizer": null, "activation": "linear", "padding": "same", "kernel_constraint": null, "data_format": "channels_last", "kernel_initializer": {"class_name": "VarianceScaling", "config": {"seed": null, "distribution": "uniform", "dtype": "float32", "scale": 1.0, "mode": "fan_avg"}}, "kernel_size": [3, 3], "kernel_regularizer": null, "dtype": "float32", "strides": [1, 1], "bias_initializer": {"class_name": "Zeros", "config": {"dtype": "float32"}}}, "name": "res3c_branch2b"}, {"inbound_nodes": [[["res3c_branch2b", 0, 0, {}]]], "class_name": "BatchNormalization", "config": {"moving_mean_initializer": {"class_name": "Zeros", "config": {"dtype": "float32"}}, "trainable": true, "name": "bn3c_branch2b", "beta_regularizer": null, "gamma_regularizer": null, "moving_variance_initializer": {"class_name": "Ones", "config": {"dtype": "float32"}}, "gamma_initializer": {"class_name": "Ones", "config": {"dtype": "float32"}}, "beta_initializer": {"class_name": "Zeros", "config": {"dtype": "float32"}}, "epsilon": 0.001, "axis": [3], "gamma_constraint": null, "dtype": "float32", "scale": true, "center": true, "momentum": 0.99, "beta_constraint": null}, "name": "bn3c_branch2b"}, {"inbound_nodes": [[["bn3c_branch2b", 0, 0, {}]]], "class_name": "Activation", "config": {"trainable": true, "name": "activation_17", "activation": "relu", "dtype": "float32"}, "name": "activation_17"}, {"inbound_nodes": [[["activation_17", 0, 0, {}]]], "class_name": "Conv2D", "config": {"bias_regularizer": null, "bias_constraint": null, "trainable": true, "name": "res3c_branch2c", "dilation_rate": [1, 1], "use_bias": true, "filters": 512, "activity_regularizer": null, "activation": "linear", "padding": "valid", "kernel_constraint": null, "data_format": "channels_last", "kernel_initializer": {"class_name": "VarianceScaling", "config": {"seed": null, "distribution": "uniform", "dtype": "float32", "scale": 1.0, "mode": "fan_avg"}}, "kernel_size": [1, 1], "kernel_regularizer": null, "dtype": "float32", "strides": [1, 1], "bias_initializer": {"class_name": "Zeros", "config": {"dtype": "float32"}}}, "name": "res3c_branch2c"}, {"inbound_nodes": [[["res3c_branch2c", 0, 0, {}]]], "class_name": "BatchNormalization", "config": {"moving_mean_initializer": {"class_name": "Zeros", "config": {"dtype": "float32"}}, "trainable": true, "name": "bn3c_branch2c", "beta_regularizer": null, "gamma_regularizer": null, "moving_variance_initializer": {"class_name": "Ones", "config": {"dtype": "float32"}}, "gamma_initializer": {"class_name": "Ones", "config": {"dtype": "float32"}}, "beta_initializer": {"class_name": "Zeros", "config": {"dtype": "float32"}}, "epsilon": 0.001, "axis": [3], "gamma_constraint": null, "dtype": "float32", "scale": true, "center": true, "momentum": 0.99, "beta_constraint": null}, "name": "bn3c_branch2c"}, {"inbound_nodes": [[["bn3c_branch2c", 0, 0, {}], ["activation_15", 0, 0, {}]]], "class_name": "Add", "config": {"trainable": true, "name": "add_5", "dtype": "float32"}, "name": "add_5"}, {"inbound_nodes": [[["add_5", 0, 0, {}]]], "class_name": "Activation", "config": {"trainable": true, "name": "activation_18", "activation": "relu", "dtype": "float32"}, "name": "activation_18"}, {"inbound_nodes": [[["activation_18", 0, 0, {}]]], "class_name": "Conv2D", "config": {"bias_regularizer": null, "bias_constraint": null, "trainable": true, "name": "res3d_branch2a", "dilation_rate": [1, 1], "use_bias": true, "filters": 128, "activity_regularizer": null, "activation": "linear", "padding": "valid", "kernel_constraint": null, "data_format": "channels_last", "kernel_initializer": {"class_name": "VarianceScaling", "config": {"seed": null, "distribution": "uniform", "dtype": "float32", "scale": 1.0, "mode": "fan_avg"}}, "kernel_size": [1, 1], "kernel_regularizer": null, "dtype": "float32", "strides": [1, 1], "bias_initializer": {"class_name": "Zeros", "config": {"dtype": "float32"}}}, "name": "res3d_branch2a"}, {"inbound_nodes": [[["res3d_branch2a", 0, 0, {}]]], "class_name": "BatchNormalization", "config": {"moving_mean_initializer": {"class_name": "Zeros", "config": {"dtype": "float32"}}, "trainable": true, "name": "bn3d_branch2a", "beta_regularizer": null, "gamma_regularizer": null, "moving_variance_initializer": {"class_name": "Ones", "config": {"dtype": "float32"}}, "gamma_initializer": {"class_name": "Ones", "config": {"dtype": "float32"}}, "beta_initializer": {"class_name": "Zeros", "config": {"dtype": "float32"}}, "epsilon": 0.001, "axis": [3], "gamma_constraint": null, "dtype": "float32", "scale": true, "center": true, "momentum": 0.99, "beta_constraint": null}, "name": "bn3d_branch2a"}, {"inbound_nodes": [[["bn3d_branch2a", 0, 0, {}]]], "class_name": "Activation", "config": {"trainable": true, "name": "activation_19", "activation": "relu", "dtype": "float32"}, "name": "activation_19"}, {"inbound_nodes": [[["activation_19", 0, 0, {}]]], "class_name": "Conv2D", "config": {"bias_regularizer": null, "bias_constraint": null, "trainable": true, "name": "res3d_branch2b", "dilation_rate": [1, 1], "use_bias": true, "filters": 128, "activity_regularizer": null, "activation": "linear", "padding": "same", "kernel_constraint": null, "data_format": "channels_last", "kernel_initializer": {"class_name": "VarianceScaling", "config": {"seed": null, "distribution": "uniform", "dtype": "float32", "scale": 1.0, "mode": "fan_avg"}}, "kernel_size": [3, 3], "kernel_regularizer": null, "dtype": "float32", "strides": [1, 1], "bias_initializer": {"class_name": "Zeros", "config": {"dtype": "float32"}}}, "name": "res3d_branch2b"}, {"inbound_nodes": [[["res3d_branch2b", 0, 0, {}]]], "class_name": "BatchNormalization", "config": {"moving_mean_initializer": {"class_name": "Zeros", "config": {"dtype": "float32"}}, "trainable": true, "name": "bn3d_branch2b", "beta_regularizer": null, "gamma_regularizer": null, "moving_variance_initializer": {"class_name": "Ones", "config": {"dtype": "float32"}}, "gamma_initializer": {"class_name": "Ones", "config": {"dtype": "float32"}}, "beta_initializer": {"class_name": "Zeros", "config": {"dtype": "float32"}}, "epsilon": 0.001, "axis": [3], "gamma_constraint": null, "dtype": "float32", "scale": true, "center": true, "momentum": 0.99, "beta_constraint": null}, "name": "bn3d_branch2b"}, {"inbound_nodes": [[["bn3d_branch2b", 0, 0, {}]]], "class_name": "Activation", "config": {"trainable": true, "name": "activation_20", "activation": "relu", "dtype": "float32"}, "name": "activation_20"}, {"inbound_nodes": [[["activation_20", 0, 0, {}]]], "class_name": "Conv2D", "config": {"bias_regularizer": null, "bias_constraint": null, "trainable": true, "name": "res3d_branch2c", "dilation_rate": [1, 1], "use_bias": true, "filters": 512, "activity_regularizer": null, "activation": "linear", "padding": "valid", "kernel_constraint": null, "data_format": "channels_last", "kernel_initializer": {"class_name": "VarianceScaling", "config": {"seed": null, "distribution": "uniform", "dtype": "float32", "scale": 1.0, "mode": "fan_avg"}}, "kernel_size": [1, 1], "kernel_regularizer": null, "dtype": "float32", "strides": [1, 1], "bias_initializer": {"class_name": "Zeros", "config": {"dtype": "float32"}}}, "name": "res3d_branch2c"}, {"inbound_nodes": [[["res3d_branch2c", 0, 0, {}]]], "class_name": "BatchNormalization", "config": {"moving_mean_initializer": {"class_name": "Zeros", "config": {"dtype": "float32"}}, "trainable": true, "name": "bn3d_branch2c", "beta_regularizer": null, "gamma_regularizer": null, "moving_variance_initializer": {"class_name": "Ones", "config": {"dtype": "float32"}}, "gamma_initializer": {"class_name": "Ones", "config": {"dtype": "float32"}}, "beta_initializer": {"class_name": "Zeros", "config": {"dtype": "float32"}}, "epsilon": 0.001, "axis": [3], "gamma_constraint": null, "dtype": "float32", "scale": true, "center": true, "momentum": 0.99, "beta_constraint": null}, "name": "bn3d_branch2c"}, {"inbound_nodes": [[["bn3d_branch2c", 0, 0, {}], ["activation_18", 0, 0, {}]]], "class_name": "Add", "config": {"trainable": true, "name": "add_6", "dtype": "float32"}, "name": "add_6"}, {"inbound_nodes": [[["add_6", 0, 0, {}]]], "class_name": "Activation", "config": {"trainable": true, "name": "activation_21", "activation": "relu", "dtype": "float32"}, "name": "activation_21"}, {"inbound_nodes": [[["activation_21", 0, 0, {}]]], "class_name": "Conv2D", "config": {"bias_regularizer": null, "bias_constraint": null, "trainable": true, "name": "res4a_branch2a", "dilation_rate": [1, 1], "use_bias": true, "filters": 256, "activity_regularizer": null, "activation": "linear", "padding": "valid", "kernel_constraint": null, "data_format": "channels_last", "kernel_initializer": {"class_name": "VarianceScaling", "config": {"seed": null, "distribution": "uniform", "dtype": "float32", "scale": 1.0, "mode": "fan_avg"}}, "kernel_size": [1, 1], "kernel_regularizer": null, "dtype": "float32", "strides": [2, 2], "bias_initializer": {"class_name": "Zeros", "config": {"dtype": "float32"}}}, "name": "res4a_branch2a"}, {"inbound_nodes": [[["res4a_branch2a", 0, 0, {}]]], "class_name": "BatchNormalization", "config": {"moving_mean_initializer": {"class_name": "Zeros", "config": {"dtype": "float32"}}, "trainable": true, "name": "bn4a_branch2a", "beta_regularizer": null, "gamma_regularizer": null, "moving_variance_initializer": {"class_name": "Ones", "config": {"dtype": "float32"}}, "gamma_initializer": {"class_name": "Ones", "config": {"dtype": "float32"}}, "beta_initializer": {"class_name": "Zeros", "config": {"dtype": "float32"}}, "epsilon": 0.001, "axis": [3], "gamma_constraint": null, "dtype": "float32", "scale": true, "center": true, "momentum": 0.99, "beta_constraint": null}, "name": "bn4a_branch2a"}, {"inbound_nodes": [[["bn4a_branch2a", 0, 0, {}]]], "class_name": "Activation", "config": {"trainable": true, "name": "activation_22", "activation": "relu", "dtype": "float32"}, "name": "activation_22"}, {"inbound_nodes": [[["activation_22", 0, 0, {}]]], "class_name": "Conv2D", "config": {"bias_regularizer": null, "bias_constraint": null, "trainable": true, "name": "res4a_branch2b", "dilation_rate": [1, 1], "use_bias": true, "filters": 256, "activity_regularizer": null, "activation": "linear", "padding": "same", "kernel_constraint": null, "data_format": "channels_last", "kernel_initializer": {"class_name": "VarianceScaling", "config": {"seed": null, "distribution": "uniform", "dtype": "float32", "scale": 1.0, "mode": "fan_avg"}}, "kernel_size": [3, 3], "kernel_regularizer": null, "dtype": "float32", "strides": [1, 1], "bias_initializer": {"class_name": "Zeros", "config": {"dtype": "float32"}}}, "name": "res4a_branch2b"}, {"inbound_nodes": [[["res4a_branch2b", 0, 0, {}]]], "class_name": "BatchNormalization", "config": {"moving_mean_initializer": {"class_name": "Zeros", "config": {"dtype": "float32"}}, "trainable": true, "name": "bn4a_branch2b", "beta_regularizer": null, "gamma_regularizer": null, "moving_variance_initializer": {"class_name": "Ones", "config": {"dtype": "float32"}}, "gamma_initializer": {"class_name": "Ones", "config": {"dtype": "float32"}}, "beta_initializer": {"class_name": "Zeros", "config": {"dtype": "float32"}}, "epsilon": 0.001, "axis": [3], "gamma_constraint": null, "dtype": "float32", "scale": true, "center": true, "momentum": 0.99, "beta_constraint": null}, "name": "bn4a_branch2b"}, {"inbound_nodes": [[["bn4a_branch2b", 0, 0, {}]]], "class_name": "Activation", "config": {"trainable": true, "name": "activation_23", "activation": "relu", "dtype": "float32"}, "name": "activation_23"}, {"inbound_nodes": [[["activation_23", 0, 0, {}]]], "class_name": "Conv2D", "config": {"bias_regularizer": null, "bias_constraint": null, "trainable": true, "name": "res4a_branch2c", "dilation_rate": [1, 1], "use_bias": true, "filters": 1024, "activity_regularizer": null, "activation": "linear", "padding": "valid", "kernel_constraint": null, "data_format": "channels_last", "kernel_initializer": {"class_name": "VarianceScaling", "config": {"seed": null, "distribution": "uniform", "dtype": "float32", "scale": 1.0, "mode": "fan_avg"}}, "kernel_size": [1, 1], "kernel_regularizer": null, "dtype": "float32", "strides": [1, 1], "bias_initializer": {"class_name": "Zeros", "config": {"dtype": "float32"}}}, "name": "res4a_branch2c"}, {"inbound_nodes": [[["activation_21", 0, 0, {}]]], "class_name": "Conv2D", "config": {"bias_regularizer": null, "bias_constraint": null, "trainable": true, "name": "res4a_branch1", "dilation_rate": [1, 1], "use_bias": true, "filters": 1024, "activity_regularizer": null, "activation": "linear", "padding": "valid", "kernel_constraint": null, "data_format": "channels_last", "kernel_initializer": {"class_name": "VarianceScaling", "config": {"seed": null, "distribution": "uniform", "dtype": "float32", "scale": 1.0, "mode": "fan_avg"}}, "kernel_size": [1, 1], "kernel_regularizer": null, "dtype": "float32", "strides": [2, 2], "bias_initializer": {"class_name": "Zeros", "config": {"dtype": "float32"}}}, "name": "res4a_branch1"}, {"inbound_nodes": [[["res4a_branch2c", 0, 0, {}]]], "class_name": "BatchNormalization", "config": {"moving_mean_initializer": {"class_name": "Zeros", "config": {"dtype": "float32"}}, "trainable": true, "name": "bn4a_branch2c", "beta_regularizer": null, "gamma_regularizer": null, "moving_variance_initializer": {"class_name": "Ones", "config": {"dtype": "float32"}}, "gamma_initializer": {"class_name": "Ones", "config": {"dtype": "float32"}}, "beta_initializer": {"class_name": "Zeros", "config": {"dtype": "float32"}}, "epsilon": 0.001, "axis": [3], "gamma_constraint": null, "dtype": "float32", "scale": true, "center": true, "momentum": 0.99, "beta_constraint": null}, "name": "bn4a_branch2c"}, {"inbound_nodes": [[["res4a_branch1", 0, 0, {}]]], "class_name": "BatchNormalization", "config": {"moving_mean_initializer": {"class_name": "Zeros", "config": {"dtype": "float32"}}, "trainable": true, "name": "bn4a_branch1", "beta_regularizer": null, "gamma_regularizer": null, "moving_variance_initializer": {"class_name": "Ones", "config": {"dtype": "float32"}}, "gamma_initializer": {"class_name": "Ones", "config": {"dtype": "float32"}}, "beta_initializer": {"class_name": "Zeros", "config": {"dtype": "float32"}}, "epsilon": 0.001, "axis": [3], "gamma_constraint": null, "dtype": "float32", "scale": true, "center": true, "momentum": 0.99, "beta_constraint": null}, "name": "bn4a_branch1"}, {"inbound_nodes": [[["bn4a_branch2c", 0, 0, {}], ["bn4a_branch1", 0, 0, {}]]], "class_name": "Add", "config": {"trainable": true, "name": "add_7", "dtype": "float32"}, "name": "add_7"}, {"inbound_nodes": [[["add_7", 0, 0, {}]]], "class_name": "Activation", "config": {"trainable": true, "name": "activation_24", "activation": "relu", "dtype": "float32"}, "name": "activation_24"}, {"inbound_nodes": [[["activation_24", 0, 0, {}]]], "class_name": "Conv2D", "config": {"bias_regularizer": null, "bias_constraint": null, "trainable": true, "name": "res4b_branch2a", "dilation_rate": [1, 1], "use_bias": true, "filters": 256, "activity_regularizer": null, "activation": "linear", "padding": "valid", "kernel_constraint": null, "data_format": "channels_last", "kernel_initializer": {"class_name": "VarianceScaling", "config": {"seed": null, "distribution": "uniform", "dtype": "float32", "scale": 1.0, "mode": "fan_avg"}}, "kernel_size": [1, 1], "kernel_regularizer": null, "dtype": "float32", "strides": [1, 1], "bias_initializer": {"class_name": "Zeros", "config": {"dtype": "float32"}}}, "name": "res4b_branch2a"}, {"inbound_nodes": [[["res4b_branch2a", 0, 0, {}]]], "class_name": "BatchNormalization", "config": {"moving_mean_initializer": {"class_name": "Zeros", "config": {"dtype": "float32"}}, "trainable": true, "name": "bn4b_branch2a", "beta_regularizer": null, "gamma_regularizer": null, "moving_variance_initializer": {"class_name": "Ones", "config": {"dtype": "float32"}}, "gamma_initializer": {"class_name": "Ones", "config": {"dtype": "float32"}}, "beta_initializer": {"class_name": "Zeros", "config": {"dtype": "float32"}}, "epsilon": 0.001, "axis": [3], "gamma_constraint": null, "dtype": "float32", "scale": true, "center": true, "momentum": 0.99, "beta_constraint": null}, "name": "bn4b_branch2a"}, {"inbound_nodes": [[["bn4b_branch2a", 0, 0, {}]]], "class_name": "Activation", "config": {"trainable": true, "name": "activation_25", "activation": "relu", "dtype": "float32"}, "name": "activation_25"}, {"inbound_nodes": [[["activation_25", 0, 0, {}]]], "class_name": "Conv2D", "config": {"bias_regularizer": null, "bias_constraint": null, "trainable": true, "name": "res4b_branch2b", "dilation_rate": [1, 1], "use_bias": true, "filters": 256, "activity_regularizer": null, "activation": "linear", "padding": "same", "kernel_constraint": null, "data_format": "channels_last", "kernel_initializer": {"class_name": "VarianceScaling", "config": {"seed": null, "distribution": "uniform", "dtype": "float32", "scale": 1.0, "mode": "fan_avg"}}, "kernel_size": [3, 3], "kernel_regularizer": null, "dtype": "float32", "strides": [1, 1], "bias_initializer": {"class_name": "Zeros", "config": {"dtype": "float32"}}}, "name": "res4b_branch2b"}, {"inbound_nodes": [[["res4b_branch2b", 0, 0, {}]]], "class_name": "BatchNormalization", "config": {"moving_mean_initializer": {"class_name": "Zeros", "config": {"dtype": "float32"}}, "trainable": true, "name": "bn4b_branch2b", "beta_regularizer": null, "gamma_regularizer": null, "moving_variance_initializer": {"class_name": "Ones", "config": {"dtype": "float32"}}, "gamma_initializer": {"class_name": "Ones", "config": {"dtype": "float32"}}, "beta_initializer": {"class_name": "Zeros", "config": {"dtype": "float32"}}, "epsilon": 0.001, "axis": [3], "gamma_constraint": null, "dtype": "float32", "scale": true, "center": true, "momentum": 0.99, "beta_constraint": null}, "name": "bn4b_branch2b"}, {"inbound_nodes": [[["bn4b_branch2b", 0, 0, {}]]], "class_name": "Activation", "config": {"trainable": true, "name": "activation_26", "activation": "relu", "dtype": "float32"}, "name": "activation_26"}, {"inbound_nodes": [[["activation_26", 0, 0, {}]]], "class_name": "Conv2D", "config": {"bias_regularizer": null, "bias_constraint": null, "trainable": true, "name": "res4b_branch2c", "dilation_rate": [1, 1], "use_bias": true, "filters": 1024, "activity_regularizer": null, "activation": "linear", "padding": "valid", "kernel_constraint": null, "data_format": "channels_last", "kernel_initializer": {"class_name": "VarianceScaling", "config": {"seed": null, "distribution": "uniform", "dtype": "float32", "scale": 1.0, "mode": "fan_avg"}}, "kernel_size": [1, 1], "kernel_regularizer": null, "dtype": "float32", "strides": [1, 1], "bias_initializer": {"class_name": "Zeros", "config": {"dtype": "float32"}}}, "name": "res4b_branch2c"}, {"inbound_nodes": [[["res4b_branch2c", 0, 0, {}]]], "class_name": "BatchNormalization", "config": {"moving_mean_initializer": {"class_name": "Zeros", "config": {"dtype": "float32"}}, "trainable": true, "name": "bn4b_branch2c", "beta_regularizer": null, "gamma_regularizer": null, "moving_variance_initializer": {"class_name": "Ones", "config": {"dtype": "float32"}}, "gamma_initializer": {"class_name": "Ones", "config": {"dtype": "float32"}}, "beta_initializer": {"class_name": "Zeros", "config": {"dtype": "float32"}}, "epsilon": 0.001, "axis": [3], "gamma_constraint": null, "dtype": "float32", "scale": true, "center": true, "momentum": 0.99, "beta_constraint": null}, "name": "bn4b_branch2c"}, {"inbound_nodes": [[["bn4b_branch2c", 0, 0, {}], ["activation_24", 0, 0, {}]]], "class_name": "Add", "config": {"trainable": true, "name": "add_8", "dtype": "float32"}, "name": "add_8"}, {"inbound_nodes": [[["add_8", 0, 0, {}]]], "class_name": "Activation", "config": {"trainable": true, "name": "activation_27", "activation": "relu", "dtype": "float32"}, "name": "activation_27"}, {"inbound_nodes": [[["activation_27", 0, 0, {}]]], "class_name": "Conv2D", "config": {"bias_regularizer": null, "bias_constraint": null, "trainable": true, "name": "res4c_branch2a", "dilation_rate": [1, 1], "use_bias": true, "filters": 256, "activity_regularizer": null, "activation": "linear", "padding": "valid", "kernel_constraint": null, "data_format": "channels_last", "kernel_initializer": {"class_name": "VarianceScaling", "config": {"seed": null, "distribution": "uniform", "dtype": "float32", "scale": 1.0, "mode": "fan_avg"}}, "kernel_size": [1, 1], "kernel_regularizer": null, "dtype": "float32", "strides": [1, 1], "bias_initializer": {"class_name": "Zeros", "config": {"dtype": "float32"}}}, "name": "res4c_branch2a"}, {"inbound_nodes": [[["res4c_branch2a", 0, 0, {}]]], "class_name": "BatchNormalization", "config": {"moving_mean_initializer": {"class_name": "Zeros", "config": {"dtype": "float32"}}, "trainable": true, "name": "bn4c_branch2a", "beta_regularizer": null, "gamma_regularizer": null, "moving_variance_initializer": {"class_name": "Ones", "config": {"dtype": "float32"}}, "gamma_initializer": {"class_name": "Ones", "config": {"dtype": "float32"}}, "beta_initializer": {"class_name": "Zeros", "config": {"dtype": "float32"}}, "epsilon": 0.001, "axis": [3], "gamma_constraint": null, "dtype": "float32", "scale": true, "center": true, "momentum": 0.99, "beta_constraint": null}, "name": "bn4c_branch2a"}, {"inbound_nodes": [[["bn4c_branch2a", 0, 0, {}]]], "class_name": "Activation", "config": {"trainable": true, "name": "activation_28", "activation": "relu", "dtype": "float32"}, "name": "activation_28"}, {"inbound_nodes": [[["activation_28", 0, 0, {}]]], "class_name": "Conv2D", "config": {"bias_regularizer": null, "bias_constraint": null, "trainable": true, "name": "res4c_branch2b", "dilation_rate": [1, 1], "use_bias": true, "filters": 256, "activity_regularizer": null, "activation": "linear", "padding": "same", "kernel_constraint": null, "data_format": "channels_last", "kernel_initializer": {"class_name": "VarianceScaling", "config": {"seed": null, "distribution": "uniform", "dtype": "float32", "scale": 1.0, "mode": "fan_avg"}}, "kernel_size": [3, 3], "kernel_regularizer": null, "dtype": "float32", "strides": [1, 1], "bias_initializer": {"class_name": "Zeros", "config": {"dtype": "float32"}}}, "name": "res4c_branch2b"}, {"inbound_nodes": [[["res4c_branch2b", 0, 0, {}]]], "class_name": "BatchNormalization", "config": {"moving_mean_initializer": {"class_name": "Zeros", "config": {"dtype": "float32"}}, "trainable": true, "name": "bn4c_branch2b", "beta_regularizer": null, "gamma_regularizer": null, "moving_variance_initializer": {"class_name": "Ones", "config": {"dtype": "float32"}}, "gamma_initializer": {"class_name": "Ones", "config": {"dtype": "float32"}}, "beta_initializer": {"class_name": "Zeros", "config": {"dtype": "float32"}}, "epsilon": 0.001, "axis": [3], "gamma_constraint": null, "dtype": "float32", "scale": true, "center": true, "momentum": 0.99, "beta_constraint": null}, "name": "bn4c_branch2b"}, {"inbound_nodes": [[["bn4c_branch2b", 0, 0, {}]]], "class_name": "Activation", "config": {"trainable": true, "name": "activation_29", "activation": "relu", "dtype": "float32"}, "name": "activation_29"}, {"inbound_nodes": [[["activation_29", 0, 0, {}]]], "class_name": "Conv2D", "config": {"bias_regularizer": null, "bias_constraint": null, "trainable": true, "name": "res4c_branch2c", "dilation_rate": [1, 1], "use_bias": true, "filters": 1024, "activity_regularizer": null, "activation": "linear", "padding": "valid", "kernel_constraint": null, "data_format": "channels_last", "kernel_initializer": {"class_name": "VarianceScaling", "config": {"seed": null, "distribution": "uniform", "dtype": "float32", "scale": 1.0, "mode": "fan_avg"}}, "kernel_size": [1, 1], "kernel_regularizer": null, "dtype": "float32", "strides": [1, 1], "bias_initializer": {"class_name": "Zeros", "config": {"dtype": "float32"}}}, "name": "res4c_branch2c"}, {"inbound_nodes": [[["res4c_branch2c", 0, 0, {}]]], "class_name": "BatchNormalization", "config": {"moving_mean_initializer": {"class_name": "Zeros", "config": {"dtype": "float32"}}, "trainable": true, "name": "bn4c_branch2c", "beta_regularizer": null, "gamma_regularizer": null, "moving_variance_initializer": {"class_name": "Ones", "config": {"dtype": "float32"}}, "gamma_initializer": {"class_name": "Ones", "config": {"dtype": "float32"}}, "beta_initializer": {"class_name": "Zeros", "config": {"dtype": "float32"}}, "epsilon": 0.001, "axis": [3], "gamma_constraint": null, "dtype": "float32", "scale": true, "center": true, "momentum": 0.99, "beta_constraint": null}, "name": "bn4c_branch2c"}, {"inbound_nodes": [[["bn4c_branch2c", 0, 0, {}], ["activation_27", 0, 0, {}]]], "class_name": "Add", "config": {"trainable": true, "name": "add_9", "dtype": "float32"}, "name": "add_9"}, {"inbound_nodes": [[["add_9", 0, 0, {}]]], "class_name": "Activation", "config": {"trainable": true, "name": "activation_30", "activation": "relu", "dtype": "float32"}, "name": "activation_30"}, {"inbound_nodes": [[["activation_30", 0, 0, {}]]], "class_name": "Conv2D", "config": {"bias_regularizer": null, "bias_constraint": null, "trainable": true, "name": "res4d_branch2a", "dilation_rate": [1, 1], "use_bias": true, "filters": 256, "activity_regularizer": null, "activation": "linear", "padding": "valid", "kernel_constraint": null, "data_format": "channels_last", "kernel_initializer": {"class_name": "VarianceScaling", "config": {"seed": null, "distribution": "uniform", "dtype": "float32", "scale": 1.0, "mode": "fan_avg"}}, "kernel_size": [1, 1], "kernel_regularizer": null, "dtype": "float32", "strides": [1, 1], "bias_initializer": {"class_name": "Zeros", "config": {"dtype": "float32"}}}, "name": "res4d_branch2a"}, {"inbound_nodes": [[["res4d_branch2a", 0, 0, {}]]], "class_name": "BatchNormalization", "config": {"moving_mean_initializer": {"class_name": "Zeros", "config": {"dtype": "float32"}}, "trainable": true, "name": "bn4d_branch2a", "beta_regularizer": null, "gamma_regularizer": null, "moving_variance_initializer": {"class_name": "Ones", "config": {"dtype": "float32"}}, "gamma_initializer": {"class_name": "Ones", "config": {"dtype": "float32"}}, "beta_initializer": {"class_name": "Zeros", "config": {"dtype": "float32"}}, "epsilon": 0.001, "axis": [3], "gamma_constraint": null, "dtype": "float32", "scale": true, "center": true, "momentum": 0.99, "beta_constraint": null}, "name": "bn4d_branch2a"}, {"inbound_nodes": [[["bn4d_branch2a", 0, 0, {}]]], "class_name": "Activation", "config": {"trainable": true, "name": "activation_31", "activation": "relu", "dtype": "float32"}, "name": "activation_31"}, {"inbound_nodes": [[["activation_31", 0, 0, {}]]], "class_name": "Conv2D", "config": {"bias_regularizer": null, "bias_constraint": null, "trainable": true, "name": "res4d_branch2b", "dilation_rate": [1, 1], "use_bias": true, "filters": 256, "activity_regularizer": null, "activation": "linear", "padding": "same", "kernel_constraint": null, "data_format": "channels_last", "kernel_initializer": {"class_name": "VarianceScaling", "config": {"seed": null, "distribution": "uniform", "dtype": "float32", "scale": 1.0, "mode": "fan_avg"}}, "kernel_size": [3, 3], "kernel_regularizer": null, "dtype": "float32", "strides": [1, 1], "bias_initializer": {"class_name": "Zeros", "config": {"dtype": "float32"}}}, "name": "res4d_branch2b"}, {"inbound_nodes": [[["res4d_branch2b", 0, 0, {}]]], "class_name": "BatchNormalization", "config": {"moving_mean_initializer": {"class_name": "Zeros", "config": {"dtype": "float32"}}, "trainable": true, "name": "bn4d_branch2b", "beta_regularizer": null, "gamma_regularizer": null, "moving_variance_initializer": {"class_name": "Ones", "config": {"dtype": "float32"}}, "gamma_initializer": {"class_name": "Ones", "config": {"dtype": "float32"}}, "beta_initializer": {"class_name": "Zeros", "config": {"dtype": "float32"}}, "epsilon": 0.001, "axis": [3], "gamma_constraint": null, "dtype": "float32", "scale": true, "center": true, "momentum": 0.99, "beta_constraint": null}, "name": "bn4d_branch2b"}, {"inbound_nodes": [[["bn4d_branch2b", 0, 0, {}]]], "class_name": "Activation", "config": {"trainable": true, "name": "activation_32", "activation": "relu", "dtype": "float32"}, "name": "activation_32"}, {"inbound_nodes": [[["activation_32", 0, 0, {}]]], "class_name": "Conv2D", "config": {"bias_regularizer": null, "bias_constraint": null, "trainable": true, "name": "res4d_branch2c", "dilation_rate": [1, 1], "use_bias": true, "filters": 1024, "activity_regularizer": null, "activation": "linear", "padding": "valid", "kernel_constraint": null, "data_format": "channels_last", "kernel_initializer": {"class_name": "VarianceScaling", "config": {"seed": null, "distribution": "uniform", "dtype": "float32", "scale": 1.0, "mode": "fan_avg"}}, "kernel_size": [1, 1], "kernel_regularizer": null, "dtype": "float32", "strides": [1, 1], "bias_initializer": {"class_name": "Zeros", "config": {"dtype": "float32"}}}, "name": "res4d_branch2c"}, {"inbound_nodes": [[["res4d_branch2c", 0, 0, {}]]], "class_name": "BatchNormalization", "config": {"moving_mean_initializer": {"class_name": "Zeros", "config": {"dtype": "float32"}}, "trainable": true, "name": "bn4d_branch2c", "beta_regularizer": null, "gamma_regularizer": null, "moving_variance_initializer": {"class_name": "Ones", "config": {"dtype": "float32"}}, "gamma_initializer": {"class_name": "Ones", "config": {"dtype": "float32"}}, "beta_initializer": {"class_name": "Zeros", "config": {"dtype": "float32"}}, "epsilon": 0.001, "axis": [3], "gamma_constraint": null, "dtype": "float32", "scale": true, "center": true, "momentum": 0.99, "beta_constraint": null}, "name": "bn4d_branch2c"}, {"inbound_nodes": [[["bn4d_branch2c", 0, 0, {}], ["activation_30", 0, 0, {}]]], "class_name": "Add", "config": {"trainable": true, "name": "add_10", "dtype": "float32"}, "name": "add_10"}, {"inbound_nodes": [[["add_10", 0, 0, {}]]], "class_name": "Activation", "config": {"trainable": true, "name": "activation_33", "activation": "relu", "dtype": "float32"}, "name": "activation_33"}, {"inbound_nodes": [[["activation_33", 0, 0, {}]]], "class_name": "Conv2D", "config": {"bias_regularizer": null, "bias_constraint": null, "trainable": true, "name": "res4e_branch2a", "dilation_rate": [1, 1], "use_bias": true, "filters": 256, "activity_regularizer": null, "activation": "linear", "padding": "valid", "kernel_constraint": null, "data_format": "channels_last", "kernel_initializer": {"class_name": "VarianceScaling", "config": {"seed": null, "distribution": "uniform", "dtype": "float32", "scale": 1.0, "mode": "fan_avg"}}, "kernel_size": [1, 1], "kernel_regularizer": null, "dtype": "float32", "strides": [1, 1], "bias_initializer": {"class_name": "Zeros", "config": {"dtype": "float32"}}}, "name": "res4e_branch2a"}, {"inbound_nodes": [[["res4e_branch2a", 0, 0, {}]]], "class_name": "BatchNormalization", "config": {"moving_mean_initializer": {"class_name": "Zeros", "config": {"dtype": "float32"}}, "trainable": true, "name": "bn4e_branch2a", "beta_regularizer": null, "gamma_regularizer": null, "moving_variance_initializer": {"class_name": "Ones", "config": {"dtype": "float32"}}, "gamma_initializer": {"class_name": "Ones", "config": {"dtype": "float32"}}, "beta_initializer": {"class_name": "Zeros", "config": {"dtype": "float32"}}, "epsilon": 0.001, "axis": [3], "gamma_constraint": null, "dtype": "float32", "scale": true, "center": true, "momentum": 0.99, "beta_constraint": null}, "name": "bn4e_branch2a"}, {"inbound_nodes": [[["bn4e_branch2a", 0, 0, {}]]], "class_name": "Activation", "config": {"trainable": true, "name": "activation_34", "activation": "relu", "dtype": "float32"}, "name": "activation_34"}, {"inbound_nodes": [[["activation_34", 0, 0, {}]]], "class_name": "Conv2D", "config": {"bias_regularizer": null, "bias_constraint": null, "trainable": true, "name": "res4e_branch2b", "dilation_rate": [1, 1], "use_bias": true, "filters": 256, "activity_regularizer": null, "activation": "linear", "padding": "same", "kernel_constraint": null, "data_format": "channels_last", "kernel_initializer": {"class_name": "VarianceScaling", "config": {"seed": null, "distribution": "uniform", "dtype": "float32", "scale": 1.0, "mode": "fan_avg"}}, "kernel_size": [3, 3], "kernel_regularizer": null, "dtype": "float32", "strides": [1, 1], "bias_initializer": {"class_name": "Zeros", "config": {"dtype": "float32"}}}, "name": "res4e_branch2b"}, {"inbound_nodes": [[["res4e_branch2b", 0, 0, {}]]], "class_name": "BatchNormalization", "config": {"moving_mean_initializer": {"class_name": "Zeros", "config": {"dtype": "float32"}}, "trainable": true, "name": "bn4e_branch2b", "beta_regularizer": null, "gamma_regularizer": null, "moving_variance_initializer": {"class_name": "Ones", "config": {"dtype": "float32"}}, "gamma_initializer": {"class_name": "Ones", "config": {"dtype": "float32"}}, "beta_initializer": {"class_name": "Zeros", "config": {"dtype": "float32"}}, "epsilon": 0.001, "axis": [3], "gamma_constraint": null, "dtype": "float32", "scale": true, "center": true, "momentum": 0.99, "beta_constraint": null}, "name": "bn4e_branch2b"}, {"inbound_nodes": [[["bn4e_branch2b", 0, 0, {}]]], "class_name": "Activation", "config": {"trainable": true, "name": "activation_35", "activation": "relu", "dtype": "float32"}, "name": "activation_35"}, {"inbound_nodes": [[["activation_35", 0, 0, {}]]], "class_name": "Conv2D", "config": {"bias_regularizer": null, "bias_constraint": null, "trainable": true, "name": "res4e_branch2c", "dilation_rate": [1, 1], "use_bias": true, "filters": 1024, "activity_regularizer": null, "activation": "linear", "padding": "valid", "kernel_constraint": null, "data_format": "channels_last", "kernel_initializer": {"class_name": "VarianceScaling", "config": {"seed": null, "distribution": "uniform", "dtype": "float32", "scale": 1.0, "mode": "fan_avg"}}, "kernel_size": [1, 1], "kernel_regularizer": null, "dtype": "float32", "strides": [1, 1], "bias_initializer": {"class_name": "Zeros", "config": {"dtype": "float32"}}}, "name": "res4e_branch2c"}, {"inbound_nodes": [[["res4e_branch2c", 0, 0, {}]]], "class_name": "BatchNormalization", "config": {"moving_mean_initializer": {"class_name": "Zeros", "config": {"dtype": "float32"}}, "trainable": true, "name": "bn4e_branch2c", "beta_regularizer": null, "gamma_regularizer": null, "moving_variance_initializer": {"class_name": "Ones", "config": {"dtype": "float32"}}, "gamma_initializer": {"class_name": "Ones", "config": {"dtype": "float32"}}, "beta_initializer": {"class_name": "Zeros", "config": {"dtype": "float32"}}, "epsilon": 0.001, "axis": [3], "gamma_constraint": null, "dtype": "float32", "scale": true, "center": true, "momentum": 0.99, "beta_constraint": null}, "name": "bn4e_branch2c"}, {"inbound_nodes": [[["bn4e_branch2c", 0, 0, {}], ["activation_33", 0, 0, {}]]], "class_name": "Add", "config": {"trainable": true, "name": "add_11", "dtype": "float32"}, "name": "add_11"}, {"inbound_nodes": [[["add_11", 0, 0, {}]]], "class_name": "Activation", "config": {"trainable": true, "name": "activation_36", "activation": "relu", "dtype": "float32"}, "name": "activation_36"}, {"inbound_nodes": [[["activation_36", 0, 0, {}]]], "class_name": "Conv2D", "config": {"bias_regularizer": null, "bias_constraint": null, "trainable": true, "name": "res4f_branch2a", "dilation_rate": [1, 1], "use_bias": true, "filters": 256, "activity_regularizer": null, "activation": "linear", "padding": "valid", "kernel_constraint": null, "data_format": "channels_last", "kernel_initializer": {"class_name": "VarianceScaling", "config": {"seed": null, "distribution": "uniform", "dtype": "float32", "scale": 1.0, "mode": "fan_avg"}}, "kernel_size": [1, 1], "kernel_regularizer": null, "dtype": "float32", "strides": [1, 1], "bias_initializer": {"class_name": "Zeros", "config": {"dtype": "float32"}}}, "name": "res4f_branch2a"}, {"inbound_nodes": [[["res4f_branch2a", 0, 0, {}]]], "class_name": "BatchNormalization", "config": {"moving_mean_initializer": {"class_name": "Zeros", "config": {"dtype": "float32"}}, "trainable": true, "name": "bn4f_branch2a", "beta_regularizer": null, "gamma_regularizer": null, "moving_variance_initializer": {"class_name": "Ones", "config": {"dtype": "float32"}}, "gamma_initializer": {"class_name": "Ones", "config": {"dtype": "float32"}}, "beta_initializer": {"class_name": "Zeros", "config": {"dtype": "float32"}}, "epsilon": 0.001, "axis": [3], "gamma_constraint": null, "dtype": "float32", "scale": true, "center": true, "momentum": 0.99, "beta_constraint": null}, "name": "bn4f_branch2a"}, {"inbound_nodes": [[["bn4f_branch2a", 0, 0, {}]]], "class_name": "Activation", "config": {"trainable": true, "name": "activation_37", "activation": "relu", "dtype": "float32"}, "name": "activation_37"}, {"inbound_nodes": [[["activation_37", 0, 0, {}]]], "class_name": "Conv2D", "config": {"bias_regularizer": null, "bias_constraint": null, "trainable": true, "name": "res4f_branch2b", "dilation_rate": [1, 1], "use_bias": true, "filters": 256, "activity_regularizer": null, "activation": "linear", "padding": "same", "kernel_constraint": null, "data_format": "channels_last", "kernel_initializer": {"class_name": "VarianceScaling", "config": {"seed": null, "distribution": "uniform", "dtype": "float32", "scale": 1.0, "mode": "fan_avg"}}, "kernel_size": [3, 3], "kernel_regularizer": null, "dtype": "float32", "strides": [1, 1], "bias_initializer": {"class_name": "Zeros", "config": {"dtype": "float32"}}}, "name": "res4f_branch2b"}, {"inbound_nodes": [[["res4f_branch2b", 0, 0, {}]]], "class_name": "BatchNormalization", "config": {"moving_mean_initializer": {"class_name": "Zeros", "config": {"dtype": "float32"}}, "trainable": true, "name": "bn4f_branch2b", "beta_regularizer": null, "gamma_regularizer": null, "moving_variance_initializer": {"class_name": "Ones", "config": {"dtype": "float32"}}, "gamma_initializer": {"class_name": "Ones", "config": {"dtype": "float32"}}, "beta_initializer": {"class_name": "Zeros", "config": {"dtype": "float32"}}, "epsilon": 0.001, "axis": [3], "gamma_constraint": null, "dtype": "float32", "scale": true, "center": true, "momentum": 0.99, "beta_constraint": null}, "name": "bn4f_branch2b"}, {"inbound_nodes": [[["bn4f_branch2b", 0, 0, {}]]], "class_name": "Activation", "config": {"trainable": true, "name": "activation_38", "activation": "relu", "dtype": "float32"}, "name": "activation_38"}, {"inbound_nodes": [[["activation_38", 0, 0, {}]]], "class_name": "Conv2D", "config": {"bias_regularizer": null, "bias_constraint": null, "trainable": true, "name": "res4f_branch2c", "dilation_rate": [1, 1], "use_bias": true, "filters": 1024, "activity_regularizer": null, "activation": "linear", "padding": "valid", "kernel_constraint": null, "data_format": "channels_last", "kernel_initializer": {"class_name": "VarianceScaling", "config": {"seed": null, "distribution": "uniform", "dtype": "float32", "scale": 1.0, "mode": "fan_avg"}}, "kernel_size": [1, 1], "kernel_regularizer": null, "dtype": "float32", "strides": [1, 1], "bias_initializer": {"class_name": "Zeros", "config": {"dtype": "float32"}}}, "name": "res4f_branch2c"}, {"inbound_nodes": [[["res4f_branch2c", 0, 0, {}]]], "class_name": "BatchNormalization", "config": {"moving_mean_initializer": {"class_name": "Zeros", "config": {"dtype": "float32"}}, "trainable": true, "name": "bn4f_branch2c", "beta_regularizer": null, "gamma_regularizer": null, "moving_variance_initializer": {"class_name": "Ones", "config": {"dtype": "float32"}}, "gamma_initializer": {"class_name": "Ones", "config": {"dtype": "float32"}}, "beta_initializer": {"class_name": "Zeros", "config": {"dtype": "float32"}}, "epsilon": 0.001, "axis": [3], "gamma_constraint": null, "dtype": "float32", "scale": true, "center": true, "momentum": 0.99, "beta_constraint": null}, "name": "bn4f_branch2c"}, {"inbound_nodes": [[["bn4f_branch2c", 0, 0, {}], ["activation_36", 0, 0, {}]]], "class_name": "Add", "config": {"trainable": true, "name": "add_12", "dtype": "float32"}, "name": "add_12"}, {"inbound_nodes": [[["add_12", 0, 0, {}]]], "class_name": "Activation", "config": {"trainable": true, "name": "activation_39", "activation": "relu", "dtype": "float32"}, "name": "activation_39"}, {"inbound_nodes": [[["activation_39", 0, 0, {}]]], "class_name": "Conv2D", "config": {"bias_regularizer": null, "bias_constraint": null, "trainable": true, "name": "res5a_branch2a", "dilation_rate": [1, 1], "use_bias": true, "filters": 512, "activity_regularizer": null, "activation": "linear", "padding": "valid", "kernel_constraint": null, "data_format": "channels_last", "kernel_initializer": {"class_name": "VarianceScaling", "config": {"seed": null, "distribution": "uniform", "dtype": "float32", "scale": 1.0, "mode": "fan_avg"}}, "kernel_size": [1, 1], "kernel_regularizer": null, "dtype": "float32", "strides": [2, 2], "bias_initializer": {"class_name": "Zeros", "config": {"dtype": "float32"}}}, "name": "res5a_branch2a"}, {"inbound_nodes": [[["res5a_branch2a", 0, 0, {}]]], "class_name": "BatchNormalization", "config": {"moving_mean_initializer": {"class_name": "Zeros", "config": {"dtype": "float32"}}, "trainable": true, "name": "bn5a_branch2a", "beta_regularizer": null, "gamma_regularizer": null, "moving_variance_initializer": {"class_name": "Ones", "config": {"dtype": "float32"}}, "gamma_initializer": {"class_name": "Ones", "config": {"dtype": "float32"}}, "beta_initializer": {"class_name": "Zeros", "config": {"dtype": "float32"}}, "epsilon": 0.001, "axis": [3], "gamma_constraint": null, "dtype": "float32", "scale": true, "center": true, "momentum": 0.99, "beta_constraint": null}, "name": "bn5a_branch2a"}, {"inbound_nodes": [[["bn5a_branch2a", 0, 0, {}]]], "class_name": "Activation", "config": {"trainable": true, "name": "activation_40", "activation": "relu", "dtype": "float32"}, "name": "activation_40"}, {"inbound_nodes": [[["activation_40", 0, 0, {}]]], "class_name": "Conv2D", "config": {"bias_regularizer": null, "bias_constraint": null, "trainable": true, "name": "res5a_branch2b", "dilation_rate": [1, 1], "use_bias": true, "filters": 512, "activity_regularizer": null, "activation": "linear", "padding": "same", "kernel_constraint": null, "data_format": "channels_last", "kernel_initializer": {"class_name": "VarianceScaling", "config": {"seed": null, "distribution": "uniform", "dtype": "float32", "scale": 1.0, "mode": "fan_avg"}}, "kernel_size": [3, 3], "kernel_regularizer": null, "dtype": "float32", "strides": [1, 1], "bias_initializer": {"class_name": "Zeros", "config": {"dtype": "float32"}}}, "name": "res5a_branch2b"}, {"inbound_nodes": [[["res5a_branch2b", 0, 0, {}]]], "class_name": "BatchNormalization", "config": {"moving_mean_initializer": {"class_name": "Zeros", "config": {"dtype": "float32"}}, "trainable": true, "name": "bn5a_branch2b", "beta_regularizer": null, "gamma_regularizer": null, "moving_variance_initializer": {"class_name": "Ones", "config": {"dtype": "float32"}}, "gamma_initializer": {"class_name": "Ones", "config": {"dtype": "float32"}}, "beta_initializer": {"class_name": "Zeros", "config": {"dtype": "float32"}}, "epsilon": 0.001, "axis": [3], "gamma_constraint": null, "dtype": "float32", "scale": true, "center": true, "momentum": 0.99, "beta_constraint": null}, "name": "bn5a_branch2b"}, {"inbound_nodes": [[["bn5a_branch2b", 0, 0, {}]]], "class_name": "Activation", "config": {"trainable": true, "name": "activation_41", "activation": "relu", "dtype": "float32"}, "name": "activation_41"}, {"inbound_nodes": [[["activation_41", 0, 0, {}]]], "class_name": "Conv2D", "config": {"bias_regularizer": null, "bias_constraint": null, "trainable": true, "name": "res5a_branch2c", "dilation_rate": [1, 1], "use_bias": true, "filters": 2048, "activity_regularizer": null, "activation": "linear", "padding": "valid", "kernel_constraint": null, "data_format": "channels_last", "kernel_initializer": {"class_name": "VarianceScaling", "config": {"seed": null, "distribution": "uniform", "dtype": "float32", "scale": 1.0, "mode": "fan_avg"}}, "kernel_size": [1, 1], "kernel_regularizer": null, "dtype": "float32", "strides": [1, 1], "bias_initializer": {"class_name": "Zeros", "config": {"dtype": "float32"}}}, "name": "res5a_branch2c"}, {"inbound_nodes": [[["activation_39", 0, 0, {}]]], "class_name": "Conv2D", "config": {"bias_regularizer": null, "bias_constraint": null, "trainable": true, "name": "res5a_branch1", "dilation_rate": [1, 1], "use_bias": true, "filters": 2048, "activity_regularizer": null, "activation": "linear", "padding": "valid", "kernel_constraint": null, "data_format": "channels_last", "kernel_initializer": {"class_name": "VarianceScaling", "config": {"seed": null, "distribution": "uniform", "dtype": "float32", "scale": 1.0, "mode": "fan_avg"}}, "kernel_size": [1, 1], "kernel_regularizer": null, "dtype": "float32", "strides": [2, 2], "bias_initializer": {"class_name": "Zeros", "config": {"dtype": "float32"}}}, "name": "res5a_branch1"}, {"inbound_nodes": [[["res5a_branch2c", 0, 0, {}]]], "class_name": "BatchNormalization", "config": {"moving_mean_initializer": {"class_name": "Zeros", "config": {"dtype": "float32"}}, "trainable": true, "name": "bn5a_branch2c", "beta_regularizer": null, "gamma_regularizer": null, "moving_variance_initializer": {"class_name": "Ones", "config": {"dtype": "float32"}}, "gamma_initializer": {"class_name": "Ones", "config": {"dtype": "float32"}}, "beta_initializer": {"class_name": "Zeros", "config": {"dtype": "float32"}}, "epsilon": 0.001, "axis": [3], "gamma_constraint": null, "dtype": "float32", "scale": true, "center": true, "momentum": 0.99, "beta_constraint": null}, "name": "bn5a_branch2c"}, {"inbound_nodes": [[["res5a_branch1", 0, 0, {}]]], "class_name": "BatchNormalization", "config": {"moving_mean_initializer": {"class_name": "Zeros", "config": {"dtype": "float32"}}, "trainable": true, "name": "bn5a_branch1", "beta_regularizer": null, "gamma_regularizer": null, "moving_variance_initializer": {"class_name": "Ones", "config": {"dtype": "float32"}}, "gamma_initializer": {"class_name": "Ones", "config": {"dtype": "float32"}}, "beta_initializer": {"class_name": "Zeros", "config": {"dtype": "float32"}}, "epsilon": 0.001, "axis": [3], "gamma_constraint": null, "dtype": "float32", "scale": true, "center": true, "momentum": 0.99, "beta_constraint": null}, "name": "bn5a_branch1"}, {"inbound_nodes": [[["bn5a_branch2c", 0, 0, {}], ["bn5a_branch1", 0, 0, {}]]], "class_name": "Add", "config": {"trainable": true, "name": "add_13", "dtype": "float32"}, "name": "add_13"}, {"inbound_nodes": [[["add_13", 0, 0, {}]]], "class_name": "Activation", "config": {"trainable": true, "name": "activation_42", "activation": "relu", "dtype": "float32"}, "name": "activation_42"}, {"inbound_nodes": [[["activation_42", 0, 0, {}]]], "class_name": "Conv2D", "config": {"bias_regularizer": null, "bias_constraint": null, "trainable": true, "name": "res5b_branch2a", "dilation_rate": [1, 1], "use_bias": true, "filters": 512, "activity_regularizer": null, "activation": "linear", "padding": "valid", "kernel_constraint": null, "data_format": "channels_last", "kernel_initializer": {"class_name": "VarianceScaling", "config": {"seed": null, "distribution": "uniform", "dtype": "float32", "scale": 1.0, "mode": "fan_avg"}}, "kernel_size": [1, 1], "kernel_regularizer": null, "dtype": "float32", "strides": [1, 1], "bias_initializer": {"class_name": "Zeros", "config": {"dtype": "float32"}}}, "name": "res5b_branch2a"}, {"inbound_nodes": [[["res5b_branch2a", 0, 0, {}]]], "class_name": "BatchNormalization", "config": {"moving_mean_initializer": {"class_name": "Zeros", "config": {"dtype": "float32"}}, "trainable": true, "name": "bn5b_branch2a", "beta_regularizer": null, "gamma_regularizer": null, "moving_variance_initializer": {"class_name": "Ones", "config": {"dtype": "float32"}}, "gamma_initializer": {"class_name": "Ones", "config": {"dtype": "float32"}}, "beta_initializer": {"class_name": "Zeros", "config": {"dtype": "float32"}}, "epsilon": 0.001, "axis": [3], "gamma_constraint": null, "dtype": "float32", "scale": true, "center": true, "momentum": 0.99, "beta_constraint": null}, "name": "bn5b_branch2a"}, {"inbound_nodes": [[["bn5b_branch2a", 0, 0, {}]]], "class_name": "Activation", "config": {"trainable": true, "name": "activation_43", "activation": "relu", "dtype": "float32"}, "name": "activation_43"}, {"inbound_nodes": [[["activation_43", 0, 0, {}]]], "class_name": "Conv2D", "config": {"bias_regularizer": null, "bias_constraint": null, "trainable": true, "name": "res5b_branch2b", "dilation_rate": [1, 1], "use_bias": true, "filters": 512, "activity_regularizer": null, "activation": "linear", "padding": "same", "kernel_constraint": null, "data_format": "channels_last", "kernel_initializer": {"class_name": "VarianceScaling", "config": {"seed": null, "distribution": "uniform", "dtype": "float32", "scale": 1.0, "mode": "fan_avg"}}, "kernel_size": [3, 3], "kernel_regularizer": null, "dtype": "float32", "strides": [1, 1], "bias_initializer": {"class_name": "Zeros", "config": {"dtype": "float32"}}}, "name": "res5b_branch2b"}, {"inbound_nodes": [[["res5b_branch2b", 0, 0, {}]]], "class_name": "BatchNormalization", "config": {"moving_mean_initializer": {"class_name": "Zeros", "config": {"dtype": "float32"}}, "trainable": true, "name": "bn5b_branch2b", "beta_regularizer": null, "gamma_regularizer": null, "moving_variance_initializer": {"class_name": "Ones", "config": {"dtype": "float32"}}, "gamma_initializer": {"class_name": "Ones", "config": {"dtype": "float32"}}, "beta_initializer": {"class_name": "Zeros", "config": {"dtype": "float32"}}, "epsilon": 0.001, "axis": [3], "gamma_constraint": null, "dtype": "float32", "scale": true, "center": true, "momentum": 0.99, "beta_constraint": null}, "name": "bn5b_branch2b"}, {"inbound_nodes": [[["bn5b_branch2b", 0, 0, {}]]], "class_name": "Activation", "config": {"trainable": true, "name": "activation_44", "activation": "relu", "dtype": "float32"}, "name": "activation_44"}, {"inbound_nodes": [[["activation_44", 0, 0, {}]]], "class_name": "Conv2D", "config": {"bias_regularizer": null, "bias_constraint": null, "trainable": true, "name": "res5b_branch2c", "dilation_rate": [1, 1], "use_bias": true, "filters": 2048, "activity_regularizer": null, "activation": "linear", "padding": "valid", "kernel_constraint": null, "data_format": "channels_last", "kernel_initializer": {"class_name": "VarianceScaling", "config": {"seed": null, "distribution": "uniform", "dtype": "float32", "scale": 1.0, "mode": "fan_avg"}}, "kernel_size": [1, 1], "kernel_regularizer": null, "dtype": "float32", "strides": [1, 1], "bias_initializer": {"class_name": "Zeros", "config": {"dtype": "float32"}}}, "name": "res5b_branch2c"}, {"inbound_nodes": [[["res5b_branch2c", 0, 0, {}]]], "class_name": "BatchNormalization", "config": {"moving_mean_initializer": {"class_name": "Zeros", "config": {"dtype": "float32"}}, "trainable": true, "name": "bn5b_branch2c", "beta_regularizer": null, "gamma_regularizer": null, "moving_variance_initializer": {"class_name": "Ones", "config": {"dtype": "float32"}}, "gamma_initializer": {"class_name": "Ones", "config": {"dtype": "float32"}}, "beta_initializer": {"class_name": "Zeros", "config": {"dtype": "float32"}}, "epsilon": 0.001, "axis": [3], "gamma_constraint": null, "dtype": "float32", "scale": true, "center": true, "momentum": 0.99, "beta_constraint": null}, "name": "bn5b_branch2c"}, {"inbound_nodes": [[["bn5b_branch2c", 0, 0, {}], ["activation_42", 0, 0, {}]]], "class_name": "Add", "config": {"trainable": true, "name": "add_14", "dtype": "float32"}, "name": "add_14"}, {"inbound_nodes": [[["add_14", 0, 0, {}]]], "class_name": "Activation", "config": {"trainable": true, "name": "activation_45", "activation": "relu", "dtype": "float32"}, "name": "activation_45"}, {"inbound_nodes": [[["activation_45", 0, 0, {}]]], "class_name": "Conv2D", "config": {"bias_regularizer": null, "bias_constraint": null, "trainable": true, "name": "res5c_branch2a", "dilation_rate": [1, 1], "use_bias": true, "filters": 512, "activity_regularizer": null, "activation": "linear", "padding": "valid", "kernel_constraint": null, "data_format": "channels_last", "kernel_initializer": {"class_name": "VarianceScaling", "config": {"seed": null, "distribution": "uniform", "dtype": "float32", "scale": 1.0, "mode": "fan_avg"}}, "kernel_size": [1, 1], "kernel_regularizer": null, "dtype": "float32", "strides": [1, 1], "bias_initializer": {"class_name": "Zeros", "config": {"dtype": "float32"}}}, "name": "res5c_branch2a"}, {"inbound_nodes": [[["res5c_branch2a", 0, 0, {}]]], "class_name": "BatchNormalization", "config": {"moving_mean_initializer": {"class_name": "Zeros", "config": {"dtype": "float32"}}, "trainable": true, "name": "bn5c_branch2a", "beta_regularizer": null, "gamma_regularizer": null, "moving_variance_initializer": {"class_name": "Ones", "config": {"dtype": "float32"}}, "gamma_initializer": {"class_name": "Ones", "config": {"dtype": "float32"}}, "beta_initializer": {"class_name": "Zeros", "config": {"dtype": "float32"}}, "epsilon": 0.001, "axis": [3], "gamma_constraint": null, "dtype": "float32", "scale": true, "center": true, "momentum": 0.99, "beta_constraint": null}, "name": "bn5c_branch2a"}, {"inbound_nodes": [[["bn5c_branch2a", 0, 0, {}]]], "class_name": "Activation", "config": {"trainable": true, "name": "activation_46", "activation": "relu", "dtype": "float32"}, "name": "activation_46"}, {"inbound_nodes": [[["activation_46", 0, 0, {}]]], "class_name": "Conv2D", "config": {"bias_regularizer": null, "bias_constraint": null, "trainable": true, "name": "res5c_branch2b", "dilation_rate": [1, 1], "use_bias": true, "filters": 512, "activity_regularizer": null, "activation": "linear", "padding": "same", "kernel_constraint": null, "data_format": "channels_last", "kernel_initializer": {"class_name": "VarianceScaling", "config": {"seed": null, "distribution": "uniform", "dtype": "float32", "scale": 1.0, "mode": "fan_avg"}}, "kernel_size": [3, 3], "kernel_regularizer": null, "dtype": "float32", "strides": [1, 1], "bias_initializer": {"class_name": "Zeros", "config": {"dtype": "float32"}}}, "name": "res5c_branch2b"}, {"inbound_nodes": [[["res5c_branch2b", 0, 0, {}]]], "class_name": "BatchNormalization", "config": {"moving_mean_initializer": {"class_name": "Zeros", "config": {"dtype": "float32"}}, "trainable": true, "name": "bn5c_branch2b", "beta_regularizer": null, "gamma_regularizer": null, "moving_variance_initializer": {"class_name": "Ones", "config": {"dtype": "float32"}}, "gamma_initializer": {"class_name": "Ones", "config": {"dtype": "float32"}}, "beta_initializer": {"class_name": "Zeros", "config": {"dtype": "float32"}}, "epsilon": 0.001, "axis": [3], "gamma_constraint": null, "dtype": "float32", "scale": true, "center": true, "momentum": 0.99, "beta_constraint": null}, "name": "bn5c_branch2b"}, {"inbound_nodes": [[["bn5c_branch2b", 0, 0, {}]]], "class_name": "Activation", "config": {"trainable": true, "name": "activation_47", "activation": "relu", "dtype": "float32"}, "name": "activation_47"}, {"inbound_nodes": [[["activation_47", 0, 0, {}]]], "class_name": "Conv2D", "config": {"bias_regularizer": null, "bias_constraint": null, "trainable": true, "name": "res5c_branch2c", "dilation_rate": [1, 1], "use_bias": true, "filters": 2048, "activity_regularizer": null, "activation": "linear", "padding": "valid", "kernel_constraint": null, "data_format": "channels_last", "kernel_initializer": {"class_name": "VarianceScaling", "config": {"seed": null, "distribution": "uniform", "dtype": "float32", "scale": 1.0, "mode": "fan_avg"}}, "kernel_size": [1, 1], "kernel_regularizer": null, "dtype": "float32", "strides": [1, 1], "bias_initializer": {"class_name": "Zeros", "config": {"dtype": "float32"}}}, "name": "res5c_branch2c"}, {"inbound_nodes": [[["res5c_branch2c", 0, 0, {}]]], "class_name": "BatchNormalization", "config": {"moving_mean_initializer": {"class_name": "Zeros", "config": {"dtype": "float32"}}, "trainable": true, "name": "bn5c_branch2c", "beta_regularizer": null, "gamma_regularizer": null, "moving_variance_initializer": {"class_name": "Ones", "config": {"dtype": "float32"}}, "gamma_initializer": {"class_name": "Ones", "config": {"dtype": "float32"}}, "beta_initializer": {"class_name": "Zeros", "config": {"dtype": "float32"}}, "epsilon": 0.001, "axis": [3], "gamma_constraint": null, "dtype": "float32", "scale": true, "center": true, "momentum": 0.99, "beta_constraint": null}, "name": "bn5c_branch2c"}, {"inbound_nodes": [[["bn5c_branch2c", 0, 0, {}], ["activation_45", 0, 0, {}]]], "class_name": "Add", "config": {"trainable": true, "name": "add_15", "dtype": "float32"}, "name": "add_15"}, {"inbound_nodes": [[["add_15", 0, 0, {}]]], "class_name": "Activation", "config": {"trainable": true, "name": "activation_48", "activation": "relu", "dtype": "float32"}, "name": "activation_48"}, {"inbound_nodes": [[["activation_48", 0, 0, {}]]], "class_name": "AveragePooling2D", "config": {"trainable": true, "name": "avg_pool", "pool_size": [7, 7], "data_format": "channels_last", "strides": [7, 7], "dtype": "float32", "padding": "valid"}, "name": "avg_pool"}, {"inbound_nodes": [[["avg_pool", 0, 0, {}]]], "class_name": "Flatten", "config": {"name": "flatten", "trainable": true, "data_format": "channels_last", "dtype": "float32"}, "name": "flatten"}, {"inbound_nodes": [[["flatten", 0, 0, {}]]], "class_name": "Dense", "config": {"bias_regularizer": null, "bias_constraint": null, "trainable": true, "name": "fc1000", "use_bias": true, "activity_regularizer": null, "activation": "softmax", "kernel_constraint": null, "units": 1000, "kernel_initializer": {"class_name": "VarianceScaling", "config": {"seed": null, "distribution": "uniform", "dtype": "float32", "scale": 1.0, "mode": "fan_avg"}}, "kernel_regularizer": null, "dtype": "float32", "bias_initializer": {"class_name": "Zeros", "config": {"dtype": "float32"}}}, "name": "fc1000"}], "input_layers": [["input_1", 0, 0]], "output_layers": [["fc1000", 0, 0]]}, "keras_version": "2.1.6-tf", "backend": "tensorflow"}