{"config": {"name": "resnet50", "input_layers": [["input_1", 0, 0]], "output_layers": [["fc1000", 0, 0]], "layers": [{"name": "input_1", "config": {"name": "input_1", "sparse": false, "batch_input_shape": [null, 224, 224, 3], "dtype": "float32"}, "class_name": "InputLayer", "inbound_nodes": []}, {"name": "conv1_pad", "config": {"name": "conv1_pad", "data_format": "channels_last", "trainable": true, "padding": [[3, 3], [3, 3]], "dtype": "float32"}, "class_name": "ZeroPadding2D", "inbound_nodes": [[["input_1", 0, 0, {}]]]}, {"name": "conv1", "config": {"bias_regularizer": null, "padding": "valid", "strides": [2, 2], "kernel_size": [7, 7], "kernel_initializer": {"config": {"distribution": "truncated_normal", "seed": null, "dtype": "float32", "mode": "fan_in", "scale": 2.0}, "class_name": "VarianceScaling"}, "dilation_rate": [1, 1], "dtype": "float32", "activation": "linear", "name": "conv1", "bias_constraint": null, "trainable": true, "kernel_constraint": null, "use_bias": true, "kernel_regularizer": null, "bias_initializer": {"config": {"dtype": "float32"}, "class_name": "Zeros"}, "activity_regularizer": null, "data_format": "channels_last", "filters": 64}, "class_name": "Conv2D", "inbound_nodes": [[["conv1_pad", 0, 0, {}]]]}, {"name": "bn_conv1", "config": {"gamma_regularizer": null, "gamma_initializer": {"config": {"dtype": "float32"}, "class_name": "Ones"}, "momentum": 0.99, "center": true, "axis": [3], "beta_regularizer": null, "dtype": "float32", "scale": true, "name": "bn_conv1", "trainable": true, "gamma_constraint": null, "beta_constraint": null, "beta_initializer": {"config": {"dtype": "float32"}, "class_name": "Zeros"}, "moving_variance_initializer": {"config": {"dtype": "float32"}, "class_name": "Ones"}, "epsilon": 0.001, "moving_mean_initializer": {"config": {"dtype": "float32"}, "class_name": "Zeros"}}, "class_name": "BatchNormalization", "inbound_nodes": [[["conv1", 0, 0, {}]]]}, {"name": "activation", "config": {"name": "activation", "activation": "relu", "trainable": true, "dtype": "float32"}, "class_name": "Activation", "inbound_nodes": [[["bn_conv1", 0, 0, {}]]]}, {"name": "pool1_pad", "config": {"name": "pool1_pad", "data_format": "channels_last", "trainable": true, "padding": [[1, 1], [1, 1]], "dtype": "float32"}, "class_name": "ZeroPadding2D", "inbound_nodes": [[["activation", 0, 0, {}]]]}, {"name": "max_pooling2d", "config": {"trainable": true, "padding": "valid", "name": "max_pooling2d", "strides": [2, 2], "data_format": "channels_last", "pool_size": [3, 3], "dtype": "float32"}, "class_name": "MaxPooling2D", "inbound_nodes": [[["pool1_pad", 0, 0, {}]]]}, {"name": "res2a_branch2a", "config": {"bias_regularizer": null, "padding": "valid", "strides": [1, 1], "kernel_size": [1, 1], "kernel_initializer": {"config": {"distribution": "truncated_normal", "seed": null, "dtype": "float32", "mode": "fan_in", "scale": 2.0}, "class_name": "VarianceScaling"}, "dilation_rate": [1, 1], "dtype": "float32", "activation": "linear", "name": "res2a_branch2a", "bias_constraint": null, "trainable": true, "kernel_constraint": null, "use_bias": true, "kernel_regularizer": null, "bias_initializer": {"config": {"dtype": "float32"}, "class_name": "Zeros"}, "activity_regularizer": null, "data_format": "channels_last", "filters": 64}, "class_name": "Conv2D", "inbound_nodes": [[["max_pooling2d", 0, 0, {}]]]}, {"name": "bn2a_branch2a", "config": {"gamma_regularizer": null, "gamma_initializer": {"config": {"dtype": "float32"}, "class_name": "Ones"}, "momentum": 0.99, "center": true, "axis": [3], "beta_regularizer": null, "dtype": "float32", "scale": true, "name": "bn2a_branch2a", "trainable": true, "gamma_constraint": null, "beta_constraint": null, "beta_initializer": {"config": {"dtype": "float32"}, "class_name": "Zeros"}, "moving_variance_initializer": {"config": {"dtype": "float32"}, "class_name": "Ones"}, "epsilon": 0.001, "moving_mean_initializer": {"config": {"dtype": "float32"}, "class_name": "Zeros"}}, "class_name": "BatchNormalization", "inbound_nodes": [[["res2a_branch2a", 0, 0, {}]]]}, {"name": "activation_1", "config": {"name": "activation_1", "activation": "relu", "trainable": true, "dtype": "float32"}, "class_name": "Activation", "inbound_nodes": [[["bn2a_branch2a", 0, 0, {}]]]}, {"name": "res2a_branch2b", "config": {"bias_regularizer": null, "padding": "same", "strides": [1, 1], "kernel_size": [3, 3], "kernel_initializer": {"config": {"distribution": "truncated_normal", "seed": null, "dtype": "float32", "mode": "fan_in", "scale": 2.0}, "class_name": "VarianceScaling"}, "dilation_rate": [1, 1], "dtype": "float32", "activation": "linear", "name": "res2a_branch2b", "bias_constraint": null, "trainable": true, "kernel_constraint": null, "use_bias": true, "kernel_regularizer": null, "bias_initializer": {"config": {"dtype": "float32"}, "class_name": "Zeros"}, "activity_regularizer": null, "data_format": "channels_last", "filters": 64}, "class_name": "Conv2D", "inbound_nodes": [[["activation_1", 0, 0, {}]]]}, {"name": "bn2a_branch2b", "config": {"gamma_regularizer": null, "gamma_initializer": {"config": {"dtype": "float32"}, "class_name": "Ones"}, "momentum": 0.99, "center": true, "axis": [3], "beta_regularizer": null, "dtype": "float32", "scale": true, "name": "bn2a_branch2b", "trainable": true, "gamma_constraint": null, "beta_constraint": null, "beta_initializer": {"config": {"dtype": "float32"}, "class_name": "Zeros"}, "moving_variance_initializer": {"config": {"dtype": "float32"}, "class_name": "Ones"}, "epsilon": 0.001, "moving_mean_initializer": {"config": {"dtype": "float32"}, "class_name": "Zeros"}}, "class_name": "BatchNormalization", "inbound_nodes": [[["res2a_branch2b", 0, 0, {}]]]}, {"name": "activation_2", "config": {"name": "activation_2", "activation": "relu", "trainable": true, "dtype": "float32"}, "class_name": "Activation", "inbound_nodes": [[["bn2a_branch2b", 0, 0, {}]]]}, {"name": "res2a_branch2c", "config": {"bias_regularizer": null, "padding": "valid", "strides": [1, 1], "kernel_size": [1, 1], "kernel_initializer": {"config": {"distribution": "truncated_normal", "seed": null, "dtype": "float32", "mode": "fan_in", "scale": 2.0}, "class_name": "VarianceScaling"}, "dilation_rate": [1, 1], "dtype": "float32", "activation": "linear", "name": "res2a_branch2c", "bias_constraint": null, "trainable": true, "kernel_constraint": null, "use_bias": true, "kernel_regularizer": null, "bias_initializer": {"config": {"dtype": "float32"}, "class_name": "Zeros"}, "activity_regularizer": null, "data_format": "channels_last", "filters": 256}, "class_name": "Conv2D", "inbound_nodes": [[["activation_2", 0, 0, {}]]]}, {"name": "res2a_branch1", "config": {"bias_regularizer": null, "padding": "valid", "strides": [1, 1], "kernel_size": [1, 1], "kernel_initializer": {"config": {"distribution": "truncated_normal", "seed": null, "dtype": "float32", "mode": "fan_in", "scale": 2.0}, "class_name": "VarianceScaling"}, "dilation_rate": [1, 1], "dtype": "float32", "activation": "linear", "name": "res2a_branch1", "bias_constraint": null, "trainable": true, "kernel_constraint": null, "use_bias": true, "kernel_regularizer": null, "bias_initializer": {"config": {"dtype": "float32"}, "class_name": "Zeros"}, "activity_regularizer": null, "data_format": "channels_last", "filters": 256}, "class_name": "Conv2D", "inbound_nodes": [[["max_pooling2d", 0, 0, {}]]]}, {"name": "bn2a_branch2c", "config": {"gamma_regularizer": null, "gamma_initializer": {"config": {"dtype": "float32"}, "class_name": "Ones"}, "momentum": 0.99, "center": true, "axis": [3], "beta_regularizer": null, "dtype": "float32", "scale": true, "name": "bn2a_branch2c", "trainable": true, "gamma_constraint": null, "beta_constraint": null, "beta_initializer": {"config": {"dtype": "float32"}, "class_name": "Zeros"}, "moving_variance_initializer": {"config": {"dtype": "float32"}, "class_name": "Ones"}, "epsilon": 0.001, "moving_mean_initializer": {"config": {"dtype": "float32"}, "class_name": "Zeros"}}, "class_name": "BatchNormalization", "inbound_nodes": [[["res2a_branch2c", 0, 0, {}]]]}, {"name": "bn2a_branch1", "config": {"gamma_regularizer": null, "gamma_initializer": {"config": {"dtype": "float32"}, "class_name": "Ones"}, "momentum": 0.99, "center": true, "axis": [3], "beta_regularizer": null, "dtype": "float32", "scale": true, "name": "bn2a_branch1", "trainable": true, "gamma_constraint": null, "beta_constraint": null, "beta_initializer": {"config": {"dtype": "float32"}, "class_name": "Zeros"}, "moving_variance_initializer": {"config": {"dtype": "float32"}, "class_name": "Ones"}, "epsilon": 0.001, "moving_mean_initializer": {"config": {"dtype": "float32"}, "class_name": "Zeros"}}, "class_name": "BatchNormalization", "inbound_nodes": [[["res2a_branch1", 0, 0, {}]]]}, {"name": "add", "config": {"name": "add", "trainable": true, "dtype": "float32"}, "class_name": "Add", "inbound_nodes": [[["bn2a_branch2c", 0, 0, {}], ["bn2a_branch1", 0, 0, {}]]]}, {"name": "activation_3", "config": {"name": "activation_3", "activation": "relu", "trainable": true, "dtype": "float32"}, "class_name": "Activation", "inbound_nodes": [[["add", 0, 0, {}]]]}, {"name": "res2b_branch2a", "config": {"bias_regularizer": null, "padding": "valid", "strides": [1, 1], "kernel_size": [1, 1], "kernel_initializer": {"config": {"distribution": "truncated_normal", "seed": null, "dtype": "float32", "mode": "fan_in", "scale": 2.0}, "class_name": "VarianceScaling"}, "dilation_rate": [1, 1], "dtype": "float32", "activation": "linear", "name": "res2b_branch2a", "bias_constraint": null, "trainable": true, "kernel_constraint": null, "use_bias": true, "kernel_regularizer": null, "bias_initializer": {"config": {"dtype": "float32"}, "class_name": "Zeros"}, "activity_regularizer": null, "data_format": "channels_last", "filters": 64}, "class_name": "Conv2D", "inbound_nodes": [[["activation_3", 0, 0, {}]]]}, {"name": "bn2b_branch2a", "config": {"gamma_regularizer": null, "gamma_initializer": {"config": {"dtype": "float32"}, "class_name": "Ones"}, "momentum": 0.99, "center": true, "axis": [3], "beta_regularizer": null, "dtype": "float32", "scale": true, "name": "bn2b_branch2a", "trainable": true, "gamma_constraint": null, "beta_constraint": null, "beta_initializer": {"config": {"dtype": "float32"}, "class_name": "Zeros"}, "moving_variance_initializer": {"config": {"dtype": "float32"}, "class_name": "Ones"}, "epsilon": 0.001, "moving_mean_initializer": {"config": {"dtype": "float32"}, "class_name": "Zeros"}}, "class_name": "BatchNormalization", "inbound_nodes": [[["res2b_branch2a", 0, 0, {}]]]}, {"name": "activation_4", "config": {"name": "activation_4", "activation": "relu", "trainable": true, "dtype": "float32"}, "class_name": "Activation", "inbound_nodes": [[["bn2b_branch2a", 0, 0, {}]]]}, {"name": "res2b_branch2b", "config": {"bias_regularizer": null, "padding": "same", "strides": [1, 1], "kernel_size": [3, 3], "kernel_initializer": {"config": {"distribution": "truncated_normal", "seed": null, "dtype": "float32", "mode": "fan_in", "scale": 2.0}, "class_name": "VarianceScaling"}, "dilation_rate": [1, 1], "dtype": "float32", "activation": "linear", "name": "res2b_branch2b", "bias_constraint": null, "trainable": true, "kernel_constraint": null, "use_bias": true, "kernel_regularizer": null, "bias_initializer": {"config": {"dtype": "float32"}, "class_name": "Zeros"}, "activity_regularizer": null, "data_format": "channels_last", "filters": 64}, "class_name": "Conv2D", "inbound_nodes": [[["activation_4", 0, 0, {}]]]}, {"name": "bn2b_branch2b", "config": {"gamma_regularizer": null, "gamma_initializer": {"config": {"dtype": "float32"}, "class_name": "Ones"}, "momentum": 0.99, "center": true, "axis": [3], "beta_regularizer": null, "dtype": "float32", "scale": true, "name": "bn2b_branch2b", "trainable": true, "gamma_constraint": null, "beta_constraint": null, "beta_initializer": {"config": {"dtype": "float32"}, "class_name": "Zeros"}, "moving_variance_initializer": {"config": {"dtype": "float32"}, "class_name": "Ones"}, "epsilon": 0.001, "moving_mean_initializer": {"config": {"dtype": "float32"}, "class_name": "Zeros"}}, "class_name": "BatchNormalization", "inbound_nodes": [[["res2b_branch2b", 0, 0, {}]]]}, {"name": "activation_5", "config": {"name": "activation_5", "activation": "relu", "trainable": true, "dtype": "float32"}, "class_name": "Activation", "inbound_nodes": [[["bn2b_branch2b", 0, 0, {}]]]}, {"name": "res2b_branch2c", "config": {"bias_regularizer": null, "padding": "valid", "strides": [1, 1], "kernel_size": [1, 1], "kernel_initializer": {"config": {"distribution": "truncated_normal", "seed": null, "dtype": "float32", "mode": "fan_in", "scale": 2.0}, "class_name": "VarianceScaling"}, "dilation_rate": [1, 1], "dtype": "float32", "activation": "linear", "name": "res2b_branch2c", "bias_constraint": null, "trainable": true, "kernel_constraint": null, "use_bias": true, "kernel_regularizer": null, "bias_initializer": {"config": {"dtype": "float32"}, "class_name": "Zeros"}, "activity_regularizer": null, "data_format": "channels_last", "filters": 256}, "class_name": "Conv2D", "inbound_nodes": [[["activation_5", 0, 0, {}]]]}, {"name": "bn2b_branch2c", "config": {"gamma_regularizer": null, "gamma_initializer": {"config": {"dtype": "float32"}, "class_name": "Ones"}, "momentum": 0.99, "center": true, "axis": [3], "beta_regularizer": null, "dtype": "float32", "scale": true, "name": "bn2b_branch2c", "trainable": true, "gamma_constraint": null, "beta_constraint": null, "beta_initializer": {"config": {"dtype": "float32"}, "class_name": "Zeros"}, "moving_variance_initializer": {"config": {"dtype": "float32"}, "class_name": "Ones"}, "epsilon": 0.001, "moving_mean_initializer": {"config": {"dtype": "float32"}, "class_name": "Zeros"}}, "class_name": "BatchNormalization", "inbound_nodes": [[["res2b_branch2c", 0, 0, {}]]]}, {"name": "add_1", "config": {"name": "add_1", "trainable": true, "dtype": "float32"}, "class_name": "Add", "inbound_nodes": [[["bn2b_branch2c", 0, 0, {}], ["activation_3", 0, 0, {}]]]}, {"name": "activation_6", "config": {"name": "activation_6", "activation": "relu", "trainable": true, "dtype": "float32"}, "class_name": "Activation", "inbound_nodes": [[["add_1", 0, 0, {}]]]}, {"name": "res2c_branch2a", "config": {"bias_regularizer": null, "padding": "valid", "strides": [1, 1], "kernel_size": [1, 1], "kernel_initializer": {"config": {"distribution": "truncated_normal", "seed": null, "dtype": "float32", "mode": "fan_in", "scale": 2.0}, "class_name": "VarianceScaling"}, "dilation_rate": [1, 1], "dtype": "float32", "activation": "linear", "name": "res2c_branch2a", "bias_constraint": null, "trainable": true, "kernel_constraint": null, "use_bias": true, "kernel_regularizer": null, "bias_initializer": {"config": {"dtype": "float32"}, "class_name": "Zeros"}, "activity_regularizer": null, "data_format": "channels_last", "filters": 64}, "class_name": "Conv2D", "inbound_nodes": [[["activation_6", 0, 0, {}]]]}, {"name": "bn2c_branch2a", "config": {"gamma_regularizer": null, "gamma_initializer": {"config": {"dtype": "float32"}, "class_name": "Ones"}, "momentum": 0.99, "center": true, "axis": [3], "beta_regularizer": null, "dtype": "float32", "scale": true, "name": "bn2c_branch2a", "trainable": true, "gamma_constraint": null, "beta_constraint": null, "beta_initializer": {"config": {"dtype": "float32"}, "class_name": "Zeros"}, "moving_variance_initializer": {"config": {"dtype": "float32"}, "class_name": "Ones"}, "epsilon": 0.001, "moving_mean_initializer": {"config": {"dtype": "float32"}, "class_name": "Zeros"}}, "class_name": "BatchNormalization", "inbound_nodes": [[["res2c_branch2a", 0, 0, {}]]]}, {"name": "activation_7", "config": {"name": "activation_7", "activation": "relu", "trainable": true, "dtype": "float32"}, "class_name": "Activation", "inbound_nodes": [[["bn2c_branch2a", 0, 0, {}]]]}, {"name": "res2c_branch2b", "config": {"bias_regularizer": null, "padding": "same", "strides": [1, 1], "kernel_size": [3, 3], "kernel_initializer": {"config": {"distribution": "truncated_normal", "seed": null, "dtype": "float32", "mode": "fan_in", "scale": 2.0}, "class_name": "VarianceScaling"}, "dilation_rate": [1, 1], "dtype": "float32", "activation": "linear", "name": "res2c_branch2b", "bias_constraint": null, "trainable": true, "kernel_constraint": null, "use_bias": true, "kernel_regularizer": null, "bias_initializer": {"config": {"dtype": "float32"}, "class_name": "Zeros"}, "activity_regularizer": null, "data_format": "channels_last", "filters": 64}, "class_name": "Conv2D", "inbound_nodes": [[["activation_7", 0, 0, {}]]]}, {"name": "bn2c_branch2b", "config": {"gamma_regularizer": null, "gamma_initializer": {"config": {"dtype": "float32"}, "class_name": "Ones"}, "momentum": 0.99, "center": true, "axis": [3], "beta_regularizer": null, "dtype": "float32", "scale": true, "name": "bn2c_branch2b", "trainable": true, "gamma_constraint": null, "beta_constraint": null, "beta_initializer": {"config": {"dtype": "float32"}, "class_name": "Zeros"}, "moving_variance_initializer": {"config": {"dtype": "float32"}, "class_name": "Ones"}, "epsilon": 0.001, "moving_mean_initializer": {"config": {"dtype": "float32"}, "class_name": "Zeros"}}, "class_name": "BatchNormalization", "inbound_nodes": [[["res2c_branch2b", 0, 0, {}]]]}, {"name": "activation_8", "config": {"name": "activation_8", "activation": "relu", "trainable": true, "dtype": "float32"}, "class_name": "Activation", "inbound_nodes": [[["bn2c_branch2b", 0, 0, {}]]]}, {"name": "res2c_branch2c", "config": {"bias_regularizer": null, "padding": "valid", "strides": [1, 1], "kernel_size": [1, 1], "kernel_initializer": {"config": {"distribution": "truncated_normal", "seed": null, "dtype": "float32", "mode": "fan_in", "scale": 2.0}, "class_name": "VarianceScaling"}, "dilation_rate": [1, 1], "dtype": "float32", "activation": "linear", "name": "res2c_branch2c", "bias_constraint": null, "trainable": true, "kernel_constraint": null, "use_bias": true, "kernel_regularizer": null, "bias_initializer": {"config": {"dtype": "float32"}, "class_name": "Zeros"}, "activity_regularizer": null, "data_format": "channels_last", "filters": 256}, "class_name": "Conv2D", "inbound_nodes": [[["activation_8", 0, 0, {}]]]}, {"name": "bn2c_branch2c", "config": {"gamma_regularizer": null, "gamma_initializer": {"config": {"dtype": "float32"}, "class_name": "Ones"}, "momentum": 0.99, "center": true, "axis": [3], "beta_regularizer": null, "dtype": "float32", "scale": true, "name": "bn2c_branch2c", "trainable": true, "gamma_constraint": null, "beta_constraint": null, "beta_initializer": {"config": {"dtype": "float32"}, "class_name": "Zeros"}, "moving_variance_initializer": {"config": {"dtype": "float32"}, "class_name": "Ones"}, "epsilon": 0.001, "moving_mean_initializer": {"config": {"dtype": "float32"}, "class_name": "Zeros"}}, "class_name": "BatchNormalization", "inbound_nodes": [[["res2c_branch2c", 0, 0, {}]]]}, {"name": "add_2", "config": {"name": "add_2", "trainable": true, "dtype": "float32"}, "class_name": "Add", "inbound_nodes": [[["bn2c_branch2c", 0, 0, {}], ["activation_6", 0, 0, {}]]]}, {"name": "activation_9", "config": {"name": "activation_9", "activation": "relu", "trainable": true, "dtype": "float32"}, "class_name": "Activation", "inbound_nodes": [[["add_2", 0, 0, {}]]]}, {"name": "res3a_branch2a", "config": {"bias_regularizer": null, "padding": "valid", "strides": [2, 2], "kernel_size": [1, 1], "kernel_initializer": {"config": {"distribution": "truncated_normal", "seed": null, "dtype": "float32", "mode": "fan_in", "scale": 2.0}, "class_name": "VarianceScaling"}, "dilation_rate": [1, 1], "dtype": "float32", "activation": "linear", "name": "res3a_branch2a", "bias_constraint": null, "trainable": true, "kernel_constraint": null, "use_bias": true, "kernel_regularizer": null, "bias_initializer": {"config": {"dtype": "float32"}, "class_name": "Zeros"}, "activity_regularizer": null, "data_format": "channels_last", "filters": 128}, "class_name": "Conv2D", "inbound_nodes": [[["activation_9", 0, 0, {}]]]}, {"name": "bn3a_branch2a", "config": {"gamma_regularizer": null, "gamma_initializer": {"config": {"dtype": "float32"}, "class_name": "Ones"}, "momentum": 0.99, "center": true, "axis": [3], "beta_regularizer": null, "dtype": "float32", "scale": true, "name": "bn3a_branch2a", "trainable": true, "gamma_constraint": null, "beta_constraint": null, "beta_initializer": {"config": {"dtype": "float32"}, "class_name": "Zeros"}, "moving_variance_initializer": {"config": {"dtype": "float32"}, "class_name": "Ones"}, "epsilon": 0.001, "moving_mean_initializer": {"config": {"dtype": "float32"}, "class_name": "Zeros"}}, "class_name": "BatchNormalization", "inbound_nodes": [[["res3a_branch2a", 0, 0, {}]]]}, {"name": "activation_10", "config": {"name": "activation_10", "activation": "relu", "trainable": true, "dtype": "float32"}, "class_name": "Activation", "inbound_nodes": [[["bn3a_branch2a", 0, 0, {}]]]}, {"name": "res3a_branch2b", "config": {"bias_regularizer": null, "padding": "same", "strides": [1, 1], "kernel_size": [3, 3], "kernel_initializer": {"config": {"distribution": "truncated_normal", "seed": null, "dtype": "float32", "mode": "fan_in", "scale": 2.0}, "class_name": "VarianceScaling"}, "dilation_rate": [1, 1], "dtype": "float32", "activation": "linear", "name": "res3a_branch2b", "bias_constraint": null, "trainable": true, "kernel_constraint": null, "use_bias": true, "kernel_regularizer": null, "bias_initializer": {"config": {"dtype": "float32"}, "class_name": "Zeros"}, "activity_regularizer": null, "data_format": "channels_last", "filters": 128}, "class_name": "Conv2D", "inbound_nodes": [[["activation_10", 0, 0, {}]]]}, {"name": "bn3a_branch2b", "config": {"gamma_regularizer": null, "gamma_initializer": {"config": {"dtype": "float32"}, "class_name": "Ones"}, "momentum": 0.99, "center": true, "axis": [3], "beta_regularizer": null, "dtype": "float32", "scale": true, "name": "bn3a_branch2b", "trainable": true, "gamma_constraint": null, "beta_constraint": null, "beta_initializer": {"config": {"dtype": "float32"}, "class_name": "Zeros"}, "moving_variance_initializer": {"config": {"dtype": "float32"}, "class_name": "Ones"}, "epsilon": 0.001, "moving_mean_initializer": {"config": {"dtype": "float32"}, "class_name": "Zeros"}}, "class_name": "BatchNormalization", "inbound_nodes": [[["res3a_branch2b", 0, 0, {}]]]}, {"name": "activation_11", "config": {"name": "activation_11", "activation": "relu", "trainable": true, "dtype": "float32"}, "class_name": "Activation", "inbound_nodes": [[["bn3a_branch2b", 0, 0, {}]]]}, {"name": "res3a_branch2c", "config": {"bias_regularizer": null, "padding": "valid", "strides": [1, 1], "kernel_size": [1, 1], "kernel_initializer": {"config": {"distribution": "truncated_normal", "seed": null, "dtype": "float32", "mode": "fan_in", "scale": 2.0}, "class_name": "VarianceScaling"}, "dilation_rate": [1, 1], "dtype": "float32", "activation": "linear", "name": "res3a_branch2c", "bias_constraint": null, "trainable": true, "kernel_constraint": null, "use_bias": true, "kernel_regularizer": null, "bias_initializer": {"config": {"dtype": "float32"}, "class_name": "Zeros"}, "activity_regularizer": null, "data_format": "channels_last", "filters": 512}, "class_name": "Conv2D", "inbound_nodes": [[["activation_11", 0, 0, {}]]]}, {"name": "res3a_branch1", "config": {"bias_regularizer": null, "padding": "valid", "strides": [2, 2], "kernel_size": [1, 1], "kernel_initializer": {"config": {"distribution": "truncated_normal", "seed": null, "dtype": "float32", "mode": "fan_in", "scale": 2.0}, "class_name": "VarianceScaling"}, "dilation_rate": [1, 1], "dtype": "float32", "activation": "linear", "name": "res3a_branch1", "bias_constraint": null, "trainable": true, "kernel_constraint": null, "use_bias": true, "kernel_regularizer": null, "bias_initializer": {"config": {"dtype": "float32"}, "class_name": "Zeros"}, "activity_regularizer": null, "data_format": "channels_last", "filters": 512}, "class_name": "Conv2D", "inbound_nodes": [[["activation_9", 0, 0, {}]]]}, {"name": "bn3a_branch2c", "config": {"gamma_regularizer": null, "gamma_initializer": {"config": {"dtype": "float32"}, "class_name": "Ones"}, "momentum": 0.99, "center": true, "axis": [3], "beta_regularizer": null, "dtype": "float32", "scale": true, "name": "bn3a_branch2c", "trainable": true, "gamma_constraint": null, "beta_constraint": null, "beta_initializer": {"config": {"dtype": "float32"}, "class_name": "Zeros"}, "moving_variance_initializer": {"config": {"dtype": "float32"}, "class_name": "Ones"}, "epsilon": 0.001, "moving_mean_initializer": {"config": {"dtype": "float32"}, "class_name": "Zeros"}}, "class_name": "BatchNormalization", "inbound_nodes": [[["res3a_branch2c", 0, 0, {}]]]}, {"name": "bn3a_branch1", "config": {"gamma_regularizer": null, "gamma_initializer": {"config": {"dtype": "float32"}, "class_name": "Ones"}, "momentum": 0.99, "center": true, "axis": [3], "beta_regularizer": null, "dtype": "float32", "scale": true, "name": "bn3a_branch1", "trainable": true, "gamma_constraint": null, "beta_constraint": null, "beta_initializer": {"config": {"dtype": "float32"}, "class_name": "Zeros"}, "moving_variance_initializer": {"config": {"dtype": "float32"}, "class_name": "Ones"}, "epsilon": 0.001, "moving_mean_initializer": {"config": {"dtype": "float32"}, "class_name": "Zeros"}}, "class_name": "BatchNormalization", "inbound_nodes": [[["res3a_branch1", 0, 0, {}]]]}, {"name": "add_3", "config": {"name": "add_3", "trainable": true, "dtype": "float32"}, "class_name": "Add", "inbound_nodes": [[["bn3a_branch2c", 0, 0, {}], ["bn3a_branch1", 0, 0, {}]]]}, {"name": "activation_12", "config": {"name": "activation_12", "activation": "relu", "trainable": true, "dtype": "float32"}, "class_name": "Activation", "inbound_nodes": [[["add_3", 0, 0, {}]]]}, {"name": "res3b_branch2a", "config": {"bias_regularizer": null, "padding": "valid", "strides": [1, 1], "kernel_size": [1, 1], "kernel_initializer": {"config": {"distribution": "truncated_normal", "seed": null, "dtype": "float32", "mode": "fan_in", "scale": 2.0}, "class_name": "VarianceScaling"}, "dilation_rate": [1, 1], "dtype": "float32", "activation": "linear", "name": "res3b_branch2a", "bias_constraint": null, "trainable": true, "kernel_constraint": null, "use_bias": true, "kernel_regularizer": null, "bias_initializer": {"config": {"dtype": "float32"}, "class_name": "Zeros"}, "activity_regularizer": null, "data_format": "channels_last", "filters": 128}, "class_name": "Conv2D", "inbound_nodes": [[["activation_12", 0, 0, {}]]]}, {"name": "bn3b_branch2a", "config": {"gamma_regularizer": null, "gamma_initializer": {"config": {"dtype": "float32"}, "class_name": "Ones"}, "momentum": 0.99, "center": true, "axis": [3], "beta_regularizer": null, "dtype": "float32", "scale": true, "name": "bn3b_branch2a", "trainable": true, "gamma_constraint": null, "beta_constraint": null, "beta_initializer": {"config": {"dtype": "float32"}, "class_name": "Zeros"}, "moving_variance_initializer": {"config": {"dtype": "float32"}, "class_name": "Ones"}, "epsilon": 0.001, "moving_mean_initializer": {"config": {"dtype": "float32"}, "class_name": "Zeros"}}, "class_name": "BatchNormalization", "inbound_nodes": [[["res3b_branch2a", 0, 0, {}]]]}, {"name": "activation_13", "config": {"name": "activation_13", "activation": "relu", "trainable": true, "dtype": "float32"}, "class_name": "Activation", "inbound_nodes": [[["bn3b_branch2a", 0, 0, {}]]]}, {"name": "res3b_branch2b", "config": {"bias_regularizer": null, "padding": "same", "strides": [1, 1], "kernel_size": [3, 3], "kernel_initializer": {"config": {"distribution": "truncated_normal", "seed": null, "dtype": "float32", "mode": "fan_in", "scale": 2.0}, "class_name": "VarianceScaling"}, "dilation_rate": [1, 1], "dtype": "float32", "activation": "linear", "name": "res3b_branch2b", "bias_constraint": null, "trainable": true, "kernel_constraint": null, "use_bias": true, "kernel_regularizer": null, "bias_initializer": {"config": {"dtype": "float32"}, "class_name": "Zeros"}, "activity_regularizer": null, "data_format": "channels_last", "filters": 128}, "class_name": "Conv2D", "inbound_nodes": [[["activation_13", 0, 0, {}]]]}, {"name": "bn3b_branch2b", "config": {"gamma_regularizer": null, "gamma_initializer": {"config": {"dtype": "float32"}, "class_name": "Ones"}, "momentum": 0.99, "center": true, "axis": [3], "beta_regularizer": null, "dtype": "float32", "scale": true, "name": "bn3b_branch2b", "trainable": true, "gamma_constraint": null, "beta_constraint": null, "beta_initializer": {"config": {"dtype": "float32"}, "class_name": "Zeros"}, "moving_variance_initializer": {"config": {"dtype": "float32"}, "class_name": "Ones"}, "epsilon": 0.001, "moving_mean_initializer": {"config": {"dtype": "float32"}, "class_name": "Zeros"}}, "class_name": "BatchNormalization", "inbound_nodes": [[["res3b_branch2b", 0, 0, {}]]]}, {"name": "activation_14", "config": {"name": "activation_14", "activation": "relu", "trainable": true, "dtype": "float32"}, "class_name": "Activation", "inbound_nodes": [[["bn3b_branch2b", 0, 0, {}]]]}, {"name": "res3b_branch2c", "config": {"bias_regularizer": null, "padding": "valid", "strides": [1, 1], "kernel_size": [1, 1], "kernel_initializer": {"config": {"distribution": "truncated_normal", "seed": null, "dtype": "float32", "mode": "fan_in", "scale": 2.0}, "class_name": "VarianceScaling"}, "dilation_rate": [1, 1], "dtype": "float32", "activation": "linear", "name": "res3b_branch2c", "bias_constraint": null, "trainable": true, "kernel_constraint": null, "use_bias": true, "kernel_regularizer": null, "bias_initializer": {"config": {"dtype": "float32"}, "class_name": "Zeros"}, "activity_regularizer": null, "data_format": "channels_last", "filters": 512}, "class_name": "Conv2D", "inbound_nodes": [[["activation_14", 0, 0, {}]]]}, {"name": "bn3b_branch2c", "config": {"gamma_regularizer": null, "gamma_initializer": {"config": {"dtype": "float32"}, "class_name": "Ones"}, "momentum": 0.99, "center": true, "axis": [3], "beta_regularizer": null, "dtype": "float32", "scale": true, "name": "bn3b_branch2c", "trainable": true, "gamma_constraint": null, "beta_constraint": null, "beta_initializer": {"config": {"dtype": "float32"}, "class_name": "Zeros"}, "moving_variance_initializer": {"config": {"dtype": "float32"}, "class_name": "Ones"}, "epsilon": 0.001, "moving_mean_initializer": {"config": {"dtype": "float32"}, "class_name": "Zeros"}}, "class_name": "BatchNormalization", "inbound_nodes": [[["res3b_branch2c", 0, 0, {}]]]}, {"name": "add_4", "config": {"name": "add_4", "trainable": true, "dtype": "float32"}, "class_name": "Add", "inbound_nodes": [[["bn3b_branch2c", 0, 0, {}], ["activation_12", 0, 0, {}]]]}, {"name": "activation_15", "config": {"name": "activation_15", "activation": "relu", "trainable": true, "dtype": "float32"}, "class_name": "Activation", "inbound_nodes": [[["add_4", 0, 0, {}]]]}, {"name": "res3c_branch2a", "config": {"bias_regularizer": null, "padding": "valid", "strides": [1, 1], "kernel_size": [1, 1], "kernel_initializer": {"config": {"distribution": "truncated_normal", "seed": null, "dtype": "float32", "mode": "fan_in", "scale": 2.0}, "class_name": "VarianceScaling"}, "dilation_rate": [1, 1], "dtype": "float32", "activation": "linear", "name": "res3c_branch2a", "bias_constraint": null, "trainable": true, "kernel_constraint": null, "use_bias": true, "kernel_regularizer": null, "bias_initializer": {"config": {"dtype": "float32"}, "class_name": "Zeros"}, "activity_regularizer": null, "data_format": "channels_last", "filters": 128}, "class_name": "Conv2D", "inbound_nodes": [[["activation_15", 0, 0, {}]]]}, {"name": "bn3c_branch2a", "config": {"gamma_regularizer": null, "gamma_initializer": {"config": {"dtype": "float32"}, "class_name": "Ones"}, "momentum": 0.99, "center": true, "axis": [3], "beta_regularizer": null, "dtype": "float32", "scale": true, "name": "bn3c_branch2a", "trainable": true, "gamma_constraint": null, "beta_constraint": null, "beta_initializer": {"config": {"dtype": "float32"}, "class_name": "Zeros"}, "moving_variance_initializer": {"config": {"dtype": "float32"}, "class_name": "Ones"}, "epsilon": 0.001, "moving_mean_initializer": {"config": {"dtype": "float32"}, "class_name": "Zeros"}}, "class_name": "BatchNormalization", "inbound_nodes": [[["res3c_branch2a", 0, 0, {}]]]}, {"name": "activation_16", "config": {"name": "activation_16", "activation": "relu", "trainable": true, "dtype": "float32"}, "class_name": "Activation", "inbound_nodes": [[["bn3c_branch2a", 0, 0, {}]]]}, {"name": "res3c_branch2b", "config": {"bias_regularizer": null, "padding": "same", "strides": [1, 1], "kernel_size": [3, 3], "kernel_initializer": {"config": {"distribution": "truncated_normal", "seed": null, "dtype": "float32", "mode": "fan_in", "scale": 2.0}, "class_name": "VarianceScaling"}, "dilation_rate": [1, 1], "dtype": "float32", "activation": "linear", "name": "res3c_branch2b", "bias_constraint": null, "trainable": true, "kernel_constraint": null, "use_bias": true, "kernel_regularizer": null, "bias_initializer": {"config": {"dtype": "float32"}, "class_name": "Zeros"}, "activity_regularizer": null, "data_format": "channels_last", "filters": 128}, "class_name": "Conv2D", "inbound_nodes": [[["activation_16", 0, 0, {}]]]}, {"name": "bn3c_branch2b", "config": {"gamma_regularizer": null, "gamma_initializer": {"config": {"dtype": "float32"}, "class_name": "Ones"}, "momentum": 0.99, "center": true, "axis": [3], "beta_regularizer": null, "dtype": "float32", "scale": true, "name": "bn3c_branch2b", "trainable": true, "gamma_constraint": null, "beta_constraint": null, "beta_initializer": {"config": {"dtype": "float32"}, "class_name": "Zeros"}, "moving_variance_initializer": {"config": {"dtype": "float32"}, "class_name": "Ones"}, "epsilon": 0.001, "moving_mean_initializer": {"config": {"dtype": "float32"}, "class_name": "Zeros"}}, "class_name": "BatchNormalization", "inbound_nodes": [[["res3c_branch2b", 0, 0, {}]]]}, {"name": "activation_17", "config": {"name": "activation_17", "activation": "relu", "trainable": true, "dtype": "float32"}, "class_name": "Activation", "inbound_nodes": [[["bn3c_branch2b", 0, 0, {}]]]}, {"name": "res3c_branch2c", "config": {"bias_regularizer": null, "padding": "valid", "strides": [1, 1], "kernel_size": [1, 1], "kernel_initializer": {"config": {"distribution": "truncated_normal", "seed": null, "dtype": "float32", "mode": "fan_in", "scale": 2.0}, "class_name": "VarianceScaling"}, "dilation_rate": [1, 1], "dtype": "float32", "activation": "linear", "name": "res3c_branch2c", "bias_constraint": null, "trainable": true, "kernel_constraint": null, "use_bias": true, "kernel_regularizer": null, "bias_initializer": {"config": {"dtype": "float32"}, "class_name": "Zeros"}, "activity_regularizer": null, "data_format": "channels_last", "filters": 512}, "class_name": "Conv2D", "inbound_nodes": [[["activation_17", 0, 0, {}]]]}, {"name": "bn3c_branch2c", "config": {"gamma_regularizer": null, "gamma_initializer": {"config": {"dtype": "float32"}, "class_name": "Ones"}, "momentum": 0.99, "center": true, "axis": [3], "beta_regularizer": null, "dtype": "float32", "scale": true, "name": "bn3c_branch2c", "trainable": true, "gamma_constraint": null, "beta_constraint": null, "beta_initializer": {"config": {"dtype": "float32"}, "class_name": "Zeros"}, "moving_variance_initializer": {"config": {"dtype": "float32"}, "class_name": "Ones"}, "epsilon": 0.001, "moving_mean_initializer": {"config": {"dtype": "float32"}, "class_name": "Zeros"}}, "class_name": "BatchNormalization", "inbound_nodes": [[["res3c_branch2c", 0, 0, {}]]]}, {"name": "add_5", "config": {"name": "add_5", "trainable": true, "dtype": "float32"}, "class_name": "Add", "inbound_nodes": [[["bn3c_branch2c", 0, 0, {}], ["activation_15", 0, 0, {}]]]}, {"name": "activation_18", "config": {"name": "activation_18", "activation": "relu", "trainable": true, "dtype": "float32"}, "class_name": "Activation", "inbound_nodes": [[["add_5", 0, 0, {}]]]}, {"name": "res3d_branch2a", "config": {"bias_regularizer": null, "padding": "valid", "strides": [1, 1], "kernel_size": [1, 1], "kernel_initializer": {"config": {"distribution": "truncated_normal", "seed": null, "dtype": "float32", "mode": "fan_in", "scale": 2.0}, "class_name": "VarianceScaling"}, "dilation_rate": [1, 1], "dtype": "float32", "activation": "linear", "name": "res3d_branch2a", "bias_constraint": null, "trainable": true, "kernel_constraint": null, "use_bias": true, "kernel_regularizer": null, "bias_initializer": {"config": {"dtype": "float32"}, "class_name": "Zeros"}, "activity_regularizer": null, "data_format": "channels_last", "filters": 128}, "class_name": "Conv2D", "inbound_nodes": [[["activation_18", 0, 0, {}]]]}, {"name": "bn3d_branch2a", "config": {"gamma_regularizer": null, "gamma_initializer": {"config": {"dtype": "float32"}, "class_name": "Ones"}, "momentum": 0.99, "center": true, "axis": [3], "beta_regularizer": null, "dtype": "float32", "scale": true, "name": "bn3d_branch2a", "trainable": true, "gamma_constraint": null, "beta_constraint": null, "beta_initializer": {"config": {"dtype": "float32"}, "class_name": "Zeros"}, "moving_variance_initializer": {"config": {"dtype": "float32"}, "class_name": "Ones"}, "epsilon": 0.001, "moving_mean_initializer": {"config": {"dtype": "float32"}, "class_name": "Zeros"}}, "class_name": "BatchNormalization", "inbound_nodes": [[["res3d_branch2a", 0, 0, {}]]]}, {"name": "activation_19", "config": {"name": "activation_19", "activation": "relu", "trainable": true, "dtype": "float32"}, "class_name": "Activation", "inbound_nodes": [[["bn3d_branch2a", 0, 0, {}]]]}, {"name": "res3d_branch2b", "config": {"bias_regularizer": null, "padding": "same", "strides": [1, 1], "kernel_size": [3, 3], "kernel_initializer": {"config": {"distribution": "truncated_normal", "seed": null, "dtype": "float32", "mode": "fan_in", "scale": 2.0}, "class_name": "VarianceScaling"}, "dilation_rate": [1, 1], "dtype": "float32", "activation": "linear", "name": "res3d_branch2b", "bias_constraint": null, "trainable": true, "kernel_constraint": null, "use_bias": true, "kernel_regularizer": null, "bias_initializer": {"config": {"dtype": "float32"}, "class_name": "Zeros"}, "activity_regularizer": null, "data_format": "channels_last", "filters": 128}, "class_name": "Conv2D", "inbound_nodes": [[["activation_19", 0, 0, {}]]]}, {"name": "bn3d_branch2b", "config": {"gamma_regularizer": null, "gamma_initializer": {"config": {"dtype": "float32"}, "class_name": "Ones"}, "momentum": 0.99, "center": true, "axis": [3], "beta_regularizer": null, "dtype": "float32", "scale": true, "name": "bn3d_branch2b", "trainable": true, "gamma_constraint": null, "beta_constraint": null, "beta_initializer": {"config": {"dtype": "float32"}, "class_name": "Zeros"}, "moving_variance_initializer": {"config": {"dtype": "float32"}, "class_name": "Ones"}, "epsilon": 0.001, "moving_mean_initializer": {"config": {"dtype": "float32"}, "class_name": "Zeros"}}, "class_name": "BatchNormalization", "inbound_nodes": [[["res3d_branch2b", 0, 0, {}]]]}, {"name": "activation_20", "config": {"name": "activation_20", "activation": "relu", "trainable": true, "dtype": "float32"}, "class_name": "Activation", "inbound_nodes": [[["bn3d_branch2b", 0, 0, {}]]]}, {"name": "res3d_branch2c", "config": {"bias_regularizer": null, "padding": "valid", "strides": [1, 1], "kernel_size": [1, 1], "kernel_initializer": {"config": {"distribution": "truncated_normal", "seed": null, "dtype": "float32", "mode": "fan_in", "scale": 2.0}, "class_name": "VarianceScaling"}, "dilation_rate": [1, 1], "dtype": "float32", "activation": "linear", "name": "res3d_branch2c", "bias_constraint": null, "trainable": true, "kernel_constraint": null, "use_bias": true, "kernel_regularizer": null, "bias_initializer": {"config": {"dtype": "float32"}, "class_name": "Zeros"}, "activity_regularizer": null, "data_format": "channels_last", "filters": 512}, "class_name": "Conv2D", "inbound_nodes": [[["activation_20", 0, 0, {}]]]}, {"name": "bn3d_branch2c", "config": {"gamma_regularizer": null, "gamma_initializer": {"config": {"dtype": "float32"}, "class_name": "Ones"}, "momentum": 0.99, "center": true, "axis": [3], "beta_regularizer": null, "dtype": "float32", "scale": true, "name": "bn3d_branch2c", "trainable": true, "gamma_constraint": null, "beta_constraint": null, "beta_initializer": {"config": {"dtype": "float32"}, "class_name": "Zeros"}, "moving_variance_initializer": {"config": {"dtype": "float32"}, "class_name": "Ones"}, "epsilon": 0.001, "moving_mean_initializer": {"config": {"dtype": "float32"}, "class_name": "Zeros"}}, "class_name": "BatchNormalization", "inbound_nodes": [[["res3d_branch2c", 0, 0, {}]]]}, {"name": "add_6", "config": {"name": "add_6", "trainable": true, "dtype": "float32"}, "class_name": "Add", "inbound_nodes": [[["bn3d_branch2c", 0, 0, {}], ["activation_18", 0, 0, {}]]]}, {"name": "activation_21", "config": {"name": "activation_21", "activation": "relu", "trainable": true, "dtype": "float32"}, "class_name": "Activation", "inbound_nodes": [[["add_6", 0, 0, {}]]]}, {"name": "res4a_branch2a", "config": {"bias_regularizer": null, "padding": "valid", "strides": [2, 2], "kernel_size": [1, 1], "kernel_initializer": {"config": {"distribution": "truncated_normal", "seed": null, "dtype": "float32", "mode": "fan_in", "scale": 2.0}, "class_name": "VarianceScaling"}, "dilation_rate": [1, 1], "dtype": "float32", "activation": "linear", "name": "res4a_branch2a", "bias_constraint": null, "trainable": true, "kernel_constraint": null, "use_bias": true, "kernel_regularizer": null, "bias_initializer": {"config": {"dtype": "float32"}, "class_name": "Zeros"}, "activity_regularizer": null, "data_format": "channels_last", "filters": 256}, "class_name": "Conv2D", "inbound_nodes": [[["activation_21", 0, 0, {}]]]}, {"name": "bn4a_branch2a", "config": {"gamma_regularizer": null, "gamma_initializer": {"config": {"dtype": "float32"}, "class_name": "Ones"}, "momentum": 0.99, "center": true, "axis": [3], "beta_regularizer": null, "dtype": "float32", "scale": true, "name": "bn4a_branch2a", "trainable": true, "gamma_constraint": null, "beta_constraint": null, "beta_initializer": {"config": {"dtype": "float32"}, "class_name": "Zeros"}, "moving_variance_initializer": {"config": {"dtype": "float32"}, "class_name": "Ones"}, "epsilon": 0.001, "moving_mean_initializer": {"config": {"dtype": "float32"}, "class_name": "Zeros"}}, "class_name": "BatchNormalization", "inbound_nodes": [[["res4a_branch2a", 0, 0, {}]]]}, {"name": "activation_22", "config": {"name": "activation_22", "activation": "relu", "trainable": true, "dtype": "float32"}, "class_name": "Activation", "inbound_nodes": [[["bn4a_branch2a", 0, 0, {}]]]}, {"name": "res4a_branch2b", "config": {"bias_regularizer": null, "padding": "same", "strides": [1, 1], "kernel_size": [3, 3], "kernel_initializer": {"config": {"distribution": "truncated_normal", "seed": null, "dtype": "float32", "mode": "fan_in", "scale": 2.0}, "class_name": "VarianceScaling"}, "dilation_rate": [1, 1], "dtype": "float32", "activation": "linear", "name": "res4a_branch2b", "bias_constraint": null, "trainable": true, "kernel_constraint": null, "use_bias": true, "kernel_regularizer": null, "bias_initializer": {"config": {"dtype": "float32"}, "class_name": "Zeros"}, "activity_regularizer": null, "data_format": "channels_last", "filters": 256}, "class_name": "Conv2D", "inbound_nodes": [[["activation_22", 0, 0, {}]]]}, {"name": "bn4a_branch2b", "config": {"gamma_regularizer": null, "gamma_initializer": {"config": {"dtype": "float32"}, "class_name": "Ones"}, "momentum": 0.99, "center": true, "axis": [3], "beta_regularizer": null, "dtype": "float32", "scale": true, "name": "bn4a_branch2b", "trainable": true, "gamma_constraint": null, "beta_constraint": null, "beta_initializer": {"config": {"dtype": "float32"}, "class_name": "Zeros"}, "moving_variance_initializer": {"config": {"dtype": "float32"}, "class_name": "Ones"}, "epsilon": 0.001, "moving_mean_initializer": {"config": {"dtype": "float32"}, "class_name": "Zeros"}}, "class_name": "BatchNormalization", "inbound_nodes": [[["res4a_branch2b", 0, 0, {}]]]}, {"name": "activation_23", "config": {"name": "activation_23", "activation": "relu", "trainable": true, "dtype": "float32"}, "class_name": "Activation", "inbound_nodes": [[["bn4a_branch2b", 0, 0, {}]]]}, {"name": "res4a_branch2c", "config": {"bias_regularizer": null, "padding": "valid", "strides": [1, 1], "kernel_size": [1, 1], "kernel_initializer": {"config": {"distribution": "truncated_normal", "seed": null, "dtype": "float32", "mode": "fan_in", "scale": 2.0}, "class_name": "VarianceScaling"}, "dilation_rate": [1, 1], "dtype": "float32", "activation": "linear", "name": "res4a_branch2c", "bias_constraint": null, "trainable": true, "kernel_constraint": null, "use_bias": true, "kernel_regularizer": null, "bias_initializer": {"config": {"dtype": "float32"}, "class_name": "Zeros"}, "activity_regularizer": null, "data_format": "channels_last", "filters": 1024}, "class_name": "Conv2D", "inbound_nodes": [[["activation_23", 0, 0, {}]]]}, {"name": "res4a_branch1", "config": {"bias_regularizer": null, "padding": "valid", "strides": [2, 2], "kernel_size": [1, 1], "kernel_initializer": {"config": {"distribution": "truncated_normal", "seed": null, "dtype": "float32", "mode": "fan_in", "scale": 2.0}, "class_name": "VarianceScaling"}, "dilation_rate": [1, 1], "dtype": "float32", "activation": "linear", "name": "res4a_branch1", "bias_constraint": null, "trainable": true, "kernel_constraint": null, "use_bias": true, "kernel_regularizer": null, "bias_initializer": {"config": {"dtype": "float32"}, "class_name": "Zeros"}, "activity_regularizer": null, "data_format": "channels_last", "filters": 1024}, "class_name": "Conv2D", "inbound_nodes": [[["activation_21", 0, 0, {}]]]}, {"name": "bn4a_branch2c", "config": {"gamma_regularizer": null, "gamma_initializer": {"config": {"dtype": "float32"}, "class_name": "Ones"}, "momentum": 0.99, "center": true, "axis": [3], "beta_regularizer": null, "dtype": "float32", "scale": true, "name": "bn4a_branch2c", "trainable": true, "gamma_constraint": null, "beta_constraint": null, "beta_initializer": {"config": {"dtype": "float32"}, "class_name": "Zeros"}, "moving_variance_initializer": {"config": {"dtype": "float32"}, "class_name": "Ones"}, "epsilon": 0.001, "moving_mean_initializer": {"config": {"dtype": "float32"}, "class_name": "Zeros"}}, "class_name": "BatchNormalization", "inbound_nodes": [[["res4a_branch2c", 0, 0, {}]]]}, {"name": "bn4a_branch1", "config": {"gamma_regularizer": null, "gamma_initializer": {"config": {"dtype": "float32"}, "class_name": "Ones"}, "momentum": 0.99, "center": true, "axis": [3], "beta_regularizer": null, "dtype": "float32", "scale": true, "name": "bn4a_branch1", "trainable": true, "gamma_constraint": null, "beta_constraint": null, "beta_initializer": {"config": {"dtype": "float32"}, "class_name": "Zeros"}, "moving_variance_initializer": {"config": {"dtype": "float32"}, "class_name": "Ones"}, "epsilon": 0.001, "moving_mean_initializer": {"config": {"dtype": "float32"}, "class_name": "Zeros"}}, "class_name": "BatchNormalization", "inbound_nodes": [[["res4a_branch1", 0, 0, {}]]]}, {"name": "add_7", "config": {"name": "add_7", "trainable": true, "dtype": "float32"}, "class_name": "Add", "inbound_nodes": [[["bn4a_branch2c", 0, 0, {}], ["bn4a_branch1", 0, 0, {}]]]}, {"name": "activation_24", "config": {"name": "activation_24", "activation": "relu", "trainable": true, "dtype": "float32"}, "class_name": "Activation", "inbound_nodes": [[["add_7", 0, 0, {}]]]}, {"name": "res4b_branch2a", "config": {"bias_regularizer": null, "padding": "valid", "strides": [1, 1], "kernel_size": [1, 1], "kernel_initializer": {"config": {"distribution": "truncated_normal", "seed": null, "dtype": "float32", "mode": "fan_in", "scale": 2.0}, "class_name": "VarianceScaling"}, "dilation_rate": [1, 1], "dtype": "float32", "activation": "linear", "name": "res4b_branch2a", "bias_constraint": null, "trainable": true, "kernel_constraint": null, "use_bias": true, "kernel_regularizer": null, "bias_initializer": {"config": {"dtype": "float32"}, "class_name": "Zeros"}, "activity_regularizer": null, "data_format": "channels_last", "filters": 256}, "class_name": "Conv2D", "inbound_nodes": [[["activation_24", 0, 0, {}]]]}, {"name": "bn4b_branch2a", "config": {"gamma_regularizer": null, "gamma_initializer": {"config": {"dtype": "float32"}, "class_name": "Ones"}, "momentum": 0.99, "center": true, "axis": [3], "beta_regularizer": null, "dtype": "float32", "scale": true, "name": "bn4b_branch2a", "trainable": true, "gamma_constraint": null, "beta_constraint": null, "beta_initializer": {"config": {"dtype": "float32"}, "class_name": "Zeros"}, "moving_variance_initializer": {"config": {"dtype": "float32"}, "class_name": "Ones"}, "epsilon": 0.001, "moving_mean_initializer": {"config": {"dtype": "float32"}, "class_name": "Zeros"}}, "class_name": "BatchNormalization", "inbound_nodes": [[["res4b_branch2a", 0, 0, {}]]]}, {"name": "activation_25", "config": {"name": "activation_25", "activation": "relu", "trainable": true, "dtype": "float32"}, "class_name": "Activation", "inbound_nodes": [[["bn4b_branch2a", 0, 0, {}]]]}, {"name": "res4b_branch2b", "config": {"bias_regularizer": null, "padding": "same", "strides": [1, 1], "kernel_size": [3, 3], "kernel_initializer": {"config": {"distribution": "truncated_normal", "seed": null, "dtype": "float32", "mode": "fan_in", "scale": 2.0}, "class_name": "VarianceScaling"}, "dilation_rate": [1, 1], "dtype": "float32", "activation": "linear", "name": "res4b_branch2b", "bias_constraint": null, "trainable": true, "kernel_constraint": null, "use_bias": true, "kernel_regularizer": null, "bias_initializer": {"config": {"dtype": "float32"}, "class_name": "Zeros"}, "activity_regularizer": null, "data_format": "channels_last", "filters": 256}, "class_name": "Conv2D", "inbound_nodes": [[["activation_25", 0, 0, {}]]]}, {"name": "bn4b_branch2b", "config": {"gamma_regularizer": null, "gamma_initializer": {"config": {"dtype": "float32"}, "class_name": "Ones"}, "momentum": 0.99, "center": true, "axis": [3], "beta_regularizer": null, "dtype": "float32", "scale": true, "name": "bn4b_branch2b", "trainable": true, "gamma_constraint": null, "beta_constraint": null, "beta_initializer": {"config": {"dtype": "float32"}, "class_name": "Zeros"}, "moving_variance_initializer": {"config": {"dtype": "float32"}, "class_name": "Ones"}, "epsilon": 0.001, "moving_mean_initializer": {"config": {"dtype": "float32"}, "class_name": "Zeros"}}, "class_name": "BatchNormalization", "inbound_nodes": [[["res4b_branch2b", 0, 0, {}]]]}, {"name": "activation_26", "config": {"name": "activation_26", "activation": "relu", "trainable": true, "dtype": "float32"}, "class_name": "Activation", "inbound_nodes": [[["bn4b_branch2b", 0, 0, {}]]]}, {"name": "res4b_branch2c", "config": {"bias_regularizer": null, "padding": "valid", "strides": [1, 1], "kernel_size": [1, 1], "kernel_initializer": {"config": {"distribution": "truncated_normal", "seed": null, "dtype": "float32", "mode": "fan_in", "scale": 2.0}, "class_name": "VarianceScaling"}, "dilation_rate": [1, 1], "dtype": "float32", "activation": "linear", "name": "res4b_branch2c", "bias_constraint": null, "trainable": true, "kernel_constraint": null, "use_bias": true, "kernel_regularizer": null, "bias_initializer": {"config": {"dtype": "float32"}, "class_name": "Zeros"}, "activity_regularizer": null, "data_format": "channels_last", "filters": 1024}, "class_name": "Conv2D", "inbound_nodes": [[["activation_26", 0, 0, {}]]]}, {"name": "bn4b_branch2c", "config": {"gamma_regularizer": null, "gamma_initializer": {"config": {"dtype": "float32"}, "class_name": "Ones"}, "momentum": 0.99, "center": true, "axis": [3], "beta_regularizer": null, "dtype": "float32", "scale": true, "name": "bn4b_branch2c", "trainable": true, "gamma_constraint": null, "beta_constraint": null, "beta_initializer": {"config": {"dtype": "float32"}, "class_name": "Zeros"}, "moving_variance_initializer": {"config": {"dtype": "float32"}, "class_name": "Ones"}, "epsilon": 0.001, "moving_mean_initializer": {"config": {"dtype": "float32"}, "class_name": "Zeros"}}, "class_name": "BatchNormalization", "inbound_nodes": [[["res4b_branch2c", 0, 0, {}]]]}, {"name": "add_8", "config": {"name": "add_8", "trainable": true, "dtype": "float32"}, "class_name": "Add", "inbound_nodes": [[["bn4b_branch2c", 0, 0, {}], ["activation_24", 0, 0, {}]]]}, {"name": "activation_27", "config": {"name": "activation_27", "activation": "relu", "trainable": true, "dtype": "float32"}, "class_name": "Activation", "inbound_nodes": [[["add_8", 0, 0, {}]]]}, {"name": "res4c_branch2a", "config": {"bias_regularizer": null, "padding": "valid", "strides": [1, 1], "kernel_size": [1, 1], "kernel_initializer": {"config": {"distribution": "truncated_normal", "seed": null, "dtype": "float32", "mode": "fan_in", "scale": 2.0}, "class_name": "VarianceScaling"}, "dilation_rate": [1, 1], "dtype": "float32", "activation": "linear", "name": "res4c_branch2a", "bias_constraint": null, "trainable": true, "kernel_constraint": null, "use_bias": true, "kernel_regularizer": null, "bias_initializer": {"config": {"dtype": "float32"}, "class_name": "Zeros"}, "activity_regularizer": null, "data_format": "channels_last", "filters": 256}, "class_name": "Conv2D", "inbound_nodes": [[["activation_27", 0, 0, {}]]]}, {"name": "bn4c_branch2a", "config": {"gamma_regularizer": null, "gamma_initializer": {"config": {"dtype": "float32"}, "class_name": "Ones"}, "momentum": 0.99, "center": true, "axis": [3], "beta_regularizer": null, "dtype": "float32", "scale": true, "name": "bn4c_branch2a", "trainable": true, "gamma_constraint": null, "beta_constraint": null, "beta_initializer": {"config": {"dtype": "float32"}, "class_name": "Zeros"}, "moving_variance_initializer": {"config": {"dtype": "float32"}, "class_name": "Ones"}, "epsilon": 0.001, "moving_mean_initializer": {"config": {"dtype": "float32"}, "class_name": "Zeros"}}, "class_name": "BatchNormalization", "inbound_nodes": [[["res4c_branch2a", 0, 0, {}]]]}, {"name": "activation_28", "config": {"name": "activation_28", "activation": "relu", "trainable": true, "dtype": "float32"}, "class_name": "Activation", "inbound_nodes": [[["bn4c_branch2a", 0, 0, {}]]]}, {"name": "res4c_branch2b", "config": {"bias_regularizer": null, "padding": "same", "strides": [1, 1], "kernel_size": [3, 3], "kernel_initializer": {"config": {"distribution": "truncated_normal", "seed": null, "dtype": "float32", "mode": "fan_in", "scale": 2.0}, "class_name": "VarianceScaling"}, "dilation_rate": [1, 1], "dtype": "float32", "activation": "linear", "name": "res4c_branch2b", "bias_constraint": null, "trainable": true, "kernel_constraint": null, "use_bias": true, "kernel_regularizer": null, "bias_initializer": {"config": {"dtype": "float32"}, "class_name": "Zeros"}, "activity_regularizer": null, "data_format": "channels_last", "filters": 256}, "class_name": "Conv2D", "inbound_nodes": [[["activation_28", 0, 0, {}]]]}, {"name": "bn4c_branch2b", "config": {"gamma_regularizer": null, "gamma_initializer": {"config": {"dtype": "float32"}, "class_name": "Ones"}, "momentum": 0.99, "center": true, "axis": [3], "beta_regularizer": null, "dtype": "float32", "scale": true, "name": "bn4c_branch2b", "trainable": true, "gamma_constraint": null, "beta_constraint": null, "beta_initializer": {"config": {"dtype": "float32"}, "class_name": "Zeros"}, "moving_variance_initializer": {"config": {"dtype": "float32"}, "class_name": "Ones"}, "epsilon": 0.001, "moving_mean_initializer": {"config": {"dtype": "float32"}, "class_name": "Zeros"}}, "class_name": "BatchNormalization", "inbound_nodes": [[["res4c_branch2b", 0, 0, {}]]]}, {"name": "activation_29", "config": {"name": "activation_29", "activation": "relu", "trainable": true, "dtype": "float32"}, "class_name": "Activation", "inbound_nodes": [[["bn4c_branch2b", 0, 0, {}]]]}, {"name": "res4c_branch2c", "config": {"bias_regularizer": null, "padding": "valid", "strides": [1, 1], "kernel_size": [1, 1], "kernel_initializer": {"config": {"distribution": "truncated_normal", "seed": null, "dtype": "float32", "mode": "fan_in", "scale": 2.0}, "class_name": "VarianceScaling"}, "dilation_rate": [1, 1], "dtype": "float32", "activation": "linear", "name": "res4c_branch2c", "bias_constraint": null, "trainable": true, "kernel_constraint": null, "use_bias": true, "kernel_regularizer": null, "bias_initializer": {"config": {"dtype": "float32"}, "class_name": "Zeros"}, "activity_regularizer": null, "data_format": "channels_last", "filters": 1024}, "class_name": "Conv2D", "inbound_nodes": [[["activation_29", 0, 0, {}]]]}, {"name": "bn4c_branch2c", "config": {"gamma_regularizer": null, "gamma_initializer": {"config": {"dtype": "float32"}, "class_name": "Ones"}, "momentum": 0.99, "center": true, "axis": [3], "beta_regularizer": null, "dtype": "float32", "scale": true, "name": "bn4c_branch2c", "trainable": true, "gamma_constraint": null, "beta_constraint": null, "beta_initializer": {"config": {"dtype": "float32"}, "class_name": "Zeros"}, "moving_variance_initializer": {"config": {"dtype": "float32"}, "class_name": "Ones"}, "epsilon": 0.001, "moving_mean_initializer": {"config": {"dtype": "float32"}, "class_name": "Zeros"}}, "class_name": "BatchNormalization", "inbound_nodes": [[["res4c_branch2c", 0, 0, {}]]]}, {"name": "add_9", "config": {"name": "add_9", "trainable": true, "dtype": "float32"}, "class_name": "Add", "inbound_nodes": [[["bn4c_branch2c", 0, 0, {}], ["activation_27", 0, 0, {}]]]}, {"name": "activation_30", "config": {"name": "activation_30", "activation": "relu", "trainable": true, "dtype": "float32"}, "class_name": "Activation", "inbound_nodes": [[["add_9", 0, 0, {}]]]}, {"name": "res4d_branch2a", "config": {"bias_regularizer": null, "padding": "valid", "strides": [1, 1], "kernel_size": [1, 1], "kernel_initializer": {"config": {"distribution": "truncated_normal", "seed": null, "dtype": "float32", "mode": "fan_in", "scale": 2.0}, "class_name": "VarianceScaling"}, "dilation_rate": [1, 1], "dtype": "float32", "activation": "linear", "name": "res4d_branch2a", "bias_constraint": null, "trainable": true, "kernel_constraint": null, "use_bias": true, "kernel_regularizer": null, "bias_initializer": {"config": {"dtype": "float32"}, "class_name": "Zeros"}, "activity_regularizer": null, "data_format": "channels_last", "filters": 256}, "class_name": "Conv2D", "inbound_nodes": [[["activation_30", 0, 0, {}]]]}, {"name": "bn4d_branch2a", "config": {"gamma_regularizer": null, "gamma_initializer": {"config": {"dtype": "float32"}, "class_name": "Ones"}, "momentum": 0.99, "center": true, "axis": [3], "beta_regularizer": null, "dtype": "float32", "scale": true, "name": "bn4d_branch2a", "trainable": true, "gamma_constraint": null, "beta_constraint": null, "beta_initializer": {"config": {"dtype": "float32"}, "class_name": "Zeros"}, "moving_variance_initializer": {"config": {"dtype": "float32"}, "class_name": "Ones"}, "epsilon": 0.001, "moving_mean_initializer": {"config": {"dtype": "float32"}, "class_name": "Zeros"}}, "class_name": "BatchNormalization", "inbound_nodes": [[["res4d_branch2a", 0, 0, {}]]]}, {"name": "activation_31", "config": {"name": "activation_31", "activation": "relu", "trainable": true, "dtype": "float32"}, "class_name": "Activation", "inbound_nodes": [[["bn4d_branch2a", 0, 0, {}]]]}, {"name": "res4d_branch2b", "config": {"bias_regularizer": null, "padding": "same", "strides": [1, 1], "kernel_size": [3, 3], "kernel_initializer": {"config": {"distribution": "truncated_normal", "seed": null, "dtype": "float32", "mode": "fan_in", "scale": 2.0}, "class_name": "VarianceScaling"}, "dilation_rate": [1, 1], "dtype": "float32", "activation": "linear", "name": "res4d_branch2b", "bias_constraint": null, "trainable": true, "kernel_constraint": null, "use_bias": true, "kernel_regularizer": null, "bias_initializer": {"config": {"dtype": "float32"}, "class_name": "Zeros"}, "activity_regularizer": null, "data_format": "channels_last", "filters": 256}, "class_name": "Conv2D", "inbound_nodes": [[["activation_31", 0, 0, {}]]]}, {"name": "bn4d_branch2b", "config": {"gamma_regularizer": null, "gamma_initializer": {"config": {"dtype": "float32"}, "class_name": "Ones"}, "momentum": 0.99, "center": true, "axis": [3], "beta_regularizer": null, "dtype": "float32", "scale": true, "name": "bn4d_branch2b", "trainable": true, "gamma_constraint": null, "beta_constraint": null, "beta_initializer": {"config": {"dtype": "float32"}, "class_name": "Zeros"}, "moving_variance_initializer": {"config": {"dtype": "float32"}, "class_name": "Ones"}, "epsilon": 0.001, "moving_mean_initializer": {"config": {"dtype": "float32"}, "class_name": "Zeros"}}, "class_name": "BatchNormalization", "inbound_nodes": [[["res4d_branch2b", 0, 0, {}]]]}, {"name": "activation_32", "config": {"name": "activation_32", "activation": "relu", "trainable": true, "dtype": "float32"}, "class_name": "Activation", "inbound_nodes": [[["bn4d_branch2b", 0, 0, {}]]]}, {"name": "res4d_branch2c", "config": {"bias_regularizer": null, "padding": "valid", "strides": [1, 1], "kernel_size": [1, 1], "kernel_initializer": {"config": {"distribution": "truncated_normal", "seed": null, "dtype": "float32", "mode": "fan_in", "scale": 2.0}, "class_name": "VarianceScaling"}, "dilation_rate": [1, 1], "dtype": "float32", "activation": "linear", "name": "res4d_branch2c", "bias_constraint": null, "trainable": true, "kernel_constraint": null, "use_bias": true, "kernel_regularizer": null, "bias_initializer": {"config": {"dtype": "float32"}, "class_name": "Zeros"}, "activity_regularizer": null, "data_format": "channels_last", "filters": 1024}, "class_name": "Conv2D", "inbound_nodes": [[["activation_32", 0, 0, {}]]]}, {"name": "bn4d_branch2c", "config": {"gamma_regularizer": null, "gamma_initializer": {"config": {"dtype": "float32"}, "class_name": "Ones"}, "momentum": 0.99, "center": true, "axis": [3], "beta_regularizer": null, "dtype": "float32", "scale": true, "name": "bn4d_branch2c", "trainable": true, "gamma_constraint": null, "beta_constraint": null, "beta_initializer": {"config": {"dtype": "float32"}, "class_name": "Zeros"}, "moving_variance_initializer": {"config": {"dtype": "float32"}, "class_name": "Ones"}, "epsilon": 0.001, "moving_mean_initializer": {"config": {"dtype": "float32"}, "class_name": "Zeros"}}, "class_name": "BatchNormalization", "inbound_nodes": [[["res4d_branch2c", 0, 0, {}]]]}, {"name": "add_10", "config": {"name": "add_10", "trainable": true, "dtype": "float32"}, "class_name": "Add", "inbound_nodes": [[["bn4d_branch2c", 0, 0, {}], ["activation_30", 0, 0, {}]]]}, {"name": "activation_33", "config": {"name": "activation_33", "activation": "relu", "trainable": true, "dtype": "float32"}, "class_name": "Activation", "inbound_nodes": [[["add_10", 0, 0, {}]]]}, {"name": "res4e_branch2a", "config": {"bias_regularizer": null, "padding": "valid", "strides": [1, 1], "kernel_size": [1, 1], "kernel_initializer": {"config": {"distribution": "truncated_normal", "seed": null, "dtype": "float32", "mode": "fan_in", "scale": 2.0}, "class_name": "VarianceScaling"}, "dilation_rate": [1, 1], "dtype": "float32", "activation": "linear", "name": "res4e_branch2a", "bias_constraint": null, "trainable": true, "kernel_constraint": null, "use_bias": true, "kernel_regularizer": null, "bias_initializer": {"config": {"dtype": "float32"}, "class_name": "Zeros"}, "activity_regularizer": null, "data_format": "channels_last", "filters": 256}, "class_name": "Conv2D", "inbound_nodes": [[["activation_33", 0, 0, {}]]]}, {"name": "bn4e_branch2a", "config": {"gamma_regularizer": null, "gamma_initializer": {"config": {"dtype": "float32"}, "class_name": "Ones"}, "momentum": 0.99, "center": true, "axis": [3], "beta_regularizer": null, "dtype": "float32", "scale": true, "name": "bn4e_branch2a", "trainable": true, "gamma_constraint": null, "beta_constraint": null, "beta_initializer": {"config": {"dtype": "float32"}, "class_name": "Zeros"}, "moving_variance_initializer": {"config": {"dtype": "float32"}, "class_name": "Ones"}, "epsilon": 0.001, "moving_mean_initializer": {"config": {"dtype": "float32"}, "class_name": "Zeros"}}, "class_name": "BatchNormalization", "inbound_nodes": [[["res4e_branch2a", 0, 0, {}]]]}, {"name": "activation_34", "config": {"name": "activation_34", "activation": "relu", "trainable": true, "dtype": "float32"}, "class_name": "Activation", "inbound_nodes": [[["bn4e_branch2a", 0, 0, {}]]]}, {"name": "res4e_branch2b", "config": {"bias_regularizer": null, "padding": "same", "strides": [1, 1], "kernel_size": [3, 3], "kernel_initializer": {"config": {"distribution": "truncated_normal", "seed": null, "dtype": "float32", "mode": "fan_in", "scale": 2.0}, "class_name": "VarianceScaling"}, "dilation_rate": [1, 1], "dtype": "float32", "activation": "linear", "name": "res4e_branch2b", "bias_constraint": null, "trainable": true, "kernel_constraint": null, "use_bias": true, "kernel_regularizer": null, "bias_initializer": {"config": {"dtype": "float32"}, "class_name": "Zeros"}, "activity_regularizer": null, "data_format": "channels_last", "filters": 256}, "class_name": "Conv2D", "inbound_nodes": [[["activation_34", 0, 0, {}]]]}, {"name": "bn4e_branch2b", "config": {"gamma_regularizer": null, "gamma_initializer": {"config": {"dtype": "float32"}, "class_name": "Ones"}, "momentum": 0.99, "center": true, "axis": [3], "beta_regularizer": null, "dtype": "float32", "scale": true, "name": "bn4e_branch2b", "trainable": true, "gamma_constraint": null, "beta_constraint": null, "beta_initializer": {"config": {"dtype": "float32"}, "class_name": "Zeros"}, "moving_variance_initializer": {"config": {"dtype": "float32"}, "class_name": "Ones"}, "epsilon": 0.001, "moving_mean_initializer": {"config": {"dtype": "float32"}, "class_name": "Zeros"}}, "class_name": "BatchNormalization", "inbound_nodes": [[["res4e_branch2b", 0, 0, {}]]]}, {"name": "activation_35", "config": {"name": "activation_35", "activation": "relu", "trainable": true, "dtype": "float32"}, "class_name": "Activation", "inbound_nodes": [[["bn4e_branch2b", 0, 0, {}]]]}, {"name": "res4e_branch2c", "config": {"bias_regularizer": null, "padding": "valid", "strides": [1, 1], "kernel_size": [1, 1], "kernel_initializer": {"config": {"distribution": "truncated_normal", "seed": null, "dtype": "float32", "mode": "fan_in", "scale": 2.0}, "class_name": "VarianceScaling"}, "dilation_rate": [1, 1], "dtype": "float32", "activation": "linear", "name": "res4e_branch2c", "bias_constraint": null, "trainable": true, "kernel_constraint": null, "use_bias": true, "kernel_regularizer": null, "bias_initializer": {"config": {"dtype": "float32"}, "class_name": "Zeros"}, "activity_regularizer": null, "data_format": "channels_last", "filters": 1024}, "class_name": "Conv2D", "inbound_nodes": [[["activation_35", 0, 0, {}]]]}, {"name": "bn4e_branch2c", "config": {"gamma_regularizer": null, "gamma_initializer": {"config": {"dtype": "float32"}, "class_name": "Ones"}, "momentum": 0.99, "center": true, "axis": [3], "beta_regularizer": null, "dtype": "float32", "scale": true, "name": "bn4e_branch2c", "trainable": true, "gamma_constraint": null, "beta_constraint": null, "beta_initializer": {"config": {"dtype": "float32"}, "class_name": "Zeros"}, "moving_variance_initializer": {"config": {"dtype": "float32"}, "class_name": "Ones"}, "epsilon": 0.001, "moving_mean_initializer": {"config": {"dtype": "float32"}, "class_name": "Zeros"}}, "class_name": "BatchNormalization", "inbound_nodes": [[["res4e_branch2c", 0, 0, {}]]]}, {"name": "add_11", "config": {"name": "add_11", "trainable": true, "dtype": "float32"}, "class_name": "Add", "inbound_nodes": [[["bn4e_branch2c", 0, 0, {}], ["activation_33", 0, 0, {}]]]}, {"name": "activation_36", "config": {"name": "activation_36", "activation": "relu", "trainable": true, "dtype": "float32"}, "class_name": "Activation", "inbound_nodes": [[["add_11", 0, 0, {}]]]}, {"name": "res4f_branch2a", "config": {"bias_regularizer": null, "padding": "valid", "strides": [1, 1], "kernel_size": [1, 1], "kernel_initializer": {"config": {"distribution": "truncated_normal", "seed": null, "dtype": "float32", "mode": "fan_in", "scale": 2.0}, "class_name": "VarianceScaling"}, "dilation_rate": [1, 1], "dtype": "float32", "activation": "linear", "name": "res4f_branch2a", "bias_constraint": null, "trainable": true, "kernel_constraint": null, "use_bias": true, "kernel_regularizer": null, "bias_initializer": {"config": {"dtype": "float32"}, "class_name": "Zeros"}, "activity_regularizer": null, "data_format": "channels_last", "filters": 256}, "class_name": "Conv2D", "inbound_nodes": [[["activation_36", 0, 0, {}]]]}, {"name": "bn4f_branch2a", "config": {"gamma_regularizer": null, "gamma_initializer": {"config": {"dtype": "float32"}, "class_name": "Ones"}, "momentum": 0.99, "center": true, "axis": [3], "beta_regularizer": null, "dtype": "float32", "scale": true, "name": "bn4f_branch2a", "trainable": true, "gamma_constraint": null, "beta_constraint": null, "beta_initializer": {"config": {"dtype": "float32"}, "class_name": "Zeros"}, "moving_variance_initializer": {"config": {"dtype": "float32"}, "class_name": "Ones"}, "epsilon": 0.001, "moving_mean_initializer": {"config": {"dtype": "float32"}, "class_name": "Zeros"}}, "class_name": "BatchNormalization", "inbound_nodes": [[["res4f_branch2a", 0, 0, {}]]]}, {"name": "activation_37", "config": {"name": "activation_37", "activation": "relu", "trainable": true, "dtype": "float32"}, "class_name": "Activation", "inbound_nodes": [[["bn4f_branch2a", 0, 0, {}]]]}, {"name": "res4f_branch2b", "config": {"bias_regularizer": null, "padding": "same", "strides": [1, 1], "kernel_size": [3, 3], "kernel_initializer": {"config": {"distribution": "truncated_normal", "seed": null, "dtype": "float32", "mode": "fan_in", "scale": 2.0}, "class_name": "VarianceScaling"}, "dilation_rate": [1, 1], "dtype": "float32", "activation": "linear", "name": "res4f_branch2b", "bias_constraint": null, "trainable": true, "kernel_constraint": null, "use_bias": true, "kernel_regularizer": null, "bias_initializer": {"config": {"dtype": "float32"}, "class_name": "Zeros"}, "activity_regularizer": null, "data_format": "channels_last", "filters": 256}, "class_name": "Conv2D", "inbound_nodes": [[["activation_37", 0, 0, {}]]]}, {"name": "bn4f_branch2b", "config": {"gamma_regularizer": null, "gamma_initializer": {"config": {"dtype": "float32"}, "class_name": "Ones"}, "momentum": 0.99, "center": true, "axis": [3], "beta_regularizer": null, "dtype": "float32", "scale": true, "name": "bn4f_branch2b", "trainable": true, "gamma_constraint": null, "beta_constraint": null, "beta_initializer": {"config": {"dtype": "float32"}, "class_name": "Zeros"}, "moving_variance_initializer": {"config": {"dtype": "float32"}, "class_name": "Ones"}, "epsilon": 0.001, "moving_mean_initializer": {"config": {"dtype": "float32"}, "class_name": "Zeros"}}, "class_name": "BatchNormalization", "inbound_nodes": [[["res4f_branch2b", 0, 0, {}]]]}, {"name": "activation_38", "config": {"name": "activation_38", "activation": "relu", "trainable": true, "dtype": "float32"}, "class_name": "Activation", "inbound_nodes": [[["bn4f_branch2b", 0, 0, {}]]]}, {"name": "res4f_branch2c", "config": {"bias_regularizer": null, "padding": "valid", "strides": [1, 1], "kernel_size": [1, 1], "kernel_initializer": {"config": {"distribution": "truncated_normal", "seed": null, "dtype": "float32", "mode": "fan_in", "scale": 2.0}, "class_name": "VarianceScaling"}, "dilation_rate": [1, 1], "dtype": "float32", "activation": "linear", "name": "res4f_branch2c", "bias_constraint": null, "trainable": true, "kernel_constraint": null, "use_bias": true, "kernel_regularizer": null, "bias_initializer": {"config": {"dtype": "float32"}, "class_name": "Zeros"}, "activity_regularizer": null, "data_format": "channels_last", "filters": 1024}, "class_name": "Conv2D", "inbound_nodes": [[["activation_38", 0, 0, {}]]]}, {"name": "bn4f_branch2c", "config": {"gamma_regularizer": null, "gamma_initializer": {"config": {"dtype": "float32"}, "class_name": "Ones"}, "momentum": 0.99, "center": true, "axis": [3], "beta_regularizer": null, "dtype": "float32", "scale": true, "name": "bn4f_branch2c", "trainable": true, "gamma_constraint": null, "beta_constraint": null, "beta_initializer": {"config": {"dtype": "float32"}, "class_name": "Zeros"}, "moving_variance_initializer": {"config": {"dtype": "float32"}, "class_name": "Ones"}, "epsilon": 0.001, "moving_mean_initializer": {"config": {"dtype": "float32"}, "class_name": "Zeros"}}, "class_name": "BatchNormalization", "inbound_nodes": [[["res4f_branch2c", 0, 0, {}]]]}, {"name": "add_12", "config": {"name": "add_12", "trainable": true, "dtype": "float32"}, "class_name": "Add", "inbound_nodes": [[["bn4f_branch2c", 0, 0, {}], ["activation_36", 0, 0, {}]]]}, {"name": "activation_39", "config": {"name": "activation_39", "activation": "relu", "trainable": true, "dtype": "float32"}, "class_name": "Activation", "inbound_nodes": [[["add_12", 0, 0, {}]]]}, {"name": "res5a_branch2a", "config": {"bias_regularizer": null, "padding": "valid", "strides": [2, 2], "kernel_size": [1, 1], "kernel_initializer": {"config": {"distribution": "truncated_normal", "seed": null, "dtype": "float32", "mode": "fan_in", "scale": 2.0}, "class_name": "VarianceScaling"}, "dilation_rate": [1, 1], "dtype": "float32", "activation": "linear", "name": "res5a_branch2a", "bias_constraint": null, "trainable": true, "kernel_constraint": null, "use_bias": true, "kernel_regularizer": null, "bias_initializer": {"config": {"dtype": "float32"}, "class_name": "Zeros"}, "activity_regularizer": null, "data_format": "channels_last", "filters": 512}, "class_name": "Conv2D", "inbound_nodes": [[["activation_39", 0, 0, {}]]]}, {"name": "bn5a_branch2a", "config": {"gamma_regularizer": null, "gamma_initializer": {"config": {"dtype": "float32"}, "class_name": "Ones"}, "momentum": 0.99, "center": true, "axis": [3], "beta_regularizer": null, "dtype": "float32", "scale": true, "name": "bn5a_branch2a", "trainable": true, "gamma_constraint": null, "beta_constraint": null, "beta_initializer": {"config": {"dtype": "float32"}, "class_name": "Zeros"}, "moving_variance_initializer": {"config": {"dtype": "float32"}, "class_name": "Ones"}, "epsilon": 0.001, "moving_mean_initializer": {"config": {"dtype": "float32"}, "class_name": "Zeros"}}, "class_name": "BatchNormalization", "inbound_nodes": [[["res5a_branch2a", 0, 0, {}]]]}, {"name": "activation_40", "config": {"name": "activation_40", "activation": "relu", "trainable": true, "dtype": "float32"}, "class_name": "Activation", "inbound_nodes": [[["bn5a_branch2a", 0, 0, {}]]]}, {"name": "res5a_branch2b", "config": {"bias_regularizer": null, "padding": "same", "strides": [1, 1], "kernel_size": [3, 3], "kernel_initializer": {"config": {"distribution": "truncated_normal", "seed": null, "dtype": "float32", "mode": "fan_in", "scale": 2.0}, "class_name": "VarianceScaling"}, "dilation_rate": [1, 1], "dtype": "float32", "activation": "linear", "name": "res5a_branch2b", "bias_constraint": null, "trainable": true, "kernel_constraint": null, "use_bias": true, "kernel_regularizer": null, "bias_initializer": {"config": {"dtype": "float32"}, "class_name": "Zeros"}, "activity_regularizer": null, "data_format": "channels_last", "filters": 512}, "class_name": "Conv2D", "inbound_nodes": [[["activation_40", 0, 0, {}]]]}, {"name": "bn5a_branch2b", "config": {"gamma_regularizer": null, "gamma_initializer": {"config": {"dtype": "float32"}, "class_name": "Ones"}, "momentum": 0.99, "center": true, "axis": [3], "beta_regularizer": null, "dtype": "float32", "scale": true, "name": "bn5a_branch2b", "trainable": true, "gamma_constraint": null, "beta_constraint": null, "beta_initializer": {"config": {"dtype": "float32"}, "class_name": "Zeros"}, "moving_variance_initializer": {"config": {"dtype": "float32"}, "class_name": "Ones"}, "epsilon": 0.001, "moving_mean_initializer": {"config": {"dtype": "float32"}, "class_name": "Zeros"}}, "class_name": "BatchNormalization", "inbound_nodes": [[["res5a_branch2b", 0, 0, {}]]]}, {"name": "activation_41", "config": {"name": "activation_41", "activation": "relu", "trainable": true, "dtype": "float32"}, "class_name": "Activation", "inbound_nodes": [[["bn5a_branch2b", 0, 0, {}]]]}, {"name": "res5a_branch2c", "config": {"bias_regularizer": null, "padding": "valid", "strides": [1, 1], "kernel_size": [1, 1], "kernel_initializer": {"config": {"distribution": "truncated_normal", "seed": null, "dtype": "float32", "mode": "fan_in", "scale": 2.0}, "class_name": "VarianceScaling"}, "dilation_rate": [1, 1], "dtype": "float32", "activation": "linear", "name": "res5a_branch2c", "bias_constraint": null, "trainable": true, "kernel_constraint": null, "use_bias": true, "kernel_regularizer": null, "bias_initializer": {"config": {"dtype": "float32"}, "class_name": "Zeros"}, "activity_regularizer": null, "data_format": "channels_last", "filters": 2048}, "class_name": "Conv2D", "inbound_nodes": [[["activation_41", 0, 0, {}]]]}, {"name": "res5a_branch1", "config": {"bias_regularizer": null, "padding": "valid", "strides": [2, 2], "kernel_size": [1, 1], "kernel_initializer": {"config": {"distribution": "truncated_normal", "seed": null, "dtype": "float32", "mode": "fan_in", "scale": 2.0}, "class_name": "VarianceScaling"}, "dilation_rate": [1, 1], "dtype": "float32", "activation": "linear", "name": "res5a_branch1", "bias_constraint": null, "trainable": true, "kernel_constraint": null, "use_bias": true, "kernel_regularizer": null, "bias_initializer": {"config": {"dtype": "float32"}, "class_name": "Zeros"}, "activity_regularizer": null, "data_format": "channels_last", "filters": 2048}, "class_name": "Conv2D", "inbound_nodes": [[["activation_39", 0, 0, {}]]]}, {"name": "bn5a_branch2c", "config": {"gamma_regularizer": null, "gamma_initializer": {"config": {"dtype": "float32"}, "class_name": "Ones"}, "momentum": 0.99, "center": true, "axis": [3], "beta_regularizer": null, "dtype": "float32", "scale": true, "name": "bn5a_branch2c", "trainable": true, "gamma_constraint": null, "beta_constraint": null, "beta_initializer": {"config": {"dtype": "float32"}, "class_name": "Zeros"}, "moving_variance_initializer": {"config": {"dtype": "float32"}, "class_name": "Ones"}, "epsilon": 0.001, "moving_mean_initializer": {"config": {"dtype": "float32"}, "class_name": "Zeros"}}, "class_name": "BatchNormalization", "inbound_nodes": [[["res5a_branch2c", 0, 0, {}]]]}, {"name": "bn5a_branch1", "config": {"gamma_regularizer": null, "gamma_initializer": {"config": {"dtype": "float32"}, "class_name": "Ones"}, "momentum": 0.99, "center": true, "axis": [3], "beta_regularizer": null, "dtype": "float32", "scale": true, "name": "bn5a_branch1", "trainable": true, "gamma_constraint": null, "beta_constraint": null, "beta_initializer": {"config": {"dtype": "float32"}, "class_name": "Zeros"}, "moving_variance_initializer": {"config": {"dtype": "float32"}, "class_name": "Ones"}, "epsilon": 0.001, "moving_mean_initializer": {"config": {"dtype": "float32"}, "class_name": "Zeros"}}, "class_name": "BatchNormalization", "inbound_nodes": [[["res5a_branch1", 0, 0, {}]]]}, {"name": "add_13", "config": {"name": "add_13", "trainable": true, "dtype": "float32"}, "class_name": "Add", "inbound_nodes": [[["bn5a_branch2c", 0, 0, {}], ["bn5a_branch1", 0, 0, {}]]]}, {"name": "activation_42", "config": {"name": "activation_42", "activation": "relu", "trainable": true, "dtype": "float32"}, "class_name": "Activation", "inbound_nodes": [[["add_13", 0, 0, {}]]]}, {"name": "res5b_branch2a", "config": {"bias_regularizer": null, "padding": "valid", "strides": [1, 1], "kernel_size": [1, 1], "kernel_initializer": {"config": {"distribution": "truncated_normal", "seed": null, "dtype": "float32", "mode": "fan_in", "scale": 2.0}, "class_name": "VarianceScaling"}, "dilation_rate": [1, 1], "dtype": "float32", "activation": "linear", "name": "res5b_branch2a", "bias_constraint": null, "trainable": true, "kernel_constraint": null, "use_bias": true, "kernel_regularizer": null, "bias_initializer": {"config": {"dtype": "float32"}, "class_name": "Zeros"}, "activity_regularizer": null, "data_format": "channels_last", "filters": 512}, "class_name": "Conv2D", "inbound_nodes": [[["activation_42", 0, 0, {}]]]}, {"name": "bn5b_branch2a", "config": {"gamma_regularizer": null, "gamma_initializer": {"config": {"dtype": "float32"}, "class_name": "Ones"}, "momentum": 0.99, "center": true, "axis": [3], "beta_regularizer": null, "dtype": "float32", "scale": true, "name": "bn5b_branch2a", "trainable": true, "gamma_constraint": null, "beta_constraint": null, "beta_initializer": {"config": {"dtype": "float32"}, "class_name": "Zeros"}, "moving_variance_initializer": {"config": {"dtype": "float32"}, "class_name": "Ones"}, "epsilon": 0.001, "moving_mean_initializer": {"config": {"dtype": "float32"}, "class_name": "Zeros"}}, "class_name": "BatchNormalization", "inbound_nodes": [[["res5b_branch2a", 0, 0, {}]]]}, {"name": "activation_43", "config": {"name": "activation_43", "activation": "relu", "trainable": true, "dtype": "float32"}, "class_name": "Activation", "inbound_nodes": [[["bn5b_branch2a", 0, 0, {}]]]}, {"name": "res5b_branch2b", "config": {"bias_regularizer": null, "padding": "same", "strides": [1, 1], "kernel_size": [3, 3], "kernel_initializer": {"config": {"distribution": "truncated_normal", "seed": null, "dtype": "float32", "mode": "fan_in", "scale": 2.0}, "class_name": "VarianceScaling"}, "dilation_rate": [1, 1], "dtype": "float32", "activation": "linear", "name": "res5b_branch2b", "bias_constraint": null, "trainable": true, "kernel_constraint": null, "use_bias": true, "kernel_regularizer": null, "bias_initializer": {"config": {"dtype": "float32"}, "class_name": "Zeros"}, "activity_regularizer": null, "data_format": "channels_last", "filters": 512}, "class_name": "Conv2D", "inbound_nodes": [[["activation_43", 0, 0, {}]]]}, {"name": "bn5b_branch2b", "config": {"gamma_regularizer": null, "gamma_initializer": {"config": {"dtype": "float32"}, "class_name": "Ones"}, "momentum": 0.99, "center": true, "axis": [3], "beta_regularizer": null, "dtype": "float32", "scale": true, "name": "bn5b_branch2b", "trainable": true, "gamma_constraint": null, "beta_constraint": null, "beta_initializer": {"config": {"dtype": "float32"}, "class_name": "Zeros"}, "moving_variance_initializer": {"config": {"dtype": "float32"}, "class_name": "Ones"}, "epsilon": 0.001, "moving_mean_initializer": {"config": {"dtype": "float32"}, "class_name": "Zeros"}}, "class_name": "BatchNormalization", "inbound_nodes": [[["res5b_branch2b", 0, 0, {}]]]}, {"name": "activation_44", "config": {"name": "activation_44", "activation": "relu", "trainable": true, "dtype": "float32"}, "class_name": "Activation", "inbound_nodes": [[["bn5b_branch2b", 0, 0, {}]]]}, {"name": "res5b_branch2c", "config": {"bias_regularizer": null, "padding": "valid", "strides": [1, 1], "kernel_size": [1, 1], "kernel_initializer": {"config": {"distribution": "truncated_normal", "seed": null, "dtype": "float32", "mode": "fan_in", "scale": 2.0}, "class_name": "VarianceScaling"}, "dilation_rate": [1, 1], "dtype": "float32", "activation": "linear", "name": "res5b_branch2c", "bias_constraint": null, "trainable": true, "kernel_constraint": null, "use_bias": true, "kernel_regularizer": null, "bias_initializer": {"config": {"dtype": "float32"}, "class_name": "Zeros"}, "activity_regularizer": null, "data_format": "channels_last", "filters": 2048}, "class_name": "Conv2D", "inbound_nodes": [[["activation_44", 0, 0, {}]]]}, {"name": "bn5b_branch2c", "config": {"gamma_regularizer": null, "gamma_initializer": {"config": {"dtype": "float32"}, "class_name": "Ones"}, "momentum": 0.99, "center": true, "axis": [3], "beta_regularizer": null, "dtype": "float32", "scale": true, "name": "bn5b_branch2c", "trainable": true, "gamma_constraint": null, "beta_constraint": null, "beta_initializer": {"config": {"dtype": "float32"}, "class_name": "Zeros"}, "moving_variance_initializer": {"config": {"dtype": "float32"}, "class_name": "Ones"}, "epsilon": 0.001, "moving_mean_initializer": {"config": {"dtype": "float32"}, "class_name": "Zeros"}}, "class_name": "BatchNormalization", "inbound_nodes": [[["res5b_branch2c", 0, 0, {}]]]}, {"name": "add_14", "config": {"name": "add_14", "trainable": true, "dtype": "float32"}, "class_name": "Add", "inbound_nodes": [[["bn5b_branch2c", 0, 0, {}], ["activation_42", 0, 0, {}]]]}, {"name": "activation_45", "config": {"name": "activation_45", "activation": "relu", "trainable": true, "dtype": "float32"}, "class_name": "Activation", "inbound_nodes": [[["add_14", 0, 0, {}]]]}, {"name": "res5c_branch2a", "config": {"bias_regularizer": null, "padding": "valid", "strides": [1, 1], "kernel_size": [1, 1], "kernel_initializer": {"config": {"distribution": "truncated_normal", "seed": null, "dtype": "float32", "mode": "fan_in", "scale": 2.0}, "class_name": "VarianceScaling"}, "dilation_rate": [1, 1], "dtype": "float32", "activation": "linear", "name": "res5c_branch2a", "bias_constraint": null, "trainable": true, "kernel_constraint": null, "use_bias": true, "kernel_regularizer": null, "bias_initializer": {"config": {"dtype": "float32"}, "class_name": "Zeros"}, "activity_regularizer": null, "data_format": "channels_last", "filters": 512}, "class_name": "Conv2D", "inbound_nodes": [[["activation_45", 0, 0, {}]]]}, {"name": "bn5c_branch2a", "config": {"gamma_regularizer": null, "gamma_initializer": {"config": {"dtype": "float32"}, "class_name": "Ones"}, "momentum": 0.99, "center": true, "axis": [3], "beta_regularizer": null, "dtype": "float32", "scale": true, "name": "bn5c_branch2a", "trainable": true, "gamma_constraint": null, "beta_constraint": null, "beta_initializer": {"config": {"dtype": "float32"}, "class_name": "Zeros"}, "moving_variance_initializer": {"config": {"dtype": "float32"}, "class_name": "Ones"}, "epsilon": 0.001, "moving_mean_initializer": {"config": {"dtype": "float32"}, "class_name": "Zeros"}}, "class_name": "BatchNormalization", "inbound_nodes": [[["res5c_branch2a", 0, 0, {}]]]}, {"name": "activation_46", "config": {"name": "activation_46", "activation": "relu", "trainable": true, "dtype": "float32"}, "class_name": "Activation", "inbound_nodes": [[["bn5c_branch2a", 0, 0, {}]]]}, {"name": "res5c_branch2b", "config": {"bias_regularizer": null, "padding": "same", "strides": [1, 1], "kernel_size": [3, 3], "kernel_initializer": {"config": {"distribution": "truncated_normal", "seed": null, "dtype": "float32", "mode": "fan_in", "scale": 2.0}, "class_name": "VarianceScaling"}, "dilation_rate": [1, 1], "dtype": "float32", "activation": "linear", "name": "res5c_branch2b", "bias_constraint": null, "trainable": true, "kernel_constraint": null, "use_bias": true, "kernel_regularizer": null, "bias_initializer": {"config": {"dtype": "float32"}, "class_name": "Zeros"}, "activity_regularizer": null, "data_format": "channels_last", "filters": 512}, "class_name": "Conv2D", "inbound_nodes": [[["activation_46", 0, 0, {}]]]}, {"name": "bn5c_branch2b", "config": {"gamma_regularizer": null, "gamma_initializer": {"config": {"dtype": "float32"}, "class_name": "Ones"}, "momentum": 0.99, "center": true, "axis": [3], "beta_regularizer": null, "dtype": "float32", "scale": true, "name": "bn5c_branch2b", "trainable": true, "gamma_constraint": null, "beta_constraint": null, "beta_initializer": {"config": {"dtype": "float32"}, "class_name": "Zeros"}, "moving_variance_initializer": {"config": {"dtype": "float32"}, "class_name": "Ones"}, "epsilon": 0.001, "moving_mean_initializer": {"config": {"dtype": "float32"}, "class_name": "Zeros"}}, "class_name": "BatchNormalization", "inbound_nodes": [[["res5c_branch2b", 0, 0, {}]]]}, {"name": "activation_47", "config": {"name": "activation_47", "activation": "relu", "trainable": true, "dtype": "float32"}, "class_name": "Activation", "inbound_nodes": [[["bn5c_branch2b", 0, 0, {}]]]}, {"name": "res5c_branch2c", "config": {"bias_regularizer": null, "padding": "valid", "strides": [1, 1], "kernel_size": [1, 1], "kernel_initializer": {"config": {"distribution": "truncated_normal", "seed": null, "dtype": "float32", "mode": "fan_in", "scale": 2.0}, "class_name": "VarianceScaling"}, "dilation_rate": [1, 1], "dtype": "float32", "activation": "linear", "name": "res5c_branch2c", "bias_constraint": null, "trainable": true, "kernel_constraint": null, "use_bias": true, "kernel_regularizer": null, "bias_initializer": {"config": {"dtype": "float32"}, "class_name": "Zeros"}, "activity_regularizer": null, "data_format": "channels_last", "filters": 2048}, "class_name": "Conv2D", "inbound_nodes": [[["activation_47", 0, 0, {}]]]}, {"name": "bn5c_branch2c", "config": {"gamma_regularizer": null, "gamma_initializer": {"config": {"dtype": "float32"}, "class_name": "Ones"}, "momentum": 0.99, "center": true, "axis": [3], "beta_regularizer": null, "dtype": "float32", "scale": true, "name": "bn5c_branch2c", "trainable": true, "gamma_constraint": null, "beta_constraint": null, "beta_initializer": {"config": {"dtype": "float32"}, "class_name": "Zeros"}, "moving_variance_initializer": {"config": {"dtype": "float32"}, "class_name": "Ones"}, "epsilon": 0.001, "moving_mean_initializer": {"config": {"dtype": "float32"}, "class_name": "Zeros"}}, "class_name": "BatchNormalization", "inbound_nodes": [[["res5c_branch2c", 0, 0, {}]]]}, {"name": "add_15", "config": {"name": "add_15", "trainable": true, "dtype": "float32"}, "class_name": "Add", "inbound_nodes": [[["bn5c_branch2c", 0, 0, {}], ["activation_45", 0, 0, {}]]]}, {"name": "activation_48", "config": {"name": "activation_48", "activation": "relu", "trainable": true, "dtype": "float32"}, "class_name": "Activation", "inbound_nodes": [[["add_15", 0, 0, {}]]]}, {"name": "avg_pool", "config": {"name": "avg_pool", "data_format": "channels_last", "trainable": true, "dtype": "float32"}, "class_name": "GlobalAveragePooling2D", "inbound_nodes": [[["activation_48", 0, 0, {}]]]}, {"name": "fc1000", "config": {"bias_regularizer": null, "activation": "softmax", "dtype": "float32", "kernel_initializer": {"config": {"seed": null, "dtype": "float32"}, "class_name": "GlorotUniform"}, "name": "fc1000", "bias_constraint": null, "trainable": true, "kernel_constraint": null, "units": 1000, "use_bias": true, "kernel_regularizer": null, "bias_initializer": {"config": {"dtype": "float32"}, "class_name": "Zeros"}, "activity_regularizer": null}, "class_name": "Dense", "inbound_nodes": [[["avg_pool", 0, 0, {}]]]}]}, "keras_version": "2.1.6-tf", "class_name": "Model", "backend": "tensorflow"}